…
2018-05-09 20:45:38.467935: I C:\tf_jenkins\workspace\rel-win\M\windows-gpu\PY\35\tensorflow\core\common_runtime\gpu\gpu_device.cc:1195] Creating TensorFlow device (/device:GPU:0) -> (device: 0, name: GeForce GTX 970, pci bus id: 0000:01:00.0, compute capability: 5.2)
Final Evaluation of Best Model Configuration


Initialising CNN Model...

Building CNN...

Filters:  128
Kernel Size:  5
Number of blocks:  1
Pooling type: max
Pooling Strides: 2
Pooling Length: 3
Conv Dropout:  0.08625213973083698
FC Dropout:  0.2650803877994672
Dense Units:  64
Activation: prelu
Batch Normalisation: True


Compilation Time:  0.014513492584228516
_________________________________________________________________
Layer (type)                 Output Shape              Param #
=================================================================
conv1d_1 (Conv1D)            (None, 1997, 128)         768
_________________________________________________________________
batch_normalization_1 (Batch (None, 1997, 128)         512
_________________________________________________________________
max_pooling1d_1 (MaxPooling1 (None, 998, 128)          0
_________________________________________________________________
dropout_1 (Dropout)          (None, 998, 128)          0
_________________________________________________________________
p_re_lu_1 (PReLU)            (None, 998, 128)          127744
_________________________________________________________________
conv1d_2 (Conv1D)            (None, 994, 128)          82048
_________________________________________________________________
batch_normalization_2 (Batch (None, 994, 128)          512
_________________________________________________________________
max_pooling1d_2 (MaxPooling1 (None, 496, 128)          0
_________________________________________________________________
dropout_2 (Dropout)          (None, 496, 128)          0
_________________________________________________________________
p_re_lu_2 (PReLU)            (None, 496, 128)          63488
_________________________________________________________________
flatten_1 (Flatten)          (None, 63488)             0
_________________________________________________________________
dense_1 (Dense)              (None, 64)                4063296
_________________________________________________________________
dropout_3 (Dropout)          (None, 64)                0
_________________________________________________________________
p_re_lu_3 (PReLU)            (None, 64)                64
_________________________________________________________________
dense_2 (Dense)              (None, 64)                4160
_________________________________________________________________
p_re_lu_4 (PReLU)            (None, 64)                64
_________________________________________________________________
dropout_4 (Dropout)          (None, 64)                0
_________________________________________________________________
dense_3 (Dense)              (None, 64)                4160
_________________________________________________________________
p_re_lu_5 (PReLU)            (None, 64)                64
_________________________________________________________________
dropout_5 (Dropout)          (None, 64)                0
_________________________________________________________________
dense_4 (Dense)              (None, 64)                4160
_________________________________________________________________
p_re_lu_6 (PReLU)            (None, 64)                64
_________________________________________________________________
dense_5 (Dense)              (None, 1)                 65
=================================================================
Total params: 4,351,169
Trainable params: 4,350,657
Non-trainable params: 512
_________________________________________________________________
None
Epoch 1/36
 - 19s - loss: 0.4397 - acc: 0.7725
Epoch 2/36
 - 17s - loss: 0.3497 - acc: 0.8205
Epoch 3/36
 - 17s - loss: 0.3109 - acc: 0.8576
Epoch 4/36
 - 18s - loss: 0.2828 - acc: 0.8800
…
