…
2018-05-04 18:44:26.862285: I C:\tf_jenkins\workspace\rel-win\M\windows-gpu\PY\35\tensorflow\core\common_runtime\gpu\gpu_device.cc:1195] Creating TensorFlow device (/device:GPU:0) -> (device: 0, name: GeForce GTX 970, pci bus id: 0000:01:00.0, compute capability: 5.2)
Initialising CNN Model...

Building CNN...

Filters:  128
Kernel Size:  7
Number of blocks:  1
Pooling type: average
Pooling Strides: 3
Pooling Length: 3
Conv Dropout:  0.20207824934741436
FC Dropout:  0.36191398000071645
Dense Units:  254
Activation: prelu
Batch Normalisation: False


Compilation Time:  0.014009952545166016
_________________________________________________________________
Layer (type)                 Output Shape              Param #
=================================================================
conv1d_1 (Conv1D)            (None, 1995, 128)         1024
_________________________________________________________________
average_pooling1d_1 (Average (None, 665, 128)          0
_________________________________________________________________
dropout_1 (Dropout)          (None, 665, 128)          0
_________________________________________________________________
p_re_lu_1 (PReLU)            (None, 665, 128)          85120
_________________________________________________________________
conv1d_2 (Conv1D)            (None, 659, 128)          114816
_________________________________________________________________
average_pooling1d_2 (Average (None, 219, 128)          0
_________________________________________________________________
dropout_2 (Dropout)          (None, 219, 128)          0
_________________________________________________________________
p_re_lu_2 (PReLU)            (None, 219, 128)          28032
_________________________________________________________________
flatten_1 (Flatten)          (None, 28032)             0
_________________________________________________________________
dense_1 (Dense)              (None, 254)               7120382
_________________________________________________________________
dropout_3 (Dropout)          (None, 254)               0
_________________________________________________________________
p_re_lu_3 (PReLU)            (None, 254)               254
_________________________________________________________________
dense_2 (Dense)              (None, 254)               64770
_________________________________________________________________
p_re_lu_4 (PReLU)            (None, 254)               254
_________________________________________________________________
dropout_4 (Dropout)          (None, 254)               0
_________________________________________________________________
dense_3 (Dense)              (None, 254)               64770
_________________________________________________________________
p_re_lu_5 (PReLU)            (None, 254)               254
_________________________________________________________________
dropout_5 (Dropout)          (None, 254)               0
_________________________________________________________________
dense_4 (Dense)              (None, 254)               64770
_________________________________________________________________
p_re_lu_6 (PReLU)            (None, 254)               254
_________________________________________________________________
dense_5 (Dense)              (None, 1)                 255
=================================================================
Total params: 7,544,955
Trainable params: 7,544,955
Non-trainable params: 0
_________________________________________________________________
None
Number of Epochs:  20
Epoch 1/20
 - 11s - loss: 0.6325 - acc: 0.7577
Epoch 2/20
 - 10s - loss: 0.5195 - acc: 0.7711
Epoch 3/20
 - 10s - loss: 0.4862 - acc: 0.7711
Epoch 4/20
 - 10s - loss: 0.4657 - acc: 0.7711
…
Recall:  0.8857142857142857


CV Score: 0.96% (+/- 0.01%)
CV Time:  0:17:36.733862
Initialising CNN Model...

Building CNN...

Filters:  32
Kernel Size:  7
Number of blocks:  0
Pooling type: max
Pooling Strides: 4
Pooling Length: 2
Conv Dropout:  0.2107959490397132
FC Dropout:  0.47735030642287024
Dense Units:  64
Activation: prelu
Batch Normalisation: False


Compilation Time:  0.014013051986694336
_________________________________________________________________
Layer (type)                 Output Shape              Param #
=================================================================
conv1d_3 (Conv1D)            (None, 1995, 32)          256
_________________________________________________________________
max_pooling1d_1 (MaxPooling1 (None, 499, 32)           0
_________________________________________________________________
dropout_6 (Dropout)          (None, 499, 32)           0
_________________________________________________________________
p_re_lu_7 (PReLU)            (None, 499, 32)           15968
_________________________________________________________________
flatten_2 (Flatten)          (None, 15968)             0
_________________________________________________________________
dense_6 (Dense)              (None, 64)                1022016
_________________________________________________________________
dropout_7 (Dropout)          (None, 64)                0
_________________________________________________________________
p_re_lu_8 (PReLU)            (None, 64)                64
_________________________________________________________________
dense_7 (Dense)              (None, 64)                4160
_________________________________________________________________
p_re_lu_9 (PReLU)            (None, 64)                64
_________________________________________________________________
dropout_8 (Dropout)          (None, 64)                0
_________________________________________________________________
dense_8 (Dense)              (None, 64)                4160
_________________________________________________________________
p_re_lu_10 (PReLU)           (None, 64)                64
_________________________________________________________________
dropout_9 (Dropout)          (None, 64)                0
_________________________________________________________________
dense_9 (Dense)              (None, 64)                4160
_________________________________________________________________
p_re_lu_11 (PReLU)           (None, 64)                64
_________________________________________________________________
dense_10 (Dense)             (None, 1)                 65
=================================================================
Total params: 1,051,041
Trainable params: 1,051,041
Non-trainable params: 0
_________________________________________________________________
None
Number of Epochs:  32
Epoch 1/32
 - 3s - loss: 0.6945 - acc: 0.5281
Epoch 2/32
 - 3s - loss: 0.5989 - acc: 0.7326
Epoch 3/32
 - 3s - loss: 0.5396 - acc: 0.7619
Epoch 4/32
 - 3s - loss: 0.5253 - acc: 0.7669
…
Recall:  0.8285714285714286


CV Score: 0.94% (+/- 0.02%)
CV Time:  0:07:34.511608
Initialising CNN Model...

Building CNN...

Filters:  16
Kernel Size:  5
Number of blocks:  1
Pooling type: max
Pooling Strides: 3
Pooling Length: 2
Conv Dropout:  0.3101881078687798
FC Dropout:  0.2556362714001992
Dense Units:  128
Activation: prelu
Batch Normalisation: False


Compilation Time:  0.014014244079589844
_________________________________________________________________
Layer (type)                 Output Shape              Param #
=================================================================
conv1d_4 (Conv1D)            (None, 1997, 16)          96
_________________________________________________________________
max_pooling1d_2 (MaxPooling1 (None, 666, 16)           0
_________________________________________________________________
dropout_10 (Dropout)         (None, 666, 16)           0
_________________________________________________________________
p_re_lu_12 (PReLU)           (None, 666, 16)           10656
_________________________________________________________________
conv1d_5 (Conv1D)            (None, 662, 16)           1296
_________________________________________________________________
max_pooling1d_3 (MaxPooling1 (None, 221, 16)           0
_________________________________________________________________
dropout_11 (Dropout)         (None, 221, 16)           0
_________________________________________________________________
p_re_lu_13 (PReLU)           (None, 221, 16)           3536
_________________________________________________________________
flatten_3 (Flatten)          (None, 3536)              0
_________________________________________________________________
dense_11 (Dense)             (None, 128)               452736
_________________________________________________________________
dropout_12 (Dropout)         (None, 128)               0
_________________________________________________________________
p_re_lu_14 (PReLU)           (None, 128)               128
_________________________________________________________________
dense_12 (Dense)             (None, 128)               16512
_________________________________________________________________
p_re_lu_15 (PReLU)           (None, 128)               128
_________________________________________________________________
dropout_13 (Dropout)         (None, 128)               0
_________________________________________________________________
dense_13 (Dense)             (None, 128)               16512
_________________________________________________________________
p_re_lu_16 (PReLU)           (None, 128)               128
_________________________________________________________________
dropout_14 (Dropout)         (None, 128)               0
_________________________________________________________________
dense_14 (Dense)             (None, 128)               16512
_________________________________________________________________
p_re_lu_17 (PReLU)           (None, 128)               128
_________________________________________________________________
dense_15 (Dense)             (None, 1)                 129
=================================================================
Total params: 518,497
Trainable params: 518,497
Non-trainable params: 0
_________________________________________________________________
None
Number of Epochs:  9
Epoch 1/9
 - 5s - loss: 0.5463 - acc: 0.7562
Epoch 2/9
 - 5s - loss: 0.5021 - acc: 0.7711
Epoch 3/9
 - 5s - loss: 0.4901 - acc: 0.7711
Epoch 4/9
 - 5s - loss: 0.4826 - acc: 0.7711
…
CV Score: 0.91% (+/- 0.03%)
CV Time:  0:03:42.434257
Initialising CNN Model...

Building CNN...

Filters:  64
Kernel Size:  9
Number of blocks:  0
Pooling type: average
Pooling Strides: 3
Pooling Length: 2
Conv Dropout:  0.24282528446983698
FC Dropout:  0.3400859132592461
Dense Units:  32
Activation: prelu
Batch Normalisation: True


Compilation Time:  0.014013290405273438
_________________________________________________________________
Layer (type)                 Output Shape              Param #
=================================================================
conv1d_6 (Conv1D)            (None, 1993, 64)          640
_________________________________________________________________
batch_normalization_1 (Batch (None, 1993, 64)          256
_________________________________________________________________
average_pooling1d_3 (Average (None, 664, 64)           0
_________________________________________________________________
dropout_15 (Dropout)         (None, 664, 64)           0
_________________________________________________________________
p_re_lu_18 (PReLU)           (None, 664, 64)           42496
_________________________________________________________________
flatten_4 (Flatten)          (None, 42496)             0
_________________________________________________________________
dense_16 (Dense)             (None, 32)                1359904
_________________________________________________________________
dropout_16 (Dropout)         (None, 32)                0
_________________________________________________________________
p_re_lu_19 (PReLU)           (None, 32)                32
_________________________________________________________________
dense_17 (Dense)             (None, 32)                1056
_________________________________________________________________
p_re_lu_20 (PReLU)           (None, 32)                32
_________________________________________________________________
dropout_17 (Dropout)         (None, 32)                0
_________________________________________________________________
dense_18 (Dense)             (None, 32)                1056
_________________________________________________________________
p_re_lu_21 (PReLU)           (None, 32)                32
_________________________________________________________________
dropout_18 (Dropout)         (None, 32)                0
_________________________________________________________________
dense_19 (Dense)             (None, 32)                1056
_________________________________________________________________
p_re_lu_22 (PReLU)           (None, 32)                32
_________________________________________________________________
dense_20 (Dense)             (None, 1)                 33
=================================================================
Total params: 1,406,625
Trainable params: 1,406,497
Non-trainable params: 128
_________________________________________________________________
None
Number of Epochs:  39
Epoch 1/39
 - 6s - loss: 0.5482 - acc: 0.7255
Epoch 2/39
 - 6s - loss: 0.4602 - acc: 0.7663
Epoch 3/39
 - 6s - loss: 0.4175 - acc: 0.7687
Epoch 4/39
 - 6s - loss: 0.3928 - acc: 0.7694
…
CV Score: 0.98% (+/- 0.01%)
CV Time:  0:18:28.776376
Initialising CNN Model...

Building CNN...

Filters:  32
Kernel Size:  7
Number of blocks:  2
Pooling type: average
Pooling Strides: 2
Pooling Length: 4
Conv Dropout:  0.02447123648823695
FC Dropout:  0.5573661116909322
Dense Units:  254
Activation: prelu
Batch Normalisation: False


Compilation Time:  0.014013051986694336
_________________________________________________________________
Layer (type)                 Output Shape              Param #
=================================================================
conv1d_7 (Conv1D)            (None, 1995, 32)          256
_________________________________________________________________
average_pooling1d_4 (Average (None, 996, 32)           0
_________________________________________________________________
dropout_19 (Dropout)         (None, 996, 32)           0
_________________________________________________________________
p_re_lu_23 (PReLU)           (None, 996, 32)           31872
_________________________________________________________________
conv1d_8 (Conv1D)            (None, 990, 32)           7200
_________________________________________________________________
average_pooling1d_5 (Average (None, 494, 32)           0
_________________________________________________________________
dropout_20 (Dropout)         (None, 494, 32)           0
_________________________________________________________________
p_re_lu_24 (PReLU)           (None, 494, 32)           15808
_________________________________________________________________
conv1d_9 (Conv1D)            (None, 488, 32)           7200
_________________________________________________________________
average_pooling1d_6 (Average (None, 243, 32)           0
_________________________________________________________________
dropout_21 (Dropout)         (None, 243, 32)           0
_________________________________________________________________
p_re_lu_25 (PReLU)           (None, 243, 32)           7776
_________________________________________________________________
flatten_5 (Flatten)          (None, 7776)              0
_________________________________________________________________
dense_21 (Dense)             (None, 254)               1975358
_________________________________________________________________
dropout_22 (Dropout)         (None, 254)               0
_________________________________________________________________
p_re_lu_26 (PReLU)           (None, 254)               254
_________________________________________________________________
dense_22 (Dense)             (None, 254)               64770
_________________________________________________________________
p_re_lu_27 (PReLU)           (None, 254)               254
_________________________________________________________________
dropout_23 (Dropout)         (None, 254)               0
_________________________________________________________________
dense_23 (Dense)             (None, 254)               64770
_________________________________________________________________
p_re_lu_28 (PReLU)           (None, 254)               254
_________________________________________________________________
dropout_24 (Dropout)         (None, 254)               0
_________________________________________________________________
dense_24 (Dense)             (None, 254)               64770
_________________________________________________________________
p_re_lu_29 (PReLU)           (None, 254)               254
_________________________________________________________________
dense_25 (Dense)             (None, 1)                 255
=================================================================
Total params: 2,241,051
Trainable params: 2,241,051
Non-trainable params: 0
_________________________________________________________________
None
Number of Epochs:  5
Epoch 1/5
 - 8s - loss: 0.5864 - acc: 0.7535
Epoch 2/5
 - 7s - loss: 0.4866 - acc: 0.7711
Epoch 3/5
 - 7s - loss: 0.4625 - acc: 0.7711
Epoch 4/5
 - 7s - loss: 0.4355 - acc: 0.7711
…
CV Score: 0.90% (+/- 0.03%)
CV Time:  0:03:12.222347
Initialising CNN Model...

Building CNN...

Filters:  254
Kernel Size:  3
Number of blocks:  2
Pooling type: average
Pooling Strides: 3
Pooling Length: 4
Conv Dropout:  0.34791860792664264
FC Dropout:  0.016625106938643407
Dense Units:  32
Activation: prelu
Batch Normalisation: False


Compilation Time:  0.01301264762878418
_________________________________________________________________
Layer (type)                 Output Shape              Param #
=================================================================
conv1d_10 (Conv1D)           (None, 1999, 254)         1016
_________________________________________________________________
average_pooling1d_7 (Average (None, 666, 254)          0
_________________________________________________________________
dropout_25 (Dropout)         (None, 666, 254)          0
_________________________________________________________________
p_re_lu_30 (PReLU)           (None, 666, 254)          169164
_________________________________________________________________
conv1d_11 (Conv1D)           (None, 664, 254)          193802
_________________________________________________________________
average_pooling1d_8 (Average (None, 221, 254)          0
_________________________________________________________________
dropout_26 (Dropout)         (None, 221, 254)          0
_________________________________________________________________
p_re_lu_31 (PReLU)           (None, 221, 254)          56134
_________________________________________________________________
conv1d_12 (Conv1D)           (None, 219, 254)          193802
_________________________________________________________________
average_pooling1d_9 (Average (None, 72, 254)           0
_________________________________________________________________
dropout_27 (Dropout)         (None, 72, 254)           0
_________________________________________________________________
p_re_lu_32 (PReLU)           (None, 72, 254)           18288
_________________________________________________________________
flatten_6 (Flatten)          (None, 18288)             0
_________________________________________________________________
dense_26 (Dense)             (None, 32)                585248
_________________________________________________________________
dropout_28 (Dropout)         (None, 32)                0
_________________________________________________________________
p_re_lu_33 (PReLU)           (None, 32)                32
_________________________________________________________________
dense_27 (Dense)             (None, 32)                1056
_________________________________________________________________
p_re_lu_34 (PReLU)           (None, 32)                32
_________________________________________________________________
dropout_29 (Dropout)         (None, 32)                0
_________________________________________________________________
dense_28 (Dense)             (None, 32)                1056
_________________________________________________________________
p_re_lu_35 (PReLU)           (None, 32)                32
_________________________________________________________________
dropout_30 (Dropout)         (None, 32)                0
_________________________________________________________________
dense_29 (Dense)             (None, 32)                1056
_________________________________________________________________
p_re_lu_36 (PReLU)           (None, 32)                32
_________________________________________________________________
dense_30 (Dense)             (None, 1)                 33
=================================================================
Total params: 1,220,783
Trainable params: 1,220,783
Non-trainable params: 0
_________________________________________________________________
None
Number of Epochs:  17
Epoch 1/17
 - 18s - loss: 0.6663 - acc: 0.7702
Epoch 2/17
 - 17s - loss: 0.6221 - acc: 0.7711
Epoch 3/17
 - 17s - loss: 0.5884 - acc: 0.7711
Epoch 4/17
 - 18s - loss: 0.5623 - acc: 0.7711
…
Recall:  0.5507936507936508


CV Score: 0.87% (+/- 0.05%)
CV Time:  0:25:22.175417
Initialising CNN Model...

Building CNN...

Filters:  8
Kernel Size:  3
Number of blocks:  3
Pooling type: max
Pooling Strides: 2
Pooling Length: 4
Conv Dropout:  0.08780651002581165
FC Dropout:  0.18044987606505566
Dense Units:  128
Activation: prelu
Batch Normalisation: True


Compilation Time:  0.015002727508544922
_________________________________________________________________
Layer (type)                 Output Shape              Param #
=================================================================
conv1d_13 (Conv1D)           (None, 1999, 8)           32
_________________________________________________________________
batch_normalization_2 (Batch (None, 1999, 8)           32
_________________________________________________________________
max_pooling1d_4 (MaxPooling1 (None, 998, 8)            0
_________________________________________________________________
dropout_31 (Dropout)         (None, 998, 8)            0
_________________________________________________________________
p_re_lu_37 (PReLU)           (None, 998, 8)            7984
_________________________________________________________________
conv1d_14 (Conv1D)           (None, 996, 8)            200
_________________________________________________________________
batch_normalization_3 (Batch (None, 996, 8)            32
_________________________________________________________________
max_pooling1d_5 (MaxPooling1 (None, 497, 8)            0
_________________________________________________________________
dropout_32 (Dropout)         (None, 497, 8)            0
_________________________________________________________________
p_re_lu_38 (PReLU)           (None, 497, 8)            3976
_________________________________________________________________
conv1d_15 (Conv1D)           (None, 495, 8)            200
_________________________________________________________________
batch_normalization_4 (Batch (None, 495, 8)            32
_________________________________________________________________
max_pooling1d_6 (MaxPooling1 (None, 246, 8)            0
_________________________________________________________________
dropout_33 (Dropout)         (None, 246, 8)            0
_________________________________________________________________
p_re_lu_39 (PReLU)           (None, 246, 8)            1968
_________________________________________________________________
conv1d_16 (Conv1D)           (None, 244, 8)            200
_________________________________________________________________
batch_normalization_5 (Batch (None, 244, 8)            32
_________________________________________________________________
max_pooling1d_7 (MaxPooling1 (None, 121, 8)            0
_________________________________________________________________
dropout_34 (Dropout)         (None, 121, 8)            0
_________________________________________________________________
p_re_lu_40 (PReLU)           (None, 121, 8)            968
_________________________________________________________________
flatten_7 (Flatten)          (None, 968)               0
_________________________________________________________________
dense_31 (Dense)             (None, 128)               124032
_________________________________________________________________
dropout_35 (Dropout)         (None, 128)               0
_________________________________________________________________
p_re_lu_41 (PReLU)           (None, 128)               128
_________________________________________________________________
dense_32 (Dense)             (None, 128)               16512
_________________________________________________________________
p_re_lu_42 (PReLU)           (None, 128)               128
_________________________________________________________________
dropout_36 (Dropout)         (None, 128)               0
_________________________________________________________________
dense_33 (Dense)             (None, 128)               16512
_________________________________________________________________
p_re_lu_43 (PReLU)           (None, 128)               128
_________________________________________________________________
dropout_37 (Dropout)         (None, 128)               0
_________________________________________________________________
dense_34 (Dense)             (None, 128)               16512
_________________________________________________________________
p_re_lu_44 (PReLU)           (None, 128)               128
_________________________________________________________________
dense_35 (Dense)             (None, 1)                 129
=================================================================
Total params: 189,865
Trainable params: 189,801
Non-trainable params: 64
_________________________________________________________________
None
Number of Epochs:  47
Epoch 1/47
 - 5s - loss: 0.4950 - acc: 0.7699
Epoch 2/47
 - 4s - loss: 0.4666 - acc: 0.7711
Epoch 3/47
 - 4s - loss: 0.4490 - acc: 0.7712
Epoch 4/47
 - 4s - loss: 0.4339 - acc: 0.7725
…
CV Score: 0.96% (+/- 0.01%)
CV Time:  0:15:48.127064
Initialising CNN Model...

Building CNN...

Filters:  32
Kernel Size:  9
Number of blocks:  2
Pooling type: average
Pooling Strides: 2
Pooling Length: 4
Conv Dropout:  0.19062889797568716
FC Dropout:  0.32617906359140536
Dense Units:  128
Activation: prelu
Batch Normalisation: False


Compilation Time:  0.014013290405273438
_________________________________________________________________
Layer (type)                 Output Shape              Param #
=================================================================
conv1d_17 (Conv1D)           (None, 1993, 32)          320
_________________________________________________________________
average_pooling1d_10 (Averag (None, 995, 32)           0
_________________________________________________________________
dropout_38 (Dropout)         (None, 995, 32)           0
_________________________________________________________________
p_re_lu_45 (PReLU)           (None, 995, 32)           31840
_________________________________________________________________
conv1d_18 (Conv1D)           (None, 987, 32)           9248
_________________________________________________________________
average_pooling1d_11 (Averag (None, 492, 32)           0
_________________________________________________________________
dropout_39 (Dropout)         (None, 492, 32)           0
_________________________________________________________________
p_re_lu_46 (PReLU)           (None, 492, 32)           15744
_________________________________________________________________
conv1d_19 (Conv1D)           (None, 484, 32)           9248
_________________________________________________________________
average_pooling1d_12 (Averag (None, 241, 32)           0
_________________________________________________________________
dropout_40 (Dropout)         (None, 241, 32)           0
_________________________________________________________________
p_re_lu_47 (PReLU)           (None, 241, 32)           7712
_________________________________________________________________
flatten_8 (Flatten)          (None, 7712)              0
_________________________________________________________________
dense_36 (Dense)             (None, 128)               987264
_________________________________________________________________
dropout_41 (Dropout)         (None, 128)               0
_________________________________________________________________
p_re_lu_48 (PReLU)           (None, 128)               128
_________________________________________________________________
dense_37 (Dense)             (None, 128)               16512
_________________________________________________________________
p_re_lu_49 (PReLU)           (None, 128)               128
_________________________________________________________________
dropout_42 (Dropout)         (None, 128)               0
_________________________________________________________________
dense_38 (Dense)             (None, 128)               16512
_________________________________________________________________
p_re_lu_50 (PReLU)           (None, 128)               128
_________________________________________________________________
dropout_43 (Dropout)         (None, 128)               0
_________________________________________________________________
dense_39 (Dense)             (None, 128)               16512
_________________________________________________________________
p_re_lu_51 (PReLU)           (None, 128)               128
_________________________________________________________________
dense_40 (Dense)             (None, 1)                 129
=================================================================
Total params: 1,111,553
Trainable params: 1,111,553
Non-trainable params: 0
_________________________________________________________________
None
Number of Epochs:  26
Epoch 1/26
 - 8s - loss: 0.6436 - acc: 0.7171
Epoch 2/26
 - 8s - loss: 0.5209 - acc: 0.7711
Epoch 3/26
 - 8s - loss: 0.4810 - acc: 0.7711
Epoch 4/26
 - 8s - loss: 0.4531 - acc: 0.7711
…
CV Score: 0.95% (+/- 0.01%)
CV Time:  0:16:47.476779
Initialising CNN Model...

Building CNN...

Filters:  32
Kernel Size:  3
Number of blocks:  0
Pooling type: average
Pooling Strides: 3
Pooling Length: 2
Conv Dropout:  0.25869798428859747
FC Dropout:  0.3212089175460899
Dense Units:  128
Activation: prelu
Batch Normalisation: True


Compilation Time:  0.015014886856079102
_________________________________________________________________
Layer (type)                 Output Shape              Param #
=================================================================
conv1d_20 (Conv1D)           (None, 1999, 32)          128
_________________________________________________________________
batch_normalization_6 (Batch (None, 1999, 32)          128
_________________________________________________________________
average_pooling1d_13 (Averag (None, 666, 32)           0
_________________________________________________________________
dropout_44 (Dropout)         (None, 666, 32)           0
_________________________________________________________________
p_re_lu_52 (PReLU)           (None, 666, 32)           21312
_________________________________________________________________
flatten_9 (Flatten)          (None, 21312)             0
_________________________________________________________________
dense_41 (Dense)             (None, 128)               2728064
_________________________________________________________________
dropout_45 (Dropout)         (None, 128)               0
_________________________________________________________________
p_re_lu_53 (PReLU)           (None, 128)               128
_________________________________________________________________
dense_42 (Dense)             (None, 128)               16512
_________________________________________________________________
p_re_lu_54 (PReLU)           (None, 128)               128
_________________________________________________________________
dropout_46 (Dropout)         (None, 128)               0
_________________________________________________________________
dense_43 (Dense)             (None, 128)               16512
_________________________________________________________________
p_re_lu_55 (PReLU)           (None, 128)               128
_________________________________________________________________
dropout_47 (Dropout)         (None, 128)               0
_________________________________________________________________
dense_44 (Dense)             (None, 128)               16512
_________________________________________________________________
p_re_lu_56 (PReLU)           (None, 128)               128
_________________________________________________________________
dense_45 (Dense)             (None, 1)                 129
=================================================================
Total params: 2,799,809
Trainable params: 2,799,745
Non-trainable params: 64
_________________________________________________________________
None
Number of Epochs:  46
Epoch 1/46
 - 5s - loss: 0.4866 - acc: 0.7696
Epoch 2/46
 - 5s - loss: 0.4474 - acc: 0.7706
Epoch 3/46
 - 4s - loss: 0.4261 - acc: 0.7706
Epoch 4/46
 - 4s - loss: 0.4112 - acc: 0.7711
…
CV Score: 0.97% (+/- 0.01%)
CV Time:  0:17:28.117296
Initialising CNN Model...

Building CNN...

Filters:  32
Kernel Size:  7
Number of blocks:  0
Pooling type: average
Pooling Strides: 4
Pooling Length: 4
Conv Dropout:  0.1875413945856999
FC Dropout:  0.23478637725771334
Dense Units:  254
Activation: prelu
Batch Normalisation: True


Compilation Time:  0.014013290405273438
_________________________________________________________________
Layer (type)                 Output Shape              Param #
=================================================================
conv1d_21 (Conv1D)           (None, 1995, 32)          256
_________________________________________________________________
batch_normalization_7 (Batch (None, 1995, 32)          128
_________________________________________________________________
average_pooling1d_14 (Averag (None, 498, 32)           0
_________________________________________________________________
dropout_48 (Dropout)         (None, 498, 32)           0
_________________________________________________________________
p_re_lu_57 (PReLU)           (None, 498, 32)           15936
_________________________________________________________________
flatten_10 (Flatten)         (None, 15936)             0
_________________________________________________________________
dense_46 (Dense)             (None, 254)               4047998
_________________________________________________________________
dropout_49 (Dropout)         (None, 254)               0
_________________________________________________________________
p_re_lu_58 (PReLU)           (None, 254)               254
_________________________________________________________________
dense_47 (Dense)             (None, 254)               64770
_________________________________________________________________
p_re_lu_59 (PReLU)           (None, 254)               254
_________________________________________________________________
dropout_50 (Dropout)         (None, 254)               0
_________________________________________________________________
dense_48 (Dense)             (None, 254)               64770
_________________________________________________________________
p_re_lu_60 (PReLU)           (None, 254)               254
_________________________________________________________________
dropout_51 (Dropout)         (None, 254)               0
_________________________________________________________________
dense_49 (Dense)             (None, 254)               64770
_________________________________________________________________
p_re_lu_61 (PReLU)           (None, 254)               254
_________________________________________________________________
dense_50 (Dense)             (None, 1)                 255
=================================================================
Total params: 4,259,899
Trainable params: 4,259,835
Non-trainable params: 64
_________________________________________________________________
None
Number of Epochs:  39
Epoch 1/39
 - 9s - loss: 0.4703 - acc: 0.7636
Epoch 2/39
 - 8s - loss: 0.4007 - acc: 0.7818
Epoch 3/39
 - 8s - loss: 0.3662 - acc: 0.8087
Epoch 4/39
 - 8s - loss: 0.3365 - acc: 0.8282
…
Recall:  0.9412698412698413


CV Score: 0.98% (+/- 0.01%)
CV Time:  0:25:17.253345
Initialising CNN Model...

Building CNN...

Filters:  64
Kernel Size:  7
Number of blocks:  0
Pooling type: max
Pooling Strides: 4
Pooling Length: 3
Conv Dropout:  0.34218643619851447
FC Dropout:  0.525556176660286
Dense Units:  32
Activation: prelu
Batch Normalisation: False


Compilation Time:  0.014013528823852539
_________________________________________________________________
Layer (type)                 Output Shape              Param #
=================================================================
conv1d_22 (Conv1D)           (None, 1995, 64)          512
_________________________________________________________________
max_pooling1d_8 (MaxPooling1 (None, 499, 64)           0
_________________________________________________________________
dropout_52 (Dropout)         (None, 499, 64)           0
_________________________________________________________________
p_re_lu_62 (PReLU)           (None, 499, 64)           31936
_________________________________________________________________
flatten_11 (Flatten)         (None, 31936)             0
_________________________________________________________________
dense_51 (Dense)             (None, 32)                1021984
_________________________________________________________________
dropout_53 (Dropout)         (None, 32)                0
_________________________________________________________________
p_re_lu_63 (PReLU)           (None, 32)                32
_________________________________________________________________
dense_52 (Dense)             (None, 32)                1056
_________________________________________________________________
p_re_lu_64 (PReLU)           (None, 32)                32
_________________________________________________________________
dropout_54 (Dropout)         (None, 32)                0
_________________________________________________________________
dense_53 (Dense)             (None, 32)                1056
_________________________________________________________________
p_re_lu_65 (PReLU)           (None, 32)                32
_________________________________________________________________
dropout_55 (Dropout)         (None, 32)                0
_________________________________________________________________
dense_54 (Dense)             (None, 32)                1056
_________________________________________________________________
p_re_lu_66 (PReLU)           (None, 32)                32
_________________________________________________________________
dense_55 (Dense)             (None, 1)                 33
=================================================================
Total params: 1,057,761
Trainable params: 1,057,761
Non-trainable params: 0
_________________________________________________________________
None
Number of Epochs:  34
Epoch 1/34
 - 7s - loss: 0.5538 - acc: 0.7451
Epoch 2/34
 - 6s - loss: 0.4676 - acc: 0.7704
Epoch 3/34
 - 6s - loss: 0.4205 - acc: 0.7711
Epoch 4/34
 - 6s - loss: 0.3913 - acc: 0.7710
…
Recall:  0.9857142857142858


CV Score: 0.98% (+/- 0.01%)
CV Time:  0:16:28.955426
Initialising CNN Model...

Building CNN...

Filters:  254
Kernel Size:  7
Number of blocks:  2
Pooling type: max
Pooling Strides: 2
Pooling Length: 3
Conv Dropout:  0.11045151041734051
FC Dropout:  0.5196215218830529
Dense Units:  32
Activation: prelu
Batch Normalisation: True


Compilation Time:  0.014014005661010742
_________________________________________________________________
Layer (type)                 Output Shape              Param #
=================================================================
conv1d_23 (Conv1D)           (None, 1995, 254)         2032
_________________________________________________________________
batch_normalization_8 (Batch (None, 1995, 254)         1016
_________________________________________________________________
max_pooling1d_9 (MaxPooling1 (None, 997, 254)          0
_________________________________________________________________
dropout_56 (Dropout)         (None, 997, 254)          0
_________________________________________________________________
p_re_lu_67 (PReLU)           (None, 997, 254)          253238
_________________________________________________________________
conv1d_24 (Conv1D)           (None, 991, 254)          451866
_________________________________________________________________
batch_normalization_9 (Batch (None, 991, 254)          1016
_________________________________________________________________
max_pooling1d_10 (MaxPooling (None, 495, 254)          0
_________________________________________________________________
dropout_57 (Dropout)         (None, 495, 254)          0
_________________________________________________________________
p_re_lu_68 (PReLU)           (None, 495, 254)          125730
_________________________________________________________________
conv1d_25 (Conv1D)           (None, 489, 254)          451866
_________________________________________________________________
batch_normalization_10 (Batc (None, 489, 254)          1016
_________________________________________________________________
max_pooling1d_11 (MaxPooling (None, 244, 254)          0
_________________________________________________________________
dropout_58 (Dropout)         (None, 244, 254)          0
_________________________________________________________________
p_re_lu_69 (PReLU)           (None, 244, 254)          61976
_________________________________________________________________
flatten_12 (Flatten)         (None, 61976)             0
_________________________________________________________________
dense_56 (Dense)             (None, 32)                1983264
_________________________________________________________________
dropout_59 (Dropout)         (None, 32)                0
_________________________________________________________________
p_re_lu_70 (PReLU)           (None, 32)                32
_________________________________________________________________
dense_57 (Dense)             (None, 32)                1056
_________________________________________________________________
p_re_lu_71 (PReLU)           (None, 32)                32
_________________________________________________________________
dropout_60 (Dropout)         (None, 32)                0
_________________________________________________________________
dense_58 (Dense)             (None, 32)                1056
_________________________________________________________________
p_re_lu_72 (PReLU)           (None, 32)                32
_________________________________________________________________
dropout_61 (Dropout)         (None, 32)                0
_________________________________________________________________
dense_59 (Dense)             (None, 32)                1056
_________________________________________________________________
p_re_lu_73 (PReLU)           (None, 32)                32
_________________________________________________________________
dense_60 (Dense)             (None, 1)                 33
=================================================================
Total params: 3,336,349
Trainable params: 3,334,825
Non-trainable params: 1,524
_________________________________________________________________
None
Number of Epochs:  31
Epoch 1/31
 - 53s - loss: 0.4939 - acc: 0.7548
Epoch 2/31
 - 50s - loss: 0.3954 - acc: 0.7705
Epoch 3/31
 - 50s - loss: 0.3690 - acc: 0.7703
Epoch 4/31
 - 50s - loss: 0.3460 - acc: 0.7709
…
CV Score: 0.98% (+/- 0.01%)
CV Time:  2:14:17.169805
Initialising CNN Model...

Building CNN...

Filters:  254
Kernel Size:  3
Number of blocks:  1
Pooling type: average
Pooling Strides: 3
Pooling Length: 4
Conv Dropout:  0.1134190307836431
FC Dropout:  0.4231074700710638
Dense Units:  254
Activation: prelu
Batch Normalisation: False


Compilation Time:  0.017014741897583008
_________________________________________________________________
Layer (type)                 Output Shape              Param #
=================================================================
conv1d_26 (Conv1D)           (None, 1999, 254)         1016
_________________________________________________________________
average_pooling1d_15 (Averag (None, 666, 254)          0
_________________________________________________________________
dropout_62 (Dropout)         (None, 666, 254)          0
_________________________________________________________________
p_re_lu_74 (PReLU)           (None, 666, 254)          169164
_________________________________________________________________
conv1d_27 (Conv1D)           (None, 664, 254)          193802
_________________________________________________________________
average_pooling1d_16 (Averag (None, 221, 254)          0
_________________________________________________________________
dropout_63 (Dropout)         (None, 221, 254)          0
_________________________________________________________________
p_re_lu_75 (PReLU)           (None, 221, 254)          56134
_________________________________________________________________
flatten_13 (Flatten)         (None, 56134)             0
_________________________________________________________________
dense_61 (Dense)             (None, 254)               14258290
_________________________________________________________________
dropout_64 (Dropout)         (None, 254)               0
_________________________________________________________________
p_re_lu_76 (PReLU)           (None, 254)               254
_________________________________________________________________
dense_62 (Dense)             (None, 254)               64770
_________________________________________________________________
p_re_lu_77 (PReLU)           (None, 254)               254
_________________________________________________________________
dropout_65 (Dropout)         (None, 254)               0
_________________________________________________________________
dense_63 (Dense)             (None, 254)               64770
_________________________________________________________________
p_re_lu_78 (PReLU)           (None, 254)               254
_________________________________________________________________
dropout_66 (Dropout)         (None, 254)               0
_________________________________________________________________
dense_64 (Dense)             (None, 254)               64770
_________________________________________________________________
p_re_lu_79 (PReLU)           (None, 254)               254
_________________________________________________________________
dense_65 (Dense)             (None, 1)                 255
=================================================================
Total params: 14,873,987
Trainable params: 14,873,987
Non-trainable params: 0
_________________________________________________________________
None
Number of Epochs:  26
Epoch 1/26
 - 27s - loss: 0.6214 - acc: 0.7695
Epoch 2/26
 - 25s - loss: 0.5114 - acc: 0.7711
Epoch 3/26
 - 25s - loss: 0.4870 - acc: 0.7711
Epoch 4/26
 - 25s - loss: 0.4727 - acc: 0.7711
…
Recall:  0.8269841269841269


CV Score: 0.95% (+/- 0.01%)
CV Time:  0:55:23.577548
Initialising CNN Model...

Building CNN...

Filters:  16
Kernel Size:  3
Number of blocks:  2
Pooling type: max
Pooling Strides: 4
Pooling Length: 4
Conv Dropout:  0.2449944705238096
FC Dropout:  0.5722620214783104
Dense Units:  254
Activation: prelu
Batch Normalisation: False


Compilation Time:  0.015002727508544922
_________________________________________________________________
Layer (type)                 Output Shape              Param #
=================================================================
conv1d_28 (Conv1D)           (None, 1999, 16)          64
_________________________________________________________________
max_pooling1d_12 (MaxPooling (None, 499, 16)           0
_________________________________________________________________
dropout_67 (Dropout)         (None, 499, 16)           0
_________________________________________________________________
p_re_lu_80 (PReLU)           (None, 499, 16)           7984
_________________________________________________________________
conv1d_29 (Conv1D)           (None, 497, 16)           784
_________________________________________________________________
max_pooling1d_13 (MaxPooling (None, 124, 16)           0
_________________________________________________________________
dropout_68 (Dropout)         (None, 124, 16)           0
_________________________________________________________________
p_re_lu_81 (PReLU)           (None, 124, 16)           1984
_________________________________________________________________
conv1d_30 (Conv1D)           (None, 122, 16)           784
_________________________________________________________________
max_pooling1d_14 (MaxPooling (None, 30, 16)            0
_________________________________________________________________
dropout_69 (Dropout)         (None, 30, 16)            0
_________________________________________________________________
p_re_lu_82 (PReLU)           (None, 30, 16)            480
_________________________________________________________________
flatten_14 (Flatten)         (None, 480)               0
_________________________________________________________________
dense_66 (Dense)             (None, 254)               122174
_________________________________________________________________
dropout_70 (Dropout)         (None, 254)               0
_________________________________________________________________
p_re_lu_83 (PReLU)           (None, 254)               254
_________________________________________________________________
dense_67 (Dense)             (None, 254)               64770
_________________________________________________________________
p_re_lu_84 (PReLU)           (None, 254)               254
_________________________________________________________________
dropout_71 (Dropout)         (None, 254)               0
_________________________________________________________________
dense_68 (Dense)             (None, 254)               64770
_________________________________________________________________
p_re_lu_85 (PReLU)           (None, 254)               254
_________________________________________________________________
dropout_72 (Dropout)         (None, 254)               0
_________________________________________________________________
dense_69 (Dense)             (None, 254)               64770
_________________________________________________________________
p_re_lu_86 (PReLU)           (None, 254)               254
_________________________________________________________________
dense_70 (Dense)             (None, 1)                 255
=================================================================
Total params: 329,835
Trainable params: 329,835
Non-trainable params: 0
_________________________________________________________________
None
Number of Epochs:  32
Epoch 1/32
 - 4s - loss: 0.6230 - acc: 0.6602
Epoch 2/32
 - 3s - loss: 0.5258 - acc: 0.7689
Epoch 3/32
 - 3s - loss: 0.5164 - acc: 0.7705
Epoch 4/32
 - 3s - loss: 0.5131 - acc: 0.7711
…
CV Score: 0.89% (+/- 0.01%)
CV Time:  0:07:58.698546
Initialising CNN Model...

Building CNN...

Filters:  254
Kernel Size:  5
Number of blocks:  2
Pooling type: max
Pooling Strides: 4
Pooling Length: 4
Conv Dropout:  0.32523426243636594
FC Dropout:  0.20470882059626674
Dense Units:  254
Activation: prelu
Batch Normalisation: False


Compilation Time:  0.016015052795410156
_________________________________________________________________
Layer (type)                 Output Shape              Param #
=================================================================
conv1d_31 (Conv1D)           (None, 1997, 254)         1524
_________________________________________________________________
max_pooling1d_15 (MaxPooling (None, 499, 254)          0
_________________________________________________________________
dropout_73 (Dropout)         (None, 499, 254)          0
_________________________________________________________________
p_re_lu_87 (PReLU)           (None, 499, 254)          126746
_________________________________________________________________
conv1d_32 (Conv1D)           (None, 495, 254)          322834
_________________________________________________________________
max_pooling1d_16 (MaxPooling (None, 123, 254)          0
_________________________________________________________________
dropout_74 (Dropout)         (None, 123, 254)          0
_________________________________________________________________
p_re_lu_88 (PReLU)           (None, 123, 254)          31242
_________________________________________________________________
conv1d_33 (Conv1D)           (None, 119, 254)          322834
_________________________________________________________________
max_pooling1d_17 (MaxPooling (None, 29, 254)           0
_________________________________________________________________
dropout_75 (Dropout)         (None, 29, 254)           0
_________________________________________________________________
p_re_lu_89 (PReLU)           (None, 29, 254)           7366
_________________________________________________________________
flatten_15 (Flatten)         (None, 7366)              0
_________________________________________________________________
dense_71 (Dense)             (None, 254)               1871218
_________________________________________________________________
dropout_76 (Dropout)         (None, 254)               0
_________________________________________________________________
p_re_lu_90 (PReLU)           (None, 254)               254
_________________________________________________________________
dense_72 (Dense)             (None, 254)               64770
_________________________________________________________________
p_re_lu_91 (PReLU)           (None, 254)               254
_________________________________________________________________
dropout_77 (Dropout)         (None, 254)               0
_________________________________________________________________
dense_73 (Dense)             (None, 254)               64770
_________________________________________________________________
p_re_lu_92 (PReLU)           (None, 254)               254
_________________________________________________________________
dropout_78 (Dropout)         (None, 254)               0
_________________________________________________________________
dense_74 (Dense)             (None, 254)               64770
_________________________________________________________________
p_re_lu_93 (PReLU)           (None, 254)               254
_________________________________________________________________
dense_75 (Dense)             (None, 1)                 255
=================================================================
Total params: 2,879,345
Trainable params: 2,879,345
Non-trainable params: 0
_________________________________________________________________
None
Number of Epochs:  46
Epoch 1/46
 - 21s - loss: 0.5415 - acc: 0.7574
Epoch 2/46
 - 20s - loss: 0.5072 - acc: 0.7711
Epoch 3/46
 - 19s - loss: 0.5015 - acc: 0.7711
Epoch 4/46
 - 19s - loss: 0.4984 - acc: 0.7711
…
Recall:  0.9015873015873016


CV Score: 0.94% (+/- 0.00%)
CV Time:  1:14:45.260584
Initialising CNN Model...

Building CNN...

Filters:  16
Kernel Size:  3
Number of blocks:  1
Pooling type: max
Pooling Strides: 3
Pooling Length: 2
Conv Dropout:  0.2095541811268159
FC Dropout:  0.4208803986858524
Dense Units:  128
Activation: prelu
Batch Normalisation: True


Compilation Time:  0.014012813568115234
_________________________________________________________________
Layer (type)                 Output Shape              Param #
=================================================================
conv1d_34 (Conv1D)           (None, 1999, 16)          64
_________________________________________________________________
batch_normalization_11 (Batc (None, 1999, 16)          64
_________________________________________________________________
max_pooling1d_18 (MaxPooling (None, 666, 16)           0
_________________________________________________________________
dropout_79 (Dropout)         (None, 666, 16)           0
_________________________________________________________________
p_re_lu_94 (PReLU)           (None, 666, 16)           10656
_________________________________________________________________
conv1d_35 (Conv1D)           (None, 664, 16)           784
_________________________________________________________________
batch_normalization_12 (Batc (None, 664, 16)           64
_________________________________________________________________
max_pooling1d_19 (MaxPooling (None, 221, 16)           0
_________________________________________________________________
dropout_80 (Dropout)         (None, 221, 16)           0
_________________________________________________________________
p_re_lu_95 (PReLU)           (None, 221, 16)           3536
_________________________________________________________________
flatten_16 (Flatten)         (None, 3536)              0
_________________________________________________________________
dense_76 (Dense)             (None, 128)               452736
_________________________________________________________________
dropout_81 (Dropout)         (None, 128)               0
_________________________________________________________________
p_re_lu_96 (PReLU)           (None, 128)               128
_________________________________________________________________
dense_77 (Dense)             (None, 128)               16512
_________________________________________________________________
p_re_lu_97 (PReLU)           (None, 128)               128
_________________________________________________________________
dropout_82 (Dropout)         (None, 128)               0
_________________________________________________________________
dense_78 (Dense)             (None, 128)               16512
_________________________________________________________________
p_re_lu_98 (PReLU)           (None, 128)               128
_________________________________________________________________
dropout_83 (Dropout)         (None, 128)               0
_________________________________________________________________
dense_79 (Dense)             (None, 128)               16512
_________________________________________________________________
p_re_lu_99 (PReLU)           (None, 128)               128
_________________________________________________________________
dense_80 (Dense)             (None, 1)                 129
=================================================================
Total params: 518,081
Trainable params: 518,017
Non-trainable params: 64
_________________________________________________________________
None
Number of Epochs:  21
Epoch 1/21
 - 8s - loss: 0.4964 - acc: 0.7642
Epoch 2/21
 - 6s - loss: 0.4636 - acc: 0.7712
Epoch 3/21
 - 6s - loss: 0.4373 - acc: 0.7708
Epoch 4/21
 - 6s - loss: 0.4199 - acc: 0.7725
…
CV Score: 0.96% (+/- 0.01%)
CV Time:  0:10:45.712798
Initialising CNN Model...

Building CNN...

Filters:  64
Kernel Size:  3
Number of blocks:  3
Pooling type: average
Pooling Strides: 4
Pooling Length: 3
Conv Dropout:  0.19920414521312615
FC Dropout:  0.3184564398287816
Dense Units:  32
Activation: prelu
Batch Normalisation: False


Compilation Time:  0.01401376724243164
_________________________________________________________________
Layer (type)                 Output Shape              Param #
=================================================================
conv1d_36 (Conv1D)           (None, 1999, 64)          256
_________________________________________________________________
average_pooling1d_17 (Averag (None, 500, 64)           0
_________________________________________________________________
dropout_84 (Dropout)         (None, 500, 64)           0
_________________________________________________________________
p_re_lu_100 (PReLU)          (None, 500, 64)           32000
_________________________________________________________________
conv1d_37 (Conv1D)           (None, 498, 64)           12352
_________________________________________________________________
average_pooling1d_18 (Averag (None, 124, 64)           0
_________________________________________________________________
dropout_85 (Dropout)         (None, 124, 64)           0
_________________________________________________________________
p_re_lu_101 (PReLU)          (None, 124, 64)           7936
_________________________________________________________________
conv1d_38 (Conv1D)           (None, 122, 64)           12352
_________________________________________________________________
average_pooling1d_19 (Averag (None, 30, 64)            0
_________________________________________________________________
dropout_86 (Dropout)         (None, 30, 64)            0
_________________________________________________________________
p_re_lu_102 (PReLU)          (None, 30, 64)            1920
_________________________________________________________________
conv1d_39 (Conv1D)           (None, 28, 64)            12352
_________________________________________________________________
average_pooling1d_20 (Averag (None, 7, 64)             0
_________________________________________________________________
dropout_87 (Dropout)         (None, 7, 64)             0
_________________________________________________________________
p_re_lu_103 (PReLU)          (None, 7, 64)             448
_________________________________________________________________
flatten_17 (Flatten)         (None, 448)               0
_________________________________________________________________
dense_81 (Dense)             (None, 32)                14368
_________________________________________________________________
dropout_88 (Dropout)         (None, 32)                0
_________________________________________________________________
p_re_lu_104 (PReLU)          (None, 32)                32
_________________________________________________________________
dense_82 (Dense)             (None, 32)                1056
_________________________________________________________________
p_re_lu_105 (PReLU)          (None, 32)                32
_________________________________________________________________
dropout_89 (Dropout)         (None, 32)                0
_________________________________________________________________
dense_83 (Dense)             (None, 32)                1056
_________________________________________________________________
p_re_lu_106 (PReLU)          (None, 32)                32
_________________________________________________________________
dropout_90 (Dropout)         (None, 32)                0
_________________________________________________________________
dense_84 (Dense)             (None, 32)                1056
_________________________________________________________________
p_re_lu_107 (PReLU)          (None, 32)                32
_________________________________________________________________
dense_85 (Dense)             (None, 1)                 33
=================================================================
Total params: 97,313
Trainable params: 97,313
Non-trainable params: 0
_________________________________________________________________
None
Number of Epochs:  43
Epoch 1/43
 - 9s - loss: 0.6359 - acc: 0.7667
Epoch 2/43
 - 7s - loss: 0.5702 - acc: 0.7711
Epoch 3/43
 - 7s - loss: 0.5490 - acc: 0.7711
Epoch 4/43
 - 7s - loss: 0.5422 - acc: 0.7711
…
Recall:  0.0


CV Score: 0.84% (+/- 0.04%)
CV Time:  0:24:41.084540
Initialising CNN Model...

Building CNN...

Filters:  128
Kernel Size:  3
Number of blocks:  1
Pooling type: max
Pooling Strides: 4
Pooling Length: 4
Conv Dropout:  0.3019069481721373
FC Dropout:  0.44454883037280624
Dense Units:  64
Activation: prelu
Batch Normalisation: True


Compilation Time:  0.013012409210205078
_________________________________________________________________
Layer (type)                 Output Shape              Param #
=================================================================
conv1d_40 (Conv1D)           (None, 1999, 128)         512
_________________________________________________________________
batch_normalization_13 (Batc (None, 1999, 128)         512
_________________________________________________________________
max_pooling1d_20 (MaxPooling (None, 499, 128)          0
_________________________________________________________________
dropout_91 (Dropout)         (None, 499, 128)          0
_________________________________________________________________
p_re_lu_108 (PReLU)          (None, 499, 128)          63872
_________________________________________________________________
conv1d_41 (Conv1D)           (None, 497, 128)          49280
_________________________________________________________________
batch_normalization_14 (Batc (None, 497, 128)          512
_________________________________________________________________
max_pooling1d_21 (MaxPooling (None, 124, 128)          0
_________________________________________________________________
dropout_92 (Dropout)         (None, 124, 128)          0
_________________________________________________________________
p_re_lu_109 (PReLU)          (None, 124, 128)          15872
_________________________________________________________________
flatten_18 (Flatten)         (None, 15872)             0
_________________________________________________________________
dense_86 (Dense)             (None, 64)                1015872
_________________________________________________________________
dropout_93 (Dropout)         (None, 64)                0
_________________________________________________________________
p_re_lu_110 (PReLU)          (None, 64)                64
_________________________________________________________________
dense_87 (Dense)             (None, 64)                4160
_________________________________________________________________
p_re_lu_111 (PReLU)          (None, 64)                64
_________________________________________________________________
dropout_94 (Dropout)         (None, 64)                0
_________________________________________________________________
dense_88 (Dense)             (None, 64)                4160
_________________________________________________________________
p_re_lu_112 (PReLU)          (None, 64)                64
_________________________________________________________________
dropout_95 (Dropout)         (None, 64)                0
_________________________________________________________________
dense_89 (Dense)             (None, 64)                4160
_________________________________________________________________
p_re_lu_113 (PReLU)          (None, 64)                64
_________________________________________________________________
dense_90 (Dense)             (None, 1)                 65
=================================================================
Total params: 1,159,233
Trainable params: 1,158,721
Non-trainable params: 512
_________________________________________________________________
None
Number of Epochs:  31
Epoch 1/31
 - 15s - loss: 0.5332 - acc: 0.7381
Epoch 2/31
 - 13s - loss: 0.4663 - acc: 0.7689
Epoch 3/31
 - 13s - loss: 0.4250 - acc: 0.7704
Epoch 4/31
 - 13s - loss: 0.3980 - acc: 0.7709
…
CV Score: 0.96% (+/- 0.01%)
CV Time:  0:34:11.465170
Initialising CNN Model...

Building CNN...

Filters:  128
Kernel Size:  7
Number of blocks:  3
Pooling type: average
Pooling Strides: 4
Pooling Length: 2
Conv Dropout:  0.17353207546907817
FC Dropout:  0.046793999758025895
Dense Units:  254
Activation: prelu
Batch Normalisation: True


Compilation Time:  0.014013528823852539
_________________________________________________________________
Layer (type)                 Output Shape              Param #
=================================================================
conv1d_42 (Conv1D)           (None, 1995, 128)         1024
_________________________________________________________________
batch_normalization_15 (Batc (None, 1995, 128)         512
_________________________________________________________________
average_pooling1d_21 (Averag (None, 499, 128)          0
_________________________________________________________________
dropout_96 (Dropout)         (None, 499, 128)          0
_________________________________________________________________
p_re_lu_114 (PReLU)          (None, 499, 128)          63872
_________________________________________________________________
conv1d_43 (Conv1D)           (None, 493, 128)          114816
_________________________________________________________________
batch_normalization_16 (Batc (None, 493, 128)          512
_________________________________________________________________
average_pooling1d_22 (Averag (None, 123, 128)          0
_________________________________________________________________
dropout_97 (Dropout)         (None, 123, 128)          0
_________________________________________________________________
p_re_lu_115 (PReLU)          (None, 123, 128)          15744
_________________________________________________________________
conv1d_44 (Conv1D)           (None, 117, 128)          114816
_________________________________________________________________
batch_normalization_17 (Batc (None, 117, 128)          512
_________________________________________________________________
average_pooling1d_23 (Averag (None, 29, 128)           0
_________________________________________________________________
dropout_98 (Dropout)         (None, 29, 128)           0
_________________________________________________________________
p_re_lu_116 (PReLU)          (None, 29, 128)           3712
_________________________________________________________________
conv1d_45 (Conv1D)           (None, 23, 128)           114816
_________________________________________________________________
batch_normalization_18 (Batc (None, 23, 128)           512
_________________________________________________________________
average_pooling1d_24 (Averag (None, 6, 128)            0
_________________________________________________________________
dropout_99 (Dropout)         (None, 6, 128)            0
_________________________________________________________________
p_re_lu_117 (PReLU)          (None, 6, 128)            768
_________________________________________________________________
flatten_19 (Flatten)         (None, 768)               0
_________________________________________________________________
dense_91 (Dense)             (None, 254)               195326
_________________________________________________________________
dropout_100 (Dropout)        (None, 254)               0
_________________________________________________________________
p_re_lu_118 (PReLU)          (None, 254)               254
_________________________________________________________________
dense_92 (Dense)             (None, 254)               64770
_________________________________________________________________
p_re_lu_119 (PReLU)          (None, 254)               254
_________________________________________________________________
dropout_101 (Dropout)        (None, 254)               0
_________________________________________________________________
dense_93 (Dense)             (None, 254)               64770
_________________________________________________________________
p_re_lu_120 (PReLU)          (None, 254)               254
_________________________________________________________________
dropout_102 (Dropout)        (None, 254)               0
_________________________________________________________________
dense_94 (Dense)             (None, 254)               64770
_________________________________________________________________
p_re_lu_121 (PReLU)          (None, 254)               254
_________________________________________________________________
dense_95 (Dense)             (None, 1)                 255
=================================================================
Total params: 822,523
Trainable params: 821,499
Non-trainable params: 1,024
_________________________________________________________________
None
Number of Epochs:  22
Epoch 1/22
 - 18s - loss: 0.5022 - acc: 0.7449
Epoch 2/22
 - 16s - loss: 0.4288 - acc: 0.7711
Epoch 3/22
 - 16s - loss: 0.4051 - acc: 0.7710
Epoch 4/22
 - 16s - loss: 0.3875 - acc: 0.7781
…
CV Score: 0.97% (+/- 0.00%)
CV Time:  0:30:12.450524
Initialising CNN Model...

Building CNN...

Filters:  8
Kernel Size:  7
Number of blocks:  3
Pooling type: average
Pooling Strides: 4
Pooling Length: 3
Conv Dropout:  0.16831567180328028
FC Dropout:  0.15809050011109843
Dense Units:  254
Activation: prelu
Batch Normalisation: False


Compilation Time:  0.015012979507446289
_________________________________________________________________
Layer (type)                 Output Shape              Param #
=================================================================
conv1d_46 (Conv1D)           (None, 1995, 8)           64
_________________________________________________________________
average_pooling1d_25 (Averag (None, 499, 8)            0
_________________________________________________________________
dropout_103 (Dropout)        (None, 499, 8)            0
_________________________________________________________________
p_re_lu_122 (PReLU)          (None, 499, 8)            3992
_________________________________________________________________
conv1d_47 (Conv1D)           (None, 493, 8)            456
_________________________________________________________________
average_pooling1d_26 (Averag (None, 123, 8)            0
_________________________________________________________________
dropout_104 (Dropout)        (None, 123, 8)            0
_________________________________________________________________
p_re_lu_123 (PReLU)          (None, 123, 8)            984
_________________________________________________________________
conv1d_48 (Conv1D)           (None, 117, 8)            456
_________________________________________________________________
average_pooling1d_27 (Averag (None, 29, 8)             0
_________________________________________________________________
dropout_105 (Dropout)        (None, 29, 8)             0
_________________________________________________________________
p_re_lu_124 (PReLU)          (None, 29, 8)             232
_________________________________________________________________
conv1d_49 (Conv1D)           (None, 23, 8)             456
_________________________________________________________________
average_pooling1d_28 (Averag (None, 6, 8)              0
_________________________________________________________________
dropout_106 (Dropout)        (None, 6, 8)              0
_________________________________________________________________
p_re_lu_125 (PReLU)          (None, 6, 8)              48
_________________________________________________________________
flatten_20 (Flatten)         (None, 48)                0
_________________________________________________________________
dense_96 (Dense)             (None, 254)               12446
_________________________________________________________________
dropout_107 (Dropout)        (None, 254)               0
_________________________________________________________________
p_re_lu_126 (PReLU)          (None, 254)               254
_________________________________________________________________
dense_97 (Dense)             (None, 254)               64770
_________________________________________________________________
p_re_lu_127 (PReLU)          (None, 254)               254
_________________________________________________________________
dropout_108 (Dropout)        (None, 254)               0
_________________________________________________________________
dense_98 (Dense)             (None, 254)               64770
_________________________________________________________________
p_re_lu_128 (PReLU)          (None, 254)               254
_________________________________________________________________
dropout_109 (Dropout)        (None, 254)               0
_________________________________________________________________
dense_99 (Dense)             (None, 254)               64770
_________________________________________________________________
p_re_lu_129 (PReLU)          (None, 254)               254
_________________________________________________________________
dense_100 (Dense)            (None, 1)                 255
=================================================================
Total params: 214,715
Trainable params: 214,715
Non-trainable params: 0
_________________________________________________________________
None
Number of Epochs:  46
Epoch 1/46
 - 4s - loss: 0.6689 - acc: 0.7592
Epoch 2/46
 - 3s - loss: 0.6271 - acc: 0.7711
Epoch 3/46
 - 3s - loss: 0.5982 - acc: 0.7711
Epoch 4/46
 - 3s - loss: 0.5786 - acc: 0.7711
…
Recall:  0.0


CV Score: 0.80% (+/- 0.02%)
CV Time:  0:10:37.692362
Initialising CNN Model...

Building CNN...

Filters:  64
Kernel Size:  9
Number of blocks:  0
Pooling type: max
Pooling Strides: 2
Pooling Length: 3
Conv Dropout:  0.12561874265515227
FC Dropout:  0.1221667331677781
Dense Units:  32
Activation: prelu
Batch Normalisation: True


Compilation Time:  0.014013528823852539
_________________________________________________________________
Layer (type)                 Output Shape              Param #
=================================================================
conv1d_50 (Conv1D)           (None, 1993, 64)          640
_________________________________________________________________
batch_normalization_19 (Batc (None, 1993, 64)          256
_________________________________________________________________
max_pooling1d_22 (MaxPooling (None, 996, 64)           0
_________________________________________________________________
dropout_110 (Dropout)        (None, 996, 64)           0
_________________________________________________________________
p_re_lu_130 (PReLU)          (None, 996, 64)           63744
_________________________________________________________________
flatten_21 (Flatten)         (None, 63744)             0
_________________________________________________________________
dense_101 (Dense)            (None, 32)                2039840
_________________________________________________________________
dropout_111 (Dropout)        (None, 32)                0
_________________________________________________________________
p_re_lu_131 (PReLU)          (None, 32)                32
_________________________________________________________________
dense_102 (Dense)            (None, 32)                1056
_________________________________________________________________
p_re_lu_132 (PReLU)          (None, 32)                32
_________________________________________________________________
dropout_112 (Dropout)        (None, 32)                0
_________________________________________________________________
dense_103 (Dense)            (None, 32)                1056
_________________________________________________________________
p_re_lu_133 (PReLU)          (None, 32)                32
_________________________________________________________________
dropout_113 (Dropout)        (None, 32)                0
_________________________________________________________________
dense_104 (Dense)            (None, 32)                1056
_________________________________________________________________
p_re_lu_134 (PReLU)          (None, 32)                32
_________________________________________________________________
dense_105 (Dense)            (None, 1)                 33
=================================================================
Total params: 2,107,809
Trainable params: 2,107,681
Non-trainable params: 128
_________________________________________________________________
None
Number of Epochs:  39
Epoch 1/39
 - 8s - loss: 0.4454 - acc: 0.7727
Epoch 2/39
 - 6s - loss: 0.3503 - acc: 0.8387
Epoch 3/39
 - 6s - loss: 0.3103 - acc: 0.8571
Epoch 4/39
 - 6s - loss: 0.2912 - acc: 0.8711
…


CV Score: 0.99% (+/- 0.02%)
CV Time:  0:20:21.268217
Initialising CNN Model...

Building CNN...

Filters:  254
Kernel Size:  9
Number of blocks:  0
Pooling type: max
Pooling Strides: 2
Pooling Length: 3
Conv Dropout:  0.11535957619624822
FC Dropout:  0.10522529182053486
Dense Units:  32
Activation: prelu
Batch Normalisation: True


Compilation Time:  0.013024330139160156
_________________________________________________________________
Layer (type)                 Output Shape              Param #
=================================================================
conv1d_51 (Conv1D)           (None, 1993, 254)         2540
_________________________________________________________________
batch_normalization_20 (Batc (None, 1993, 254)         1016
_________________________________________________________________
max_pooling1d_23 (MaxPooling (None, 996, 254)          0
_________________________________________________________________
dropout_114 (Dropout)        (None, 996, 254)          0
_________________________________________________________________
p_re_lu_135 (PReLU)          (None, 996, 254)          252984
_________________________________________________________________
flatten_22 (Flatten)         (None, 252984)            0
_________________________________________________________________
dense_106 (Dense)            (None, 32)                8095520
_________________________________________________________________
dropout_115 (Dropout)        (None, 32)                0
_________________________________________________________________
p_re_lu_136 (PReLU)          (None, 32)                32
_________________________________________________________________
dense_107 (Dense)            (None, 32)                1056
_________________________________________________________________
p_re_lu_137 (PReLU)          (None, 32)                32
_________________________________________________________________
dropout_116 (Dropout)        (None, 32)                0
_________________________________________________________________
dense_108 (Dense)            (None, 32)                1056
_________________________________________________________________
p_re_lu_138 (PReLU)          (None, 32)                32
_________________________________________________________________
dropout_117 (Dropout)        (None, 32)                0
_________________________________________________________________
dense_109 (Dense)            (None, 32)                1056
_________________________________________________________________
p_re_lu_139 (PReLU)          (None, 32)                32
_________________________________________________________________
dense_110 (Dense)            (None, 1)                 33
=================================================================
Total params: 8,355,389
Trainable params: 8,354,881
Non-trainable params: 508
_________________________________________________________________
None
Number of Epochs:  37
Epoch 1/37
 - 20s - loss: 0.4169 - acc: 0.7773
Epoch 2/37
 - 18s - loss: 0.3248 - acc: 0.8578
Epoch 3/37
 - 18s - loss: 0.2890 - acc: 0.8796
Epoch 4/37
 - 18s - loss: 0.2549 - acc: 0.8941
…

CV Score: 0.99% (+/- 0.02%)
CV Time:  1:06:21.846823
Initialising CNN Model...

Building CNN...

Filters:  64
Kernel Size:  9
Number of blocks:  0
Pooling type: max
Pooling Strides: 2
Pooling Length: 3
Conv Dropout:  0.05215657330729341
FC Dropout:  0.0036027796574131035
Dense Units:  64
Activation: prelu
Batch Normalisation: True


Compilation Time:  0.014013290405273438
_________________________________________________________________
Layer (type)                 Output Shape              Param #
=================================================================
conv1d_55 (Conv1D)           (None, 1993, 64)          640
_________________________________________________________________
batch_normalization_24 (Batc (None, 1993, 64)          256
_________________________________________________________________
max_pooling1d_27 (MaxPooling (None, 996, 64)           0
_________________________________________________________________
dropout_130 (Dropout)        (None, 996, 64)           0
_________________________________________________________________
p_re_lu_155 (PReLU)          (None, 996, 64)           63744
_________________________________________________________________
flatten_26 (Flatten)         (None, 63744)             0
_________________________________________________________________
dense_126 (Dense)            (None, 64)                4079680
_________________________________________________________________
dropout_131 (Dropout)        (None, 64)                0
_________________________________________________________________
p_re_lu_156 (PReLU)          (None, 64)                64
_________________________________________________________________
dense_127 (Dense)            (None, 64)                4160
_________________________________________________________________
p_re_lu_157 (PReLU)          (None, 64)                64
_________________________________________________________________
dropout_132 (Dropout)        (None, 64)                0
_________________________________________________________________
dense_128 (Dense)            (None, 64)                4160
_________________________________________________________________
p_re_lu_158 (PReLU)          (None, 64)                64
_________________________________________________________________
dropout_133 (Dropout)        (None, 64)                0
_________________________________________________________________
dense_129 (Dense)            (None, 64)                4160
_________________________________________________________________
p_re_lu_159 (PReLU)          (None, 64)                64
_________________________________________________________________
dense_130 (Dense)            (None, 1)                 65
=================================================================
Total params: 4,157,121
Trainable params: 4,156,993
Non-trainable params: 128
_________________________________________________________________
None
Number of Epochs:  43
Epoch 1/43
 - 9s - loss: 0.3652 - acc: 0.8435
Epoch 2/43
 - 7s - loss: 0.2606 - acc: 0.8937
Epoch 3/43
 - 7s - loss: 0.2303 - acc: 0.9022
Epoch 4/43
 - 7s - loss: 0.2065 - acc: 0.9141
…
CV Score: 0.99% (+/- 0.02%)
CV Time:  0:25:45.108743
Initialising CNN Model...

Building CNN...

Filters:  254
Kernel Size:  9
Number of blocks:  0
Pooling type: max
Pooling Strides: 2
Pooling Length: 3
Conv Dropout:  0.05304588843099523
FC Dropout:  0.0036372831462357993
Dense Units:  64
Activation: prelu
Batch Normalisation: True


Compilation Time:  0.014013528823852539
_________________________________________________________________
Layer (type)                 Output Shape              Param #
=================================================================
conv1d_56 (Conv1D)           (None, 1993, 254)         2540
_________________________________________________________________
batch_normalization_25 (Batc (None, 1993, 254)         1016
_________________________________________________________________
max_pooling1d_28 (MaxPooling (None, 996, 254)          0
_________________________________________________________________
dropout_134 (Dropout)        (None, 996, 254)          0
_________________________________________________________________
p_re_lu_160 (PReLU)          (None, 996, 254)          252984
_________________________________________________________________
flatten_27 (Flatten)         (None, 252984)            0
_________________________________________________________________
dense_131 (Dense)            (None, 64)                16191040
_________________________________________________________________
dropout_135 (Dropout)        (None, 64)                0
_________________________________________________________________
p_re_lu_161 (PReLU)          (None, 64)                64
_________________________________________________________________
dense_132 (Dense)            (None, 64)                4160
_________________________________________________________________
p_re_lu_162 (PReLU)          (None, 64)                64
_________________________________________________________________
dropout_136 (Dropout)        (None, 64)                0
_________________________________________________________________
dense_133 (Dense)            (None, 64)                4160
_________________________________________________________________
p_re_lu_163 (PReLU)          (None, 64)                64
_________________________________________________________________
dropout_137 (Dropout)        (None, 64)                0
_________________________________________________________________
dense_134 (Dense)            (None, 64)                4160
_________________________________________________________________
p_re_lu_164 (PReLU)          (None, 64)                64
_________________________________________________________________
dense_135 (Dense)            (None, 1)                 65
=================================================================
Total params: 16,460,381
Trainable params: 16,459,873
Non-trainable params: 508
_________________________________________________________________
None
Number of Epochs:  49
Epoch 1/49
 - 25s - loss: 0.3933 - acc: 0.8102
Epoch 2/49
 - 22s - loss: 0.2784 - acc: 0.8886
Epoch 3/49
 - 22s - loss: 0.2346 - acc: 0.9053
Epoch 4/49
 - 22s - loss: 0.2126 - acc: 0.9128
…
Recall:  0.9888888888888889


CV Score: 0.99% (+/- 0.02%)
CV Time:  1:30:41.089465
Initialising CNN Model...

Building CNN...

Filters:  8
Kernel Size:  9
Number of blocks:  0
Pooling type: max
Pooling Strides: 2
Pooling Length: 3
Conv Dropout:  0.06973510536190489
FC Dropout:  0.033135360251149576
Dense Units:  64
Activation: prelu
Batch Normalisation: True


Compilation Time:  0.015026092529296875
_________________________________________________________________
Layer (type)                 Output Shape              Param #
=================================================================
conv1d_57 (Conv1D)           (None, 1993, 8)           80
_________________________________________________________________
batch_normalization_26 (Batc (None, 1993, 8)           32
_________________________________________________________________
max_pooling1d_29 (MaxPooling (None, 996, 8)            0
_________________________________________________________________
dropout_138 (Dropout)        (None, 996, 8)            0
_________________________________________________________________
p_re_lu_165 (PReLU)          (None, 996, 8)            7968
_________________________________________________________________
flatten_28 (Flatten)         (None, 7968)              0
_________________________________________________________________
dense_136 (Dense)            (None, 64)                510016
_________________________________________________________________
dropout_139 (Dropout)        (None, 64)                0
_________________________________________________________________
p_re_lu_166 (PReLU)          (None, 64)                64
_________________________________________________________________
dense_137 (Dense)            (None, 64)                4160
_________________________________________________________________
p_re_lu_167 (PReLU)          (None, 64)                64
_________________________________________________________________
dropout_140 (Dropout)        (None, 64)                0
_________________________________________________________________
dense_138 (Dense)            (None, 64)                4160
_________________________________________________________________
p_re_lu_168 (PReLU)          (None, 64)                64
_________________________________________________________________
dropout_141 (Dropout)        (None, 64)                0
_________________________________________________________________
dense_139 (Dense)            (None, 64)                4160
_________________________________________________________________
p_re_lu_169 (PReLU)          (None, 64)                64
_________________________________________________________________
dense_140 (Dense)            (None, 1)                 65
=================================================================
Total params: 530,897
Trainable params: 530,881
Non-trainable params: 16
_________________________________________________________________
None
Number of Epochs:  49
Epoch 1/49
 - 6s - loss: 0.4583 - acc: 0.7728
Epoch 2/49
 - 3s - loss: 0.3823 - acc: 0.8213
Epoch 3/49
 - 3s - loss: 0.3310 - acc: 0.8633
Epoch 4/49
 - 3s - loss: 0.2981 - acc: 0.8791
…

CV Score: 0.99% (+/- 0.02%)
CV Time:  0:13:52.000574
Initialising CNN Model...

Building CNN...

Filters:  128
Kernel Size:  5
Number of blocks:  0
Pooling type: max
Pooling Strides: 2
Pooling Length: 3
Conv Dropout:  0.1401592595741973
FC Dropout:  0.0014329782234679621
Dense Units:  64
Activation: prelu
Batch Normalisation: True


Compilation Time:  0.014013290405273438
_________________________________________________________________
Layer (type)                 Output Shape              Param #
=================================================================
conv1d_58 (Conv1D)           (None, 1997, 128)         768
_________________________________________________________________
batch_normalization_27 (Batc (None, 1997, 128)         512
_________________________________________________________________
max_pooling1d_30 (MaxPooling (None, 998, 128)          0
_________________________________________________________________
dropout_142 (Dropout)        (None, 998, 128)          0
_________________________________________________________________
p_re_lu_170 (PReLU)          (None, 998, 128)          127744
_________________________________________________________________
flatten_29 (Flatten)         (None, 127744)            0
_________________________________________________________________
dense_141 (Dense)            (None, 64)                8175680
_________________________________________________________________
dropout_143 (Dropout)        (None, 64)                0
_________________________________________________________________
p_re_lu_171 (PReLU)          (None, 64)                64
_________________________________________________________________
dense_142 (Dense)            (None, 64)                4160
_________________________________________________________________
p_re_lu_172 (PReLU)          (None, 64)                64
_________________________________________________________________
dropout_144 (Dropout)        (None, 64)                0
_________________________________________________________________
dense_143 (Dense)            (None, 64)                4160
_________________________________________________________________
p_re_lu_173 (PReLU)          (None, 64)                64
_________________________________________________________________
dropout_145 (Dropout)        (None, 64)                0
_________________________________________________________________
dense_144 (Dense)            (None, 64)                4160
_________________________________________________________________
p_re_lu_174 (PReLU)          (None, 64)                64
_________________________________________________________________
dense_145 (Dense)            (None, 1)                 65
=================================================================
Total params: 8,317,505
Trainable params: 8,317,249
Non-trainable params: 256
_________________________________________________________________
None
Number of Epochs:  49
Epoch 1/49
 - 14s - loss: 0.3740 - acc: 0.8334
Epoch 2/49
 - 12s - loss: 0.2697 - acc: 0.8919
Epoch 3/49
 - 12s - loss: 0.2329 - acc: 0.9074
Epoch 4/49
 - 12s - loss: 0.2094 - acc: 0.9116
…
Recall:  0.9841269841269841


CV Score: 0.99% (+/- 0.02%)
CV Time:  0:46:26.442501
Initialising CNN Model...

Building CNN...

Filters:  128
Kernel Size:  5
Number of blocks:  1
Pooling type: max
Pooling Strides: 2
Pooling Length: 3
Conv Dropout:  0.08625213973083698
FC Dropout:  0.2650803877994672
Dense Units:  64
Activation: prelu
Batch Normalisation: True


Compilation Time:  0.014013528823852539
_________________________________________________________________
Layer (type)                 Output Shape              Param #
=================================================================
conv1d_61 (Conv1D)           (None, 1997, 128)         768
_________________________________________________________________
batch_normalization_30 (Batc (None, 1997, 128)         512
_________________________________________________________________
max_pooling1d_33 (MaxPooling (None, 998, 128)          0
_________________________________________________________________
dropout_154 (Dropout)        (None, 998, 128)          0
_________________________________________________________________
p_re_lu_185 (PReLU)          (None, 998, 128)          127744
_________________________________________________________________
conv1d_62 (Conv1D)           (None, 994, 128)          82048
_________________________________________________________________
batch_normalization_31 (Batc (None, 994, 128)          512
_________________________________________________________________
max_pooling1d_34 (MaxPooling (None, 496, 128)          0
_________________________________________________________________
dropout_155 (Dropout)        (None, 496, 128)          0
_________________________________________________________________
p_re_lu_186 (PReLU)          (None, 496, 128)          63488
_________________________________________________________________
flatten_32 (Flatten)         (None, 63488)             0
_________________________________________________________________
dense_156 (Dense)            (None, 64)                4063296
_________________________________________________________________
dropout_156 (Dropout)        (None, 64)                0
_________________________________________________________________
p_re_lu_187 (PReLU)          (None, 64)                64
_________________________________________________________________
dense_157 (Dense)            (None, 64)                4160
_________________________________________________________________
p_re_lu_188 (PReLU)          (None, 64)                64
_________________________________________________________________
dropout_157 (Dropout)        (None, 64)                0
_________________________________________________________________
dense_158 (Dense)            (None, 64)                4160
_________________________________________________________________
p_re_lu_189 (PReLU)          (None, 64)                64
_________________________________________________________________
dropout_158 (Dropout)        (None, 64)                0
_________________________________________________________________
dense_159 (Dense)            (None, 64)                4160
_________________________________________________________________
p_re_lu_190 (PReLU)          (None, 64)                64
_________________________________________________________________
dense_160 (Dense)            (None, 1)                 65
=================================================================
Total params: 4,351,169
Trainable params: 4,350,657
Non-trainable params: 512
_________________________________________________________________
None
Number of Epochs:  36
Epoch 1/36
 - 19s - loss: 0.4370 - acc: 0.7868
Epoch 2/36
 - 16s - loss: 0.3304 - acc: 0.8490
Epoch 3/36
 - 16s - loss: 0.2951 - acc: 0.8691
Epoch 4/36
 - 16s - loss: 0.2704 - acc: 0.8849
…


CV Score: 0.99% (+/- 0.02%)
CV Time:  0:47:45.464135
Initialising CNN Model...

Building CNN...

Filters:  16
Kernel Size:  5
Number of blocks:  0
Pooling type: max
Pooling Strides: 2
Pooling Length: 2
Conv Dropout:  0.021533441405865883
FC Dropout:  0.36570354396327054
Dense Units:  64
Activation: prelu
Batch Normalisation: True


Compilation Time:  0.016515731811523438
_________________________________________________________________
Layer (type)                 Output Shape              Param #
=================================================================
conv1d_64 (Conv1D)           (None, 1997, 16)          96
_________________________________________________________________
batch_normalization_33 (Batc (None, 1997, 16)          64
_________________________________________________________________
max_pooling1d_36 (MaxPooling (None, 998, 16)           0
_________________________________________________________________
dropout_163 (Dropout)        (None, 998, 16)           0
_________________________________________________________________
p_re_lu_196 (PReLU)          (None, 998, 16)           15968
_________________________________________________________________
flatten_34 (Flatten)         (None, 15968)             0
_________________________________________________________________
dense_166 (Dense)            (None, 64)                1022016
_________________________________________________________________
dropout_164 (Dropout)        (None, 64)                0
_________________________________________________________________
p_re_lu_197 (PReLU)          (None, 64)                64
_________________________________________________________________
dense_167 (Dense)            (None, 64)                4160
_________________________________________________________________
p_re_lu_198 (PReLU)          (None, 64)                64
_________________________________________________________________
dropout_165 (Dropout)        (None, 64)                0
_________________________________________________________________
dense_168 (Dense)            (None, 64)                4160
_________________________________________________________________
p_re_lu_199 (PReLU)          (None, 64)                64
_________________________________________________________________
dropout_166 (Dropout)        (None, 64)                0
_________________________________________________________________
dense_169 (Dense)            (None, 64)                4160
_________________________________________________________________
p_re_lu_200 (PReLU)          (None, 64)                64
_________________________________________________________________
dense_170 (Dense)            (None, 1)                 65
=================================================================
Total params: 1,050,945
Trainable params: 1,050,913
Non-trainable params: 32
_________________________________________________________________
None
Number of Epochs:  11
Epoch 1/11
 - 7s - loss: 0.5415 - acc: 0.7300
Epoch 2/11
 - 4s - loss: 0.4760 - acc: 0.7650
Epoch 3/11
 - 4s - loss: 0.4388 - acc: 0.7695
Epoch 4/11
 - 4s - loss: 0.4171 - acc: 0.7698
…
Recall:  0.9


CV Score: 0.96% (+/- 0.02%)
CV Time:  0:03:49.514294
Initialising CNN Model...

Building CNN...

Filters:  254
Kernel Size:  5
Number of blocks:  3
Pooling type: max
Pooling Strides: 2
Pooling Length: 3
Conv Dropout:  0.09085028741368704
FC Dropout:  0.2728243195286096
Dense Units:  64
Activation: prelu
Batch Normalisation: True


Compilation Time:  0.015515327453613281
_________________________________________________________________
Layer (type)                 Output Shape              Param #
=================================================================
conv1d_65 (Conv1D)           (None, 1997, 254)         1524
_________________________________________________________________
batch_normalization_34 (Batc (None, 1997, 254)         1016
_________________________________________________________________
max_pooling1d_37 (MaxPooling (None, 998, 254)          0
_________________________________________________________________
dropout_167 (Dropout)        (None, 998, 254)          0
_________________________________________________________________
p_re_lu_201 (PReLU)          (None, 998, 254)          253492
_________________________________________________________________
conv1d_66 (Conv1D)           (None, 994, 254)          322834
_________________________________________________________________
batch_normalization_35 (Batc (None, 994, 254)          1016
_________________________________________________________________
max_pooling1d_38 (MaxPooling (None, 496, 254)          0
_________________________________________________________________
dropout_168 (Dropout)        (None, 496, 254)          0
_________________________________________________________________
p_re_lu_202 (PReLU)          (None, 496, 254)          125984
_________________________________________________________________
conv1d_67 (Conv1D)           (None, 492, 254)          322834
_________________________________________________________________
batch_normalization_36 (Batc (None, 492, 254)          1016
_________________________________________________________________
max_pooling1d_39 (MaxPooling (None, 245, 254)          0
_________________________________________________________________
dropout_169 (Dropout)        (None, 245, 254)          0
_________________________________________________________________
p_re_lu_203 (PReLU)          (None, 245, 254)          62230
_________________________________________________________________
conv1d_68 (Conv1D)           (None, 241, 254)          322834
_________________________________________________________________
batch_normalization_37 (Batc (None, 241, 254)          1016
_________________________________________________________________
max_pooling1d_40 (MaxPooling (None, 120, 254)          0
_________________________________________________________________
dropout_170 (Dropout)        (None, 120, 254)          0
_________________________________________________________________
p_re_lu_204 (PReLU)          (None, 120, 254)          30480
_________________________________________________________________
flatten_35 (Flatten)         (None, 30480)             0
_________________________________________________________________
dense_171 (Dense)            (None, 64)                1950784
_________________________________________________________________
dropout_171 (Dropout)        (None, 64)                0
_________________________________________________________________
p_re_lu_205 (PReLU)          (None, 64)                64
_________________________________________________________________
dense_172 (Dense)            (None, 64)                4160
_________________________________________________________________
p_re_lu_206 (PReLU)          (None, 64)                64
_________________________________________________________________
dropout_172 (Dropout)        (None, 64)                0
_________________________________________________________________
dense_173 (Dense)            (None, 64)                4160
_________________________________________________________________
p_re_lu_207 (PReLU)          (None, 64)                64
_________________________________________________________________
dropout_173 (Dropout)        (None, 64)                0
_________________________________________________________________
dense_174 (Dense)            (None, 64)                4160
_________________________________________________________________
p_re_lu_208 (PReLU)          (None, 64)                64
_________________________________________________________________
dense_175 (Dense)            (None, 1)                 65
=================================================================
Total params: 3,409,861
Trainable params: 3,407,829
Non-trainable params: 2,032
_________________________________________________________________
None
Number of Epochs:  29
Epoch 1/29
 - 49s - loss: 0.4660 - acc: 0.7699
Epoch 2/29
 - 46s - loss: 0.3725 - acc: 0.8211
Epoch 3/29
 - 46s - loss: 0.3339 - acc: 0.8453
Epoch 4/29
 - 46s - loss: 0.3120 - acc: 0.8588
…
CV Score: 0.98% (+/- 0.01%)
CV Time:  1:52:09.422457
Initialising CNN Model...

Building CNN...

Filters:  128
Kernel Size:  5
Number of blocks:  0
Pooling type: max
Pooling Strides: 3
Pooling Length: 3
Conv Dropout:  0.0022551036976259237
FC Dropout:  0.06812903492453397
Dense Units:  64
Activation: prelu
Batch Normalisation: True


Compilation Time:  0.016014814376831055
_________________________________________________________________
Layer (type)                 Output Shape              Param #
=================================================================
conv1d_69 (Conv1D)           (None, 1997, 128)         768
_________________________________________________________________
batch_normalization_38 (Batc (None, 1997, 128)         512
_________________________________________________________________
max_pooling1d_41 (MaxPooling (None, 665, 128)          0
_________________________________________________________________
dropout_174 (Dropout)        (None, 665, 128)          0
_________________________________________________________________
p_re_lu_209 (PReLU)          (None, 665, 128)          85120
_________________________________________________________________
flatten_36 (Flatten)         (None, 85120)             0
_________________________________________________________________
dense_176 (Dense)            (None, 64)                5447744
_________________________________________________________________
dropout_175 (Dropout)        (None, 64)                0
_________________________________________________________________
p_re_lu_210 (PReLU)          (None, 64)                64
_________________________________________________________________
dense_177 (Dense)            (None, 64)                4160
_________________________________________________________________
p_re_lu_211 (PReLU)          (None, 64)                64
_________________________________________________________________
dropout_176 (Dropout)        (None, 64)                0
_________________________________________________________________
dense_178 (Dense)            (None, 64)                4160
_________________________________________________________________
p_re_lu_212 (PReLU)          (None, 64)                64
_________________________________________________________________
dropout_177 (Dropout)        (None, 64)                0
_________________________________________________________________
dense_179 (Dense)            (None, 64)                4160
_________________________________________________________________
p_re_lu_213 (PReLU)          (None, 64)                64
_________________________________________________________________
dense_180 (Dense)            (None, 1)                 65
=================================================================
Total params: 5,546,945
Trainable params: 5,546,689
Non-trainable params: 256
_________________________________________________________________
None
Number of Epochs:  35
Epoch 1/35
 - 14s - loss: 0.4479 - acc: 0.7723
Epoch 2/35
 - 10s - loss: 0.3448 - acc: 0.8485
Epoch 3/35
 - 10s - loss: 0.2909 - acc: 0.8821
Epoch 4/35
 - 10s - loss: 0.2642 - acc: 0.8929
…


CV Score: 0.99% (+/- 0.02%)
CV Time:  0:29:53.716361
Initialising CNN Model...

Building CNN...

Filters:  8
Kernel Size:  9
Number of blocks:  1
Pooling type: max
Pooling Strides: 2
Pooling Length: 2
Conv Dropout:  0.06992083782108105
FC Dropout:  0.0042044352373872265
Dense Units:  64
Activation: prelu
Batch Normalisation: True


Compilation Time:  0.014013051986694336
_________________________________________________________________
Layer (type)                 Output Shape              Param #
=================================================================
conv1d_70 (Conv1D)           (None, 1993, 8)           80
_________________________________________________________________
batch_normalization_39 (Batc (None, 1993, 8)           32
_________________________________________________________________
max_pooling1d_42 (MaxPooling (None, 996, 8)            0
_________________________________________________________________
dropout_178 (Dropout)        (None, 996, 8)            0
_________________________________________________________________
p_re_lu_214 (PReLU)          (None, 996, 8)            7968
_________________________________________________________________
conv1d_71 (Conv1D)           (None, 988, 8)            584
_________________________________________________________________
batch_normalization_40 (Batc (None, 988, 8)            32
_________________________________________________________________
max_pooling1d_43 (MaxPooling (None, 494, 8)            0
_________________________________________________________________
dropout_179 (Dropout)        (None, 494, 8)            0
_________________________________________________________________
p_re_lu_215 (PReLU)          (None, 494, 8)            3952
_________________________________________________________________
flatten_37 (Flatten)         (None, 3952)              0
_________________________________________________________________
dense_181 (Dense)            (None, 64)                252992
_________________________________________________________________
dropout_180 (Dropout)        (None, 64)                0
_________________________________________________________________
p_re_lu_216 (PReLU)          (None, 64)                64
_________________________________________________________________
dense_182 (Dense)            (None, 64)                4160
_________________________________________________________________
p_re_lu_217 (PReLU)          (None, 64)                64
_________________________________________________________________
dropout_181 (Dropout)        (None, 64)                0
_________________________________________________________________
dense_183 (Dense)            (None, 64)                4160
_________________________________________________________________
p_re_lu_218 (PReLU)          (None, 64)                64
_________________________________________________________________
dropout_182 (Dropout)        (None, 64)                0
_________________________________________________________________
dense_184 (Dense)            (None, 64)                4160
_________________________________________________________________
p_re_lu_219 (PReLU)          (None, 64)                64
_________________________________________________________________
dense_185 (Dense)            (None, 1)                 65
=================================================================
Total params: 278,441
Trainable params: 278,409
Non-trainable params: 32
_________________________________________________________________
None
Number of Epochs:  23
Epoch 1/23
 - 7s - loss: 0.4927 - acc: 0.7657
Epoch 2/23
 - 4s - loss: 0.4107 - acc: 0.7934
Epoch 3/23
 - 4s - loss: 0.3388 - acc: 0.8479
Epoch 4/23
 - 4s - loss: 0.3010 - acc: 0.8682
…
Recall:  0.9222222222222223


CV Score: 0.98% (+/- 0.01%)
CV Time:  0:07:41.894746
Initialising CNN Model...

Building CNN...

Filters:  254
Kernel Size:  5
Number of blocks:  0
Pooling type: max
Pooling Strides: 2
Pooling Length: 3
Conv Dropout:  0.2756821503016105
FC Dropout:  0.16450840696005223
Dense Units:  64
Activation: prelu
Batch Normalisation: True


Compilation Time:  0.01451420783996582
_________________________________________________________________
Layer (type)                 Output Shape              Param #
=================================================================
conv1d_72 (Conv1D)           (None, 1997, 254)         1524
_________________________________________________________________
batch_normalization_41 (Batc (None, 1997, 254)         1016
_________________________________________________________________
max_pooling1d_44 (MaxPooling (None, 998, 254)          0
_________________________________________________________________
dropout_183 (Dropout)        (None, 998, 254)          0
_________________________________________________________________
p_re_lu_220 (PReLU)          (None, 998, 254)          253492
_________________________________________________________________
flatten_38 (Flatten)         (None, 253492)            0
_________________________________________________________________
dense_186 (Dense)            (None, 64)                16223552
_________________________________________________________________
dropout_184 (Dropout)        (None, 64)                0
_________________________________________________________________
p_re_lu_221 (PReLU)          (None, 64)                64
_________________________________________________________________
dense_187 (Dense)            (None, 64)                4160
_________________________________________________________________
p_re_lu_222 (PReLU)          (None, 64)                64
_________________________________________________________________
dropout_185 (Dropout)        (None, 64)                0
_________________________________________________________________
dense_188 (Dense)            (None, 64)                4160
_________________________________________________________________
p_re_lu_223 (PReLU)          (None, 64)                64
_________________________________________________________________
dropout_186 (Dropout)        (None, 64)                0
_________________________________________________________________
dense_189 (Dense)            (None, 64)                4160
_________________________________________________________________
p_re_lu_224 (PReLU)          (None, 64)                64
_________________________________________________________________
dense_190 (Dense)            (None, 1)                 65
=================================================================
Total params: 16,492,385
Trainable params: 16,491,877
Non-trainable params: 508
_________________________________________________________________
None
Number of Epochs:  17
Epoch 1/17
 - 24s - loss: 0.4228 - acc: 0.7833
Epoch 2/17
 - 21s - loss: 0.3299 - acc: 0.8471
Epoch 3/17
 - 21s - loss: 0.2829 - acc: 0.8746
Epoch 4/17
 - 21s - loss: 0.2570 - acc: 0.8914
…
Recall:  0.9714285714285714


CV Score: 0.99% (+/- 0.02%)
CV Time:  0:31:10.926365
Initialising CNN Model...

Building CNN...

Filters:  32
Kernel Size:  9
Number of blocks:  3
Pooling type: max
Pooling Strides: 3
Pooling Length: 3
Conv Dropout:  0.2299798453622781
FC Dropout:  0.22600655350937604
Dense Units:  128
Activation: prelu
Batch Normalisation: True


Compilation Time:  0.015016317367553711
_________________________________________________________________
Layer (type)                 Output Shape              Param #
=================================================================
conv1d_73 (Conv1D)           (None, 1993, 32)          320
_________________________________________________________________
batch_normalization_42 (Batc (None, 1993, 32)          128
_________________________________________________________________
max_pooling1d_45 (MaxPooling (None, 664, 32)           0
_________________________________________________________________
dropout_187 (Dropout)        (None, 664, 32)           0
_________________________________________________________________
p_re_lu_225 (PReLU)          (None, 664, 32)           21248
_________________________________________________________________
conv1d_74 (Conv1D)           (None, 656, 32)           9248
_________________________________________________________________
batch_normalization_43 (Batc (None, 656, 32)           128
_________________________________________________________________
max_pooling1d_46 (MaxPooling (None, 218, 32)           0
_________________________________________________________________
dropout_188 (Dropout)        (None, 218, 32)           0
_________________________________________________________________
p_re_lu_226 (PReLU)          (None, 218, 32)           6976
_________________________________________________________________
conv1d_75 (Conv1D)           (None, 210, 32)           9248
_________________________________________________________________
batch_normalization_44 (Batc (None, 210, 32)           128
_________________________________________________________________
max_pooling1d_47 (MaxPooling (None, 70, 32)            0
_________________________________________________________________
dropout_189 (Dropout)        (None, 70, 32)            0
_________________________________________________________________
p_re_lu_227 (PReLU)          (None, 70, 32)            2240
_________________________________________________________________
conv1d_76 (Conv1D)           (None, 62, 32)            9248
_________________________________________________________________
batch_normalization_45 (Batc (None, 62, 32)            128
_________________________________________________________________
max_pooling1d_48 (MaxPooling (None, 20, 32)            0
_________________________________________________________________
dropout_190 (Dropout)        (None, 20, 32)            0
_________________________________________________________________
p_re_lu_228 (PReLU)          (None, 20, 32)            640
_________________________________________________________________
flatten_39 (Flatten)         (None, 640)               0
_________________________________________________________________
dense_191 (Dense)            (None, 128)               82048
_________________________________________________________________
dropout_191 (Dropout)        (None, 128)               0
_________________________________________________________________
p_re_lu_229 (PReLU)          (None, 128)               128
_________________________________________________________________
dense_192 (Dense)            (None, 128)               16512
_________________________________________________________________
p_re_lu_230 (PReLU)          (None, 128)               128
_________________________________________________________________
dropout_192 (Dropout)        (None, 128)               0
_________________________________________________________________
dense_193 (Dense)            (None, 128)               16512
_________________________________________________________________
p_re_lu_231 (PReLU)          (None, 128)               128
_________________________________________________________________
dropout_193 (Dropout)        (None, 128)               0
_________________________________________________________________
dense_194 (Dense)            (None, 128)               16512
_________________________________________________________________
p_re_lu_232 (PReLU)          (None, 128)               128
_________________________________________________________________
dense_195 (Dense)            (None, 1)                 129
=================================================================
Total params: 191,905
Trainable params: 191,649
Non-trainable params: 256
_________________________________________________________________
None
Number of Epochs:  7
Epoch 1/7
 - 11s - loss: 0.5058 - acc: 0.7658
Epoch 2/7
 - 7s - loss: 0.4759 - acc: 0.7714
Epoch 3/7
 - 7s - loss: 0.4601 - acc: 0.7714
Epoch 4/7
 - 7s - loss: 0.4442 - acc: 0.7749
…


CV Score: 0.88% (+/- 0.02%)
CV Time:  0:04:14.540660
Initialising CNN Model...

Building CNN...

Filters:  128
Kernel Size:  5
Number of blocks:  2
Pooling type: max
Pooling Strides: 2
Pooling Length: 2
Conv Dropout:  0.03375390691467464
FC Dropout:  0.03526723737759203
Dense Units:  64
Activation: prelu
Batch Normalisation: True


Compilation Time:  0.015014886856079102
_________________________________________________________________
Layer (type)                 Output Shape              Param #
=================================================================
conv1d_77 (Conv1D)           (None, 1997, 128)         768
_________________________________________________________________
batch_normalization_46 (Batc (None, 1997, 128)         512
_________________________________________________________________
max_pooling1d_49 (MaxPooling (None, 998, 128)          0
_________________________________________________________________
dropout_194 (Dropout)        (None, 998, 128)          0
_________________________________________________________________
p_re_lu_233 (PReLU)          (None, 998, 128)          127744
_________________________________________________________________
conv1d_78 (Conv1D)           (None, 994, 128)          82048
_________________________________________________________________
batch_normalization_47 (Batc (None, 994, 128)          512
_________________________________________________________________
max_pooling1d_50 (MaxPooling (None, 497, 128)          0
_________________________________________________________________
dropout_195 (Dropout)        (None, 497, 128)          0
_________________________________________________________________
p_re_lu_234 (PReLU)          (None, 497, 128)          63616
_________________________________________________________________
conv1d_79 (Conv1D)           (None, 493, 128)          82048
_________________________________________________________________
batch_normalization_48 (Batc (None, 493, 128)          512
_________________________________________________________________
max_pooling1d_51 (MaxPooling (None, 246, 128)          0
_________________________________________________________________
dropout_196 (Dropout)        (None, 246, 128)          0
_________________________________________________________________
p_re_lu_235 (PReLU)          (None, 246, 128)          31488
_________________________________________________________________
flatten_40 (Flatten)         (None, 31488)             0
_________________________________________________________________
dense_196 (Dense)            (None, 64)                2015296
_________________________________________________________________
dropout_197 (Dropout)        (None, 64)                0
_________________________________________________________________
p_re_lu_236 (PReLU)          (None, 64)                64
_________________________________________________________________
dense_197 (Dense)            (None, 64)                4160
_________________________________________________________________
p_re_lu_237 (PReLU)          (None, 64)                64
_________________________________________________________________
dropout_198 (Dropout)        (None, 64)                0
_________________________________________________________________
dense_198 (Dense)            (None, 64)                4160
_________________________________________________________________
p_re_lu_238 (PReLU)          (None, 64)                64
_________________________________________________________________
dropout_199 (Dropout)        (None, 64)                0
_________________________________________________________________
dense_199 (Dense)            (None, 64)                4160
_________________________________________________________________
p_re_lu_239 (PReLU)          (None, 64)                64
_________________________________________________________________
dense_200 (Dense)            (None, 1)                 65
=================================================================
Total params: 2,417,345
Trainable params: 2,416,577
Non-trainable params: 768
_________________________________________________________________
None
Number of Epochs:  28
Epoch 1/28
 - 25s - loss: 0.4234 - acc: 0.8072
Epoch 2/28
 - 21s - loss: 0.3206 - acc: 0.8612
Epoch 3/28
 - 21s - loss: 0.2784 - acc: 0.8845
Epoch 4/28
 - 21s - loss: 0.2588 - acc: 0.8918
…

CV Score: 0.99% (+/- 0.01%)
CV Time:  1:24:58.507796
Initialising CNN Model...

Building CNN...

Filters:  16
Kernel Size:  5
Number of blocks:  0
Pooling type: max
Pooling Strides: 3
Pooling Length: 3
Conv Dropout:  0.09242676757841758
FC Dropout:  0.13755780746218463
Dense Units:  128
Activation: prelu
Batch Normalisation: False


Compilation Time:  0.014013290405273438
_________________________________________________________________
Layer (type)                 Output Shape              Param #
=================================================================
conv1d_81 (Conv1D)           (None, 1997, 16)          96
_________________________________________________________________
max_pooling1d_52 (MaxPooling (None, 665, 16)           0
_________________________________________________________________
dropout_204 (Dropout)        (None, 665, 16)           0
_________________________________________________________________
p_re_lu_245 (PReLU)          (None, 665, 16)           10640
_________________________________________________________________
flatten_42 (Flatten)         (None, 10640)             0
_________________________________________________________________
dense_206 (Dense)            (None, 128)               1362048
_________________________________________________________________
dropout_205 (Dropout)        (None, 128)               0
_________________________________________________________________
p_re_lu_246 (PReLU)          (None, 128)               128
_________________________________________________________________
dense_207 (Dense)            (None, 128)               16512
_________________________________________________________________
p_re_lu_247 (PReLU)          (None, 128)               128
_________________________________________________________________
dropout_206 (Dropout)        (None, 128)               0
_________________________________________________________________
dense_208 (Dense)            (None, 128)               16512
_________________________________________________________________
p_re_lu_248 (PReLU)          (None, 128)               128
_________________________________________________________________
dropout_207 (Dropout)        (None, 128)               0
_________________________________________________________________
dense_209 (Dense)            (None, 128)               16512
_________________________________________________________________
p_re_lu_249 (PReLU)          (None, 128)               128
_________________________________________________________________
dense_210 (Dense)            (None, 1)                 129
=================================================================
Total params: 1,422,961
Trainable params: 1,422,961
Non-trainable params: 0
_________________________________________________________________
None
Number of Epochs:  40
Epoch 1/40
 - 7s - loss: 0.5189 - acc: 0.7571
Epoch 2/40
 - 3s - loss: 0.4664 - acc: 0.7710
Epoch 3/40
 - 3s - loss: 0.4342 - acc: 0.7716
Epoch 4/40
 - 3s - loss: 0.4068 - acc: 0.7774
…
CV Score: 0.98% (+/- 0.01%)
CV Time:  0:11:20.719439
Initialising CNN Model...

Building CNN...

Filters:  32
Kernel Size:  7
Number of blocks:  2
Pooling type: average
Pooling Strides: 2
Pooling Length: 2
Conv Dropout:  0.22521305742077496
FC Dropout:  0.28867838576528565
Dense Units:  64
Activation: prelu
Batch Normalisation: True


Compilation Time:  0.01401376724243164
_________________________________________________________________
Layer (type)                 Output Shape              Param #
=================================================================
conv1d_82 (Conv1D)           (None, 1995, 32)          256
_________________________________________________________________
batch_normalization_50 (Batc (None, 1995, 32)          128
_________________________________________________________________
average_pooling1d_30 (Averag (None, 997, 32)           0
_________________________________________________________________
dropout_208 (Dropout)        (None, 997, 32)           0
_________________________________________________________________
p_re_lu_250 (PReLU)          (None, 997, 32)           31904
_________________________________________________________________
conv1d_83 (Conv1D)           (None, 991, 32)           7200
_________________________________________________________________
batch_normalization_51 (Batc (None, 991, 32)           128
_________________________________________________________________
average_pooling1d_31 (Averag (None, 495, 32)           0
_________________________________________________________________
dropout_209 (Dropout)        (None, 495, 32)           0
_________________________________________________________________
p_re_lu_251 (PReLU)          (None, 495, 32)           15840
_________________________________________________________________
conv1d_84 (Conv1D)           (None, 489, 32)           7200
_________________________________________________________________
batch_normalization_52 (Batc (None, 489, 32)           128
_________________________________________________________________
average_pooling1d_32 (Averag (None, 244, 32)           0
_________________________________________________________________
dropout_210 (Dropout)        (None, 244, 32)           0
_________________________________________________________________
p_re_lu_252 (PReLU)          (None, 244, 32)           7808
_________________________________________________________________
flatten_43 (Flatten)         (None, 7808)              0
_________________________________________________________________
dense_211 (Dense)            (None, 64)                499776
_________________________________________________________________
dropout_211 (Dropout)        (None, 64)                0
_________________________________________________________________
p_re_lu_253 (PReLU)          (None, 64)                64
_________________________________________________________________
dense_212 (Dense)            (None, 64)                4160
_________________________________________________________________
p_re_lu_254 (PReLU)          (None, 64)                64
_________________________________________________________________
dropout_212 (Dropout)        (None, 64)                0
_________________________________________________________________
dense_213 (Dense)            (None, 64)                4160
_________________________________________________________________
p_re_lu_255 (PReLU)          (None, 64)                64
_________________________________________________________________
dropout_213 (Dropout)        (None, 64)                0
_________________________________________________________________
dense_214 (Dense)            (None, 64)                4160
_________________________________________________________________
p_re_lu_256 (PReLU)          (None, 64)                64
_________________________________________________________________
dense_215 (Dense)            (None, 1)                 65
=================================================================
Total params: 583,169
Trainable params: 582,977
Non-trainable params: 192
_________________________________________________________________
None
Number of Epochs:  48
Epoch 1/48
 - 11s - loss: 0.5350 - acc: 0.7162
Epoch 2/48
 - 8s - loss: 0.4318 - acc: 0.7734
Epoch 3/48
 - 8s - loss: 0.3961 - acc: 0.7895
Epoch 4/48
 - 8s - loss: 0.3686 - acc: 0.8048
…
Recall:  0.9174603174603174


CV Score: 0.97% (+/- 0.00%)
CV Time:  0:30:56.682072
Initialising CNN Model...

Building CNN...

Filters:  8
Kernel Size:  9
Number of blocks:  1
Pooling type: max
Pooling Strides: 2
Pooling Length: 4
Conv Dropout:  0.18755821529857022
FC Dropout:  0.09058259923857834
Dense Units:  64
Activation: prelu
Batch Normalisation: False


Compilation Time:  0.01601552963256836
_________________________________________________________________
Layer (type)                 Output Shape              Param #
=================================================================
conv1d_85 (Conv1D)           (None, 1993, 8)           80
_________________________________________________________________
max_pooling1d_53 (MaxPooling (None, 995, 8)            0
_________________________________________________________________
dropout_214 (Dropout)        (None, 995, 8)            0
_________________________________________________________________
p_re_lu_257 (PReLU)          (None, 995, 8)            7960
_________________________________________________________________
conv1d_86 (Conv1D)           (None, 987, 8)            584
_________________________________________________________________
max_pooling1d_54 (MaxPooling (None, 492, 8)            0
_________________________________________________________________
dropout_215 (Dropout)        (None, 492, 8)            0
_________________________________________________________________
p_re_lu_258 (PReLU)          (None, 492, 8)            3936
_________________________________________________________________
flatten_44 (Flatten)         (None, 3936)              0
_________________________________________________________________
dense_216 (Dense)            (None, 64)                251968
_________________________________________________________________
dropout_216 (Dropout)        (None, 64)                0
_________________________________________________________________
p_re_lu_259 (PReLU)          (None, 64)                64
_________________________________________________________________
dense_217 (Dense)            (None, 64)                4160
_________________________________________________________________
p_re_lu_260 (PReLU)          (None, 64)                64
_________________________________________________________________
dropout_217 (Dropout)        (None, 64)                0
_________________________________________________________________
dense_218 (Dense)            (None, 64)                4160
_________________________________________________________________
p_re_lu_261 (PReLU)          (None, 64)                64
_________________________________________________________________
dropout_218 (Dropout)        (None, 64)                0
_________________________________________________________________
dense_219 (Dense)            (None, 64)                4160
_________________________________________________________________
p_re_lu_262 (PReLU)          (None, 64)                64
_________________________________________________________________
dense_220 (Dense)            (None, 1)                 65
=================================================================
Total params: 277,329
Trainable params: 277,329
Non-trainable params: 0
_________________________________________________________________
None
Number of Epochs:  34
Epoch 1/34
 - 7s - loss: 0.5391 - acc: 0.7329
Epoch 2/34
 - 3s - loss: 0.4886 - acc: 0.7707
Epoch 3/34
 - 3s - loss: 0.4495 - acc: 0.7709
Epoch 4/34
 - 3s - loss: 0.4052 - acc: 0.7797
…
CV Score: 0.98% (+/- 0.00%)
CV Time:  0:09:49.234074
Initialising CNN Model...

Building CNN...

Filters:  254
Kernel Size:  5
Number of blocks:  0
Pooling type: max
Pooling Strides: 3
Pooling Length: 3
Conv Dropout:  0.10309159458175554
FC Dropout:  0.039930766250741476
Dense Units:  128
Activation: prelu
Batch Normalisation: True


Compilation Time:  0.014013528823852539
_________________________________________________________________
Layer (type)                 Output Shape              Param #
=================================================================
conv1d_87 (Conv1D)           (None, 1997, 254)         1524
_________________________________________________________________
batch_normalization_53 (Batc (None, 1997, 254)         1016
_________________________________________________________________
max_pooling1d_55 (MaxPooling (None, 665, 254)          0
_________________________________________________________________
dropout_219 (Dropout)        (None, 665, 254)          0
_________________________________________________________________
p_re_lu_263 (PReLU)          (None, 665, 254)          168910
_________________________________________________________________
flatten_45 (Flatten)         (None, 168910)            0
_________________________________________________________________
dense_221 (Dense)            (None, 128)               21620608
_________________________________________________________________
dropout_220 (Dropout)        (None, 128)               0
_________________________________________________________________
p_re_lu_264 (PReLU)          (None, 128)               128
_________________________________________________________________
dense_222 (Dense)            (None, 128)               16512
_________________________________________________________________
p_re_lu_265 (PReLU)          (None, 128)               128
_________________________________________________________________
dropout_221 (Dropout)        (None, 128)               0
_________________________________________________________________
dense_223 (Dense)            (None, 128)               16512
_________________________________________________________________
p_re_lu_266 (PReLU)          (None, 128)               128
_________________________________________________________________
dropout_222 (Dropout)        (None, 128)               0
_________________________________________________________________
dense_224 (Dense)            (None, 128)               16512
_________________________________________________________________
p_re_lu_267 (PReLU)          (None, 128)               128
_________________________________________________________________
dense_225 (Dense)            (None, 1)                 129
=================================================================
Total params: 21,842,235
Trainable params: 21,841,727
Non-trainable params: 508
_________________________________________________________________
None
Number of Epochs:  41
Epoch 1/41
 - 26s - loss: 0.3941 - acc: 0.8244
Epoch 2/41
 - 23s - loss: 0.2868 - acc: 0.8828
Epoch 3/41
 - 23s - loss: 0.2508 - acc: 0.8986
Epoch 4/41
 - 23s - loss: 0.2238 - acc: 0.9099
…
CV Score: 0.99% (+/- 0.02%)
CV Time:  1:15:42.492761
Initialising CNN Model...

Building CNN...

Filters:  128
Kernel Size:  7
Number of blocks:  2
Pooling type: average
Pooling Strides: 2
Pooling Length: 4
Conv Dropout:  0.13063566769992677
FC Dropout:  0.1894473440882521
Dense Units:  64
Activation: prelu
Batch Normalisation: True


Compilation Time:  0.01451563835144043
_________________________________________________________________
Layer (type)                 Output Shape              Param #
=================================================================
conv1d_88 (Conv1D)           (None, 1995, 128)         1024
_________________________________________________________________
batch_normalization_54 (Batc (None, 1995, 128)         512
_________________________________________________________________
average_pooling1d_33 (Averag (None, 996, 128)          0
_________________________________________________________________
dropout_223 (Dropout)        (None, 996, 128)          0
_________________________________________________________________
p_re_lu_268 (PReLU)          (None, 996, 128)          127488
_________________________________________________________________
conv1d_89 (Conv1D)           (None, 990, 128)          114816
_________________________________________________________________
batch_normalization_55 (Batc (None, 990, 128)          512
_________________________________________________________________
average_pooling1d_34 (Averag (None, 494, 128)          0
_________________________________________________________________
dropout_224 (Dropout)        (None, 494, 128)          0
_________________________________________________________________
p_re_lu_269 (PReLU)          (None, 494, 128)          63232
_________________________________________________________________
conv1d_90 (Conv1D)           (None, 488, 128)          114816
_________________________________________________________________
batch_normalization_56 (Batc (None, 488, 128)          512
_________________________________________________________________
average_pooling1d_35 (Averag (None, 243, 128)          0
_________________________________________________________________
dropout_225 (Dropout)        (None, 243, 128)          0
_________________________________________________________________
p_re_lu_270 (PReLU)          (None, 243, 128)          31104
_________________________________________________________________
flatten_46 (Flatten)         (None, 31104)             0
_________________________________________________________________
dense_226 (Dense)            (None, 64)                1990720
_________________________________________________________________
dropout_226 (Dropout)        (None, 64)                0
_________________________________________________________________
p_re_lu_271 (PReLU)          (None, 64)                64
_________________________________________________________________
dense_227 (Dense)            (None, 64)                4160
_________________________________________________________________
p_re_lu_272 (PReLU)          (None, 64)                64
_________________________________________________________________
dropout_227 (Dropout)        (None, 64)                0
_________________________________________________________________
dense_228 (Dense)            (None, 64)                4160
_________________________________________________________________
p_re_lu_273 (PReLU)          (None, 64)                64
_________________________________________________________________
dropout_228 (Dropout)        (None, 64)                0
_________________________________________________________________
dense_229 (Dense)            (None, 64)                4160
_________________________________________________________________
p_re_lu_274 (PReLU)          (None, 64)                64
_________________________________________________________________
dense_230 (Dense)            (None, 1)                 65
=================================================================
Total params: 2,457,537
Trainable params: 2,456,769
Non-trainable params: 768
_________________________________________________________________
None
Number of Epochs:  37
Epoch 1/37
 - 29s - loss: 0.3908 - acc: 0.8015
Epoch 2/37
 - 25s - loss: 0.3011 - acc: 0.8639
Epoch 3/37
 - 25s - loss: 0.2743 - acc: 0.8807
Epoch 4/37
 - 25s - loss: 0.2518 - acc: 0.8934
…
