…
  31:     score, acc = lstm.Evaluate(X_test, y_test, batch_size, verbose=0)
  32: 
  33:     print('Test Accuracy: ', acc)
  34: 
  35:     evaluator = ModelEvaluator(lstm, X_test=X_test, y_test=y_test, batch_size=32, generate_plots=False)
  36: 
  37: 
  38:     return {'loss': -acc, 'status': STATUS_OK, 'model': lstm.GetModel()}
  39: 
Dataset: lc_std_nanmasked_SMOTE.csv found. Loading...
Compilation Time:  0.014013528823852539
_________________________________________________________________
Layer (type)                 Output Shape              Param #   
=================================================================
cu_dnnlstm_1 (CuDNNLSTM)     (None, 4000, 15)          1080      
_________________________________________________________________
batch_normalization_1 (Batch (None, 4000, 15)          60        
_________________________________________________________________
dropout_1 (Dropout)          (None, 4000, 15)          0         
_________________________________________________________________
cu_dnnlstm_2 (CuDNNLSTM)     (None, 4000, 15)          1920      
_________________________________________________________________
batch_normalization_2 (Batch (None, 4000, 15)          60        
_________________________________________________________________
dropout_2 (Dropout)          (None, 4000, 15)          0         
_________________________________________________________________
cu_dnnlstm_3 (CuDNNLSTM)     (None, 4000, 15)          1920      
_________________________________________________________________
batch_normalization_3 (Batch (None, 4000, 15)          60        
_________________________________________________________________
dropout_3 (Dropout)          (None, 4000, 15)          0         
_________________________________________________________________
flatten_1 (Flatten)          (None, 60000)             0         
_________________________________________________________________
dense_1 (Dense)              (None, 15)                900015    
_________________________________________________________________
p_re_lu_1 (PReLU)            (None, 15)                15        
_________________________________________________________________
dense_2 (Dense)              (None, 7)                 112       
_________________________________________________________________
p_re_lu_2 (PReLU)            (None, 7)                 7         
_________________________________________________________________
dense_3 (Dense)              (None, 3)                 24        
_________________________________________________________________
p_re_lu_3 (PReLU)            (None, 3)                 3         
_________________________________________________________________
dense_4 (Dense)              (None, 1)                 4         
_________________________________________________________________
activation_1 (Activation)    (None, 1)                 0         
=================================================================
Total params: 905,280
Trainable params: 905,190
Non-trainable params: 90
_________________________________________________________________
None
Train on 14718 samples, validate on 1280 samples
Epoch 1/50
 - 72s - loss: 0.7399 - acc: 0.5067 - val_loss: 0.6983 - val_acc: 0.4953
Epoch 2/50
 - 69s - loss: 0.6888 - acc: 0.5335 - val_loss: 0.6937 - val_acc: 0.4836
…
mum now.
  return getattr(obj, method)(*args, **kwds)
Classification Report: 

             precision    recall  f1-score   support

          0    0.58151   0.34600   0.43386      2000
          1    0.53452   0.75100   0.62453      2000

avg / total    0.55802   0.54850   0.52919      4000

R2:  -0.806
ROC/AUC Score:  0.59876975
Compilation Time:  0.014025211334228516
_________________________________________________________________
Layer (type)                 Output Shape              Param #   
=================================================================
cu_dnnlstm_4 (CuDNNLSTM)     (None, 4000, 5)           160       
_________________________________________________________________
batch_normalization_4 (Batch (None, 4000, 5)           20        
_________________________________________________________________
dropout_4 (Dropout)          (None, 4000, 5)           0         
_________________________________________________________________
cu_dnnlstm_5 (CuDNNLSTM)     (None, 4000, 5)           240       
_________________________________________________________________
batch_normalization_5 (Batch (None, 4000, 5)           20        
_________________________________________________________________
dropout_5 (Dropout)          (None, 4000, 5)           0         
_________________________________________________________________
cu_dnnlstm_6 (CuDNNLSTM)     (None, 4000, 5)           240       
_________________________________________________________________
batch_normalization_6 (Batch (None, 4000, 5)           20        
_________________________________________________________________
dropout_6 (Dropout)          (None, 4000, 5)           0         
_________________________________________________________________
cu_dnnlstm_7 (CuDNNLSTM)     (None, 4000, 5)           240       
_________________________________________________________________
batch_normalization_7 (Batch (None, 4000, 5)           20        
_________________________________________________________________
dropout_7 (Dropout)          (None, 4000, 5)           0         
_________________________________________________________________
flatten_2 (Flatten)          (None, 20000)             0         
_________________________________________________________________
dense_5 (Dense)              (None, 5)                 100005    
_________________________________________________________________
p_re_lu_4 (PReLU)            (None, 5)                 5         
_________________________________________________________________
dense_6 (Dense)              (None, 2)                 12        
_________________________________________________________________
p_re_lu_5 (PReLU)            (None, 2)                 2         
_________________________________________________________________
dense_7 (Dense)              (None, 1)                 3         
_________________________________________________________________
p_re_lu_6 (PReLU)            (None, 1)                 1         
_________________________________________________________________
dense_8 (Dense)              (None, 1)                 2         
_________________________________________________________________
activation_2 (Activation)    (None, 1)                 0         
=================================================================
Total params: 100,990
Trainable params: 100,950
Non-trainable params: 40
_________________________________________________________________
None
Train on 14718 samples, validate on 1280 samples
Epoch 1/50
 - 169s - loss: 0.6933 - acc: 0.4969 - val_loss: 0.6932 - val_acc: 0.4953
Epoch 2/50
 - 167s - loss: 0.6933 - acc: 0.4962 - val_loss: 0.6932 - val_acc: 0.4953
…
4000/4000 [==============================] - 42s 11ms/step
--- Performance Summary ---
Classification Report: 

             precision    recall  f1-score   support

          0    0.49973   0.93250   0.65073      2000
          1    0.49627   0.06650   0.11728      2000

avg / total    0.49800   0.49950   0.38401      4000

R2:  -1.0019999999999998
ROC/AUC Score:  0.47122975
Compilation Time:  0.013001441955566406
_________________________________________________________________
Layer (type)                 Output Shape              Param #   
=================================================================
cu_dnnlstm_8 (CuDNNLSTM)     (None, 4000, 10)          520       
_________________________________________________________________
batch_normalization_8 (Batch (None, 4000, 10)          40        
_________________________________________________________________
dropout_8 (Dropout)          (None, 4000, 10)          0         
_________________________________________________________________
cu_dnnlstm_9 (CuDNNLSTM)     (None, 4000, 10)          880       
_________________________________________________________________
batch_normalization_9 (Batch (None, 4000, 10)          40        
_________________________________________________________________
dropout_9 (Dropout)          (None, 4000, 10)          0         
_________________________________________________________________
cu_dnnlstm_10 (CuDNNLSTM)    (None, 4000, 10)          880       
_________________________________________________________________
batch_normalization_10 (Batc (None, 4000, 10)          40        
_________________________________________________________________
dropout_10 (Dropout)         (None, 4000, 10)          0         
_________________________________________________________________
cu_dnnlstm_11 (CuDNNLSTM)    (None, 4000, 10)          880       
_________________________________________________________________
batch_normalization_11 (Batc (None, 4000, 10)          40        
_________________________________________________________________
dropout_11 (Dropout)         (None, 4000, 10)          0         
_________________________________________________________________
flatten_3 (Flatten)          (None, 40000)             0         
_________________________________________________________________
dense_9 (Dense)              (None, 10)                400010    
_________________________________________________________________
p_re_lu_7 (PReLU)            (None, 10)                10        
_________________________________________________________________
dense_10 (Dense)             (None, 5)                 55        
_________________________________________________________________
p_re_lu_8 (PReLU)            (None, 5)                 5         
_________________________________________________________________
dense_11 (Dense)             (None, 2)                 12        
_________________________________________________________________
p_re_lu_9 (PReLU)            (None, 2)                 2         
_________________________________________________________________
dense_12 (Dense)             (None, 1)                 3         
_________________________________________________________________
activation_3 (Activation)    (None, 1)                 0         
=================================================================
Total params: 403,417
Trainable params: 403,337
Non-trainable params: 80
_________________________________________________________________
None
Train on 14718 samples, validate on 1280 samples
Epoch 1/50
 - 91s - loss: 0.7283 - acc: 0.5059 - val_loss: 0.6936 - val_acc: 0.4820
Epoch 2/50
 - 90s - loss: 0.6898 - acc: 0.5440 - val_loss: 0.6941 - val_acc: 0.4875
…
4000/4000 [==============================] - 43s 11ms/step
--- Performance Summary ---
Classification Report: 

             precision    recall  f1-score   support

          0    0.71608   0.14250   0.23770      2000
          1    0.52388   0.94350   0.67369      2000

avg / total    0.61998   0.54300   0.45569      4000

R2:  -0.8280000000000001
ROC/AUC Score:  0.5909035
Compilation Time:  0.014014720916748047
_________________________________________________________________
Layer (type)                 Output Shape              Param #   
=================================================================
cu_dnnlstm_12 (CuDNNLSTM)    (None, 4000, 10)          520       
_________________________________________________________________
batch_normalization_12 (Batc (None, 4000, 10)          40        
_________________________________________________________________
dropout_12 (Dropout)         (None, 4000, 10)          0         
_________________________________________________________________
cu_dnnlstm_13 (CuDNNLSTM)    (None, 4000, 10)          880       
_________________________________________________________________
batch_normalization_13 (Batc (None, 4000, 10)          40        
_________________________________________________________________
dropout_13 (Dropout)         (None, 4000, 10)          0         
_________________________________________________________________
cu_dnnlstm_14 (CuDNNLSTM)    (None, 4000, 10)          880       
_________________________________________________________________
batch_normalization_14 (Batc (None, 4000, 10)          40        
_________________________________________________________________
dropout_14 (Dropout)         (None, 4000, 10)          0         
_________________________________________________________________
flatten_4 (Flatten)          (None, 40000)             0         
_________________________________________________________________
dense_13 (Dense)             (None, 10)                400010    
_________________________________________________________________
p_re_lu_10 (PReLU)           (None, 10)                10        
_________________________________________________________________
dense_14 (Dense)             (None, 5)                 55        
_________________________________________________________________
p_re_lu_11 (PReLU)           (None, 5)                 5         
_________________________________________________________________
dense_15 (Dense)             (None, 2)                 12        
_________________________________________________________________
p_re_lu_12 (PReLU)           (None, 2)                 2         
_________________________________________________________________
dense_16 (Dense)             (None, 1)                 3         
_________________________________________________________________
activation_4 (Activation)    (None, 1)                 0         
=================================================================
Total params: 402,497
Trainable params: 402,437
Non-trainable params: 60
_________________________________________________________________
None
Train on 14718 samples, validate on 1280 samples
Epoch 1/50
 - 121s - loss: 0.6942 - acc: 0.5196 - val_loss: 0.6952 - val_acc: 0.4727
Epoch 2/50
 - 120s - loss: 0.6872 - acc: 0.5440 - val_loss: 0.7112 - val_acc: 0.5250
…
4000/4000 [==============================] - 42s 11ms/step
--- Performance Summary ---
Classification Report: 

             precision    recall  f1-score   support

          0    0.55088   0.47100   0.50782      2000
          1    0.53799   0.61600   0.57436      2000

avg / total    0.54443   0.54350   0.54109      4000

R2:  -0.8260000000000001
ROC/AUC Score:  0.56547475
Compilation Time:  0.014525413513183594
_________________________________________________________________
Layer (type)                 Output Shape              Param #   
=================================================================
cu_dnnlstm_19 (CuDNNLSTM)    (None, 4000, 15)          1080      
_________________________________________________________________
batch_normalization_19 (Batc (None, 4000, 15)          60        
_________________________________________________________________
dropout_19 (Dropout)         (None, 4000, 15)          0         
_________________________________________________________________
cu_dnnlstm_20 (CuDNNLSTM)    (None, 4000, 15)          1920      
_________________________________________________________________
batch_normalization_20 (Batc (None, 4000, 15)          60        
_________________________________________________________________
dropout_20 (Dropout)         (None, 4000, 15)          0         
_________________________________________________________________
cu_dnnlstm_21 (CuDNNLSTM)    (None, 4000, 15)          1920      
_________________________________________________________________
batch_normalization_21 (Batc (None, 4000, 15)          60        
_________________________________________________________________
dropout_21 (Dropout)         (None, 4000, 15)          0         
_________________________________________________________________
cu_dnnlstm_22 (CuDNNLSTM)    (None, 4000, 15)          1920      
_________________________________________________________________
batch_normalization_22 (Batc (None, 4000, 15)          60        
_________________________________________________________________
dropout_22 (Dropout)         (None, 4000, 15)          0         
_________________________________________________________________
flatten_6 (Flatten)          (None, 60000)             0         
_________________________________________________________________
dense_21 (Dense)             (None, 15)                900015    
_________________________________________________________________
activation_6 (Activation)    (None, 15)                0         
_________________________________________________________________
dense_22 (Dense)             (None, 7)                 112       
_________________________________________________________________
activation_7 (Activation)    (None, 7)                 0         
_________________________________________________________________
dense_23 (Dense)             (None, 3)                 24        
_________________________________________________________________
activation_8 (Activation)    (None, 3)                 0         
_________________________________________________________________
dense_24 (Dense)             (None, 1)                 4         
_________________________________________________________________
activation_9 (Activation)    (None, 1)                 0         
=================================================================
Total params: 907,235
Trainable params: 907,115
Non-trainable params: 120
_________________________________________________________________
None
Train on 14718 samples, validate on 1280 samples
Epoch 1/50
 - 100s - loss: 0.7186 - acc: 0.5081 - val_loss: 0.6992 - val_acc: 0.5000
Epoch 2/50
 - 99s - loss: 0.6941 - acc: 0.5052 - val_loss: 0.6997 - val_acc: 0.5133
…
4000/4000 [==============================] - 47s 12ms/step
--- Performance Summary ---
Classification Report: 

             precision    recall  f1-score   support

          0    0.42308   0.01650   0.03176      2000
          1    0.49847   0.97750   0.66025      2000

avg / total    0.46077   0.49700   0.34601      4000

R2:  -1.012
ROC/AUC Score:  0.490051375
Compilation Time:  0.01452493667602539
_________________________________________________________________
Layer (type)                 Output Shape              Param #   
=================================================================
cu_dnnlstm_23 (CuDNNLSTM)    (None, 4000, 5)           160       
_________________________________________________________________
batch_normalization_23 (Batc (None, 4000, 5)           20        
_________________________________________________________________
dropout_23 (Dropout)         (None, 4000, 5)           0         
_________________________________________________________________
cu_dnnlstm_24 (CuDNNLSTM)    (None, 4000, 5)           240       
_________________________________________________________________
batch_normalization_24 (Batc (None, 4000, 5)           20        
_________________________________________________________________
dropout_24 (Dropout)         (None, 4000, 5)           0         
_________________________________________________________________
flatten_7 (Flatten)          (None, 20000)             0         
_________________________________________________________________
dense_25 (Dense)             (None, 5)                 100005    
_________________________________________________________________
activation_10 (Activation)   (None, 5)                 0         
_________________________________________________________________
dense_26 (Dense)             (None, 2)                 12        
_________________________________________________________________
activation_11 (Activation)   (None, 2)                 0         
_________________________________________________________________
dense_27 (Dense)             (None, 1)                 3         
_________________________________________________________________
activation_12 (Activation)   (None, 1)                 0         
_________________________________________________________________
dense_28 (Dense)             (None, 1)                 2         
_________________________________________________________________
activation_13 (Activation)   (None, 1)                 0         
=================================================================
Total params: 100,462
Trainable params: 100,442
Non-trainable params: 20
_________________________________________________________________
None
Train on 14718 samples, validate on 1280 samples
Epoch 1/50
 - 48s - loss: 0.8943 - acc: 0.4997 - val_loss: 0.8009 - val_acc: 0.4953
Epoch 2/50
 - 45s - loss: 0.6932 - acc: 0.4942 - val_loss: 0.7184 - val_acc: 0.4953
…
4000/4000 [==============================] - 21s 5ms/step
--- Performance Summary ---
Classification Report: 

             precision    recall  f1-score   support

          0    0.78261   0.00900   0.01780      2000
          1    0.50163   0.99750   0.66756      2000

avg / total    0.64212   0.50325   0.34268      4000

R2:  -0.9870000000000001
ROC/AUC Score:  0.5032525
Compilation Time:  0.01452493667602539
_________________________________________________________________
Layer (type)                 Output Shape              Param #   
=================================================================
cu_dnnlstm_25 (CuDNNLSTM)    (None, 4000, 15)          1080      
_________________________________________________________________
batch_normalization_25 (Batc (None, 4000, 15)          60        
_________________________________________________________________
dropout_25 (Dropout)         (None, 4000, 15)          0         
_________________________________________________________________
cu_dnnlstm_26 (CuDNNLSTM)    (None, 4000, 15)          1920      
_________________________________________________________________
batch_normalization_26 (Batc (None, 4000, 15)          60        
_________________________________________________________________
dropout_26 (Dropout)         (None, 4000, 15)          0         
_________________________________________________________________
cu_dnnlstm_27 (CuDNNLSTM)    (None, 4000, 15)          1920      
_________________________________________________________________
batch_normalization_27 (Batc (None, 4000, 15)          60        
_________________________________________________________________
dropout_27 (Dropout)         (None, 4000, 15)          0         
_________________________________________________________________
flatten_8 (Flatten)          (None, 60000)             0         
_________________________________________________________________
dense_29 (Dense)             (None, 15)                900015    
_________________________________________________________________
activation_14 (Activation)   (None, 15)                0         
_________________________________________________________________
dense_30 (Dense)             (None, 7)                 112       
_________________________________________________________________
activation_15 (Activation)   (None, 7)                 0         
_________________________________________________________________
dense_31 (Dense)             (None, 3)                 24        
_________________________________________________________________
activation_16 (Activation)   (None, 3)                 0         
_________________________________________________________________
dense_32 (Dense)             (None, 1)                 4         
_________________________________________________________________
activation_17 (Activation)   (None, 1)                 0         
=================================================================
Total params: 905,255
Trainable params: 905,165
Non-trainable params: 90
_________________________________________________________________
None
Train on 14718 samples, validate on 1280 samples
Epoch 1/50
 - 130s - loss: 0.7186 - acc: 0.4974 - val_loss: 0.6904 - val_acc: 0.5039
Epoch 2/50
 - 127s - loss: 0.6932 - acc: 0.4953 - val_loss: 0.6918 - val_acc: 0.5039
…
4000/4000 [==============================] - 44s 11ms/step
--- Performance Summary ---
Classification Report: 

             precision    recall  f1-score   support

          0    0.50721   0.77350   0.61267      2000
          1    0.52316   0.24850   0.33695      2000

avg / total    0.51519   0.51100   0.47481      4000

R2:  -0.956
ROC/AUC Score:  0.5619177500000001
Compilation Time:  0.02702617645263672
_________________________________________________________________
Layer (type)                 Output Shape              Param #   
=================================================================
cu_dnnlstm_32 (CuDNNLSTM)    (None, 4000, 10)          520       
_________________________________________________________________
batch_normalization_32 (Batc (None, 4000, 10)          40        
_________________________________________________________________
dropout_32 (Dropout)         (None, 4000, 10)          0         
_________________________________________________________________
cu_dnnlstm_33 (CuDNNLSTM)    (None, 4000, 10)          880       
_________________________________________________________________
batch_normalization_33 (Batc (None, 4000, 10)          40        
_________________________________________________________________
dropout_33 (Dropout)         (None, 4000, 10)          0         
_________________________________________________________________
flatten_10 (Flatten)         (None, 40000)             0         
_________________________________________________________________
dense_37 (Dense)             (None, 10)                400010    
_________________________________________________________________
activation_19 (Activation)   (None, 10)                0         
_________________________________________________________________
dense_38 (Dense)             (None, 5)                 55        
_________________________________________________________________
activation_20 (Activation)   (None, 5)                 0         
_________________________________________________________________
dense_39 (Dense)             (None, 2)                 12        
_________________________________________________________________
activation_21 (Activation)   (None, 2)                 0         
_________________________________________________________________
dense_40 (Dense)             (None, 1)                 3         
_________________________________________________________________
activation_22 (Activation)   (None, 1)                 0         
=================================================================
Total params: 401,560
Trainable params: 401,520
Non-trainable params: 40
_________________________________________________________________
None
Train on 14718 samples, validate on 1280 samples
Epoch 1/50
 - 183s - loss: 0.6993 - acc: 0.5332 - val_loss: 0.6903 - val_acc: 0.5508
Epoch 2/50
 - 177s - loss: 0.6847 - acc: 0.5564 - val_loss: 0.6846 - val_acc: 0.5617
…
