…
2018-05-06 13:31:45.237220: I C:\tf_jenkins\workspace\rel-win\M\windows-gpu\PY\35\tensorflow\core\common_runtime\gpu\gpu_device.cc:1195] Creating TensorFlow device (/device:GPU:0) -> (device: 0, name: GeForce GTX 970, pci bus id: 0000:01:00.0, compute capability: 5.2)
Initialising LSTM Model... 

Building CNN... 

Number of LSTM layers:  0
Number of LSTM units:  10
Number of FC layers:  1
Number of FC units:  64
Dropout:  0.1719197530111497
Activation: relu
Batch Normalisation: False


LR Multiplier:  1.0123833550161987
Momentum:  0
Compilation Time:  0.013012409210205078
_________________________________________________________________
Layer (type)                 Output Shape              Param #   
=================================================================
cu_dnnlstm_1 (CuDNNLSTM)     (None, 2001, 10)          520       
_________________________________________________________________
batch_normalization_1 (Batch (None, 2001, 10)          40        
_________________________________________________________________
dropout_1 (Dropout)          (None, 2001, 10)          0         
_________________________________________________________________
activation_1 (Activation)    (None, 2001, 10)          0         
_________________________________________________________________
flatten_1 (Flatten)          (None, 20010)             0         
_________________________________________________________________
dense_1 (Dense)              (None, 64)                1280704   
_________________________________________________________________
dropout_2 (Dropout)          (None, 64)                0         
_________________________________________________________________
activation_2 (Activation)    (None, 64)                0         
_________________________________________________________________
dense_2 (Dense)              (None, 1)                 65        
_________________________________________________________________
activation_3 (Activation)    (None, 1)                 0         
=================================================================
Total params: 1,281,329
Trainable params: 1,281,309
Non-trainable params: 20
_________________________________________________________________
None
Number of Epochs:  35
Batch Size:  32
Epoch 1/35
 - 30s - loss: 0.3605 - acc: 0.8148
Epoch 2/35
 - 29s - loss: 0.2973 - acc: 0.8571
Epoch 3/35
 - 29s - loss: 0.2746 - acc: 0.8772
…
CV Recall Score: 0.89% (+/- 0.04%)
CV F1 Score: 0.88% (+/- 0.03%)
CV Time:  1:29:34.374833
Initialising LSTM Model...

Building CNN...

Number of LSTM layers:  0
Number of LSTM units:  10
Number of FC layers:  2
Number of FC units:  64
Dropout:  0.29796647089233186
Activation: prelu
Batch Normalisation: False


LR Multiplier:  1.64341939565237
Momentum:  0.25
Compilation Time:  0.013013124465942383
_________________________________________________________________
Layer (type)                 Output Shape              Param #
=================================================================
cu_dnnlstm_2 (CuDNNLSTM)     (None, 2001, 10)          520
_________________________________________________________________
batch_normalization_2 (Batch (None, 2001, 10)          40
_________________________________________________________________
dropout_3 (Dropout)          (None, 2001, 10)          0
_________________________________________________________________
p_re_lu_1 (PReLU)            (None, 2001, 10)          20010
_________________________________________________________________
flatten_2 (Flatten)          (None, 20010)             0
_________________________________________________________________
dense_3 (Dense)              (None, 64)                1280704
_________________________________________________________________
dropout_4 (Dropout)          (None, 64)                0
_________________________________________________________________
p_re_lu_2 (PReLU)            (None, 64)                64
_________________________________________________________________
dense_4 (Dense)              (None, 64)                4160
_________________________________________________________________
dropout_5 (Dropout)          (None, 64)                0
_________________________________________________________________
p_re_lu_3 (PReLU)            (None, 64)                64
_________________________________________________________________
dense_5 (Dense)              (None, 1)                 65
_________________________________________________________________
activation_4 (Activation)    (None, 1)                 0
=================================================================
Total params: 1,305,627
Trainable params: 1,305,607
Non-trainable params: 20
_________________________________________________________________
None
Number of Epochs:  43
Batch Size:  16
Epoch 1/43
 - 60s - loss: 0.3540 - acc: 0.8184
Epoch 2/43
 - 60s - loss: 0.2801 - acc: 0.8698
Epoch 3/43
 - 60s - loss: 0.2585 - acc: 0.8795
Epoch 4/43
…
CV Recall Score: 0.93% (+/- 0.05%)
CV F1 Score: 0.92% (+/- 0.04%)
CV Time:  3:29:59.406457
Initialising LSTM Model...

Building CNN...

Number of LSTM layers:  1
Number of LSTM units:  5
Number of FC layers:  1
Number of FC units:  64
Dropout:  0.1767260525291463
Activation: prelu
Batch Normalisation: False


LR Multiplier:  0.9194488265785095
Momentum:  0
Compilation Time:  0.01301264762878418
_________________________________________________________________
Layer (type)                 Output Shape              Param #
=================================================================
cu_dnnlstm_3 (CuDNNLSTM)     (None, 2001, 5)           160
_________________________________________________________________
batch_normalization_3 (Batch (None, 2001, 5)           20
_________________________________________________________________
dropout_6 (Dropout)          (None, 2001, 5)           0
_________________________________________________________________
p_re_lu_4 (PReLU)            (None, 2001, 5)           10005
_________________________________________________________________
cu_dnnlstm_4 (CuDNNLSTM)     (None, 2001, 5)           240
_________________________________________________________________
dropout_7 (Dropout)          (None, 2001, 5)           0
_________________________________________________________________
p_re_lu_5 (PReLU)            (None, 2001, 5)           10005
_________________________________________________________________
flatten_3 (Flatten)          (None, 10005)             0
_________________________________________________________________
dense_6 (Dense)              (None, 64)                640384
_________________________________________________________________
dropout_8 (Dropout)          (None, 64)                0
_________________________________________________________________
p_re_lu_6 (PReLU)            (None, 64)                64
_________________________________________________________________
dense_7 (Dense)              (None, 1)                 65
_________________________________________________________________
activation_5 (Activation)    (None, 1)                 0
=================================================================
Total params: 660,943
Trainable params: 660,933
Non-trainable params: 10
_________________________________________________________________
None
Number of Epochs:  40
Batch Size:  16
Epoch 1/40
 - 110s - loss: 0.5443 - acc: 0.7493
Epoch 2/40
 - 110s - loss: 0.4575 - acc: 0.7725
Epoch 3/40
 - 110s - loss: 0.4118 - acc: 0.7925
Epoch 4/40
…
CV Recall Score: 0.81% (+/- 0.04%)
CV F1 Score: 0.80% (+/- 0.02%)
CV Time:  6:05:44.290274
Initialising LSTM Model...

Building CNN...

Number of LSTM layers:  1
Number of LSTM units:  5
Number of FC layers:  0
Number of FC units:  64
Dropout:  0.2726161875859378
Activation: prelu
Batch Normalisation: False


LR Multiplier:  1.4562580203404663
Momentum:  0.4
Compilation Time:  0.014002323150634766
_________________________________________________________________
Layer (type)                 Output Shape              Param #
=================================================================
cu_dnnlstm_5 (CuDNNLSTM)     (None, 2001, 5)           160
_________________________________________________________________
batch_normalization_4 (Batch (None, 2001, 5)           20
_________________________________________________________________
dropout_9 (Dropout)          (None, 2001, 5)           0
_________________________________________________________________
p_re_lu_7 (PReLU)            (None, 2001, 5)           10005
_________________________________________________________________
cu_dnnlstm_6 (CuDNNLSTM)     (None, 2001, 5)           240
_________________________________________________________________
dropout_10 (Dropout)         (None, 2001, 5)           0
_________________________________________________________________
p_re_lu_8 (PReLU)            (None, 2001, 5)           10005
_________________________________________________________________
flatten_4 (Flatten)          (None, 10005)             0
_________________________________________________________________
dense_8 (Dense)              (None, 1)                 10006
_________________________________________________________________
activation_6 (Activation)    (None, 1)                 0
=================================================================
Total params: 30,436
Trainable params: 30,426
Non-trainable params: 10
_________________________________________________________________
None
Number of Epochs:  31
Batch Size:  32
Epoch 1/31
 - 57s - loss: 0.4381 - acc: 0.7831
Epoch 2/31
 - 57s - loss: 0.3647 - acc: 0.8302
Epoch 3/31
 - 57s - loss: 0.3389 - acc: 0.8416
Epoch 4/31
 - 57s - loss: 0.3272 - acc: 0.8502
…
