…
2018-04-18 00:16:23.493299: I C:\tf_jenkins\workspace\rel-win\M\windows-gpu\PY\35\tensorflow\core\common_runtime\gpu\gpu_device.cc:1195] Creating TensorFlow device (/device:GPU:0) -> (device: 0, name: GeForce GTX 970, pci bus id: 0000:01:00.0, compute capability: 5.2)
['/job:localhost/replica:0/task:0/device:GPU:0']
Initialising CNN Model... 

Building CNN... 

Filters:  8
Kernel Size:  5
Number of blocks:  0
Pooling type: max
Pooling Strides/Length: 3
Conv Dropout:  0.017913768825412096
FC Dropout:  0.16460359289327547
Dense Units:  32
Activation: prelu
Batch Normalisation: True


Compilation Time:  0.014024734497070312
_________________________________________________________________
Layer (type)                 Output Shape              Param #   
=================================================================
conv1d_1 (Conv1D)            (None, 3996, 8)           48        
_________________________________________________________________
batch_normalization_1 (Batch (None, 3996, 8)           32        
_________________________________________________________________
max_pooling1d_1 (MaxPooling1 (None, 1332, 8)           0         
_________________________________________________________________
dropout_1 (Dropout)          (None, 1332, 8)           0         
_________________________________________________________________
p_re_lu_1 (PReLU)            (None, 1332, 8)           10656     
_________________________________________________________________
flatten_1 (Flatten)          (None, 10656)             0         
_________________________________________________________________
dense_1 (Dense)              (None, 32)                341024    
_________________________________________________________________
dropout_2 (Dropout)          (None, 32)                0         
_________________________________________________________________
p_re_lu_2 (PReLU)            (None, 32)                32        
_________________________________________________________________
dense_2 (Dense)              (None, 16)                528       
_________________________________________________________________
p_re_lu_3 (PReLU)            (None, 16)                16        
_________________________________________________________________
dropout_3 (Dropout)          (None, 16)                0         
_________________________________________________________________
dense_3 (Dense)              (None, 8)                 136       
_________________________________________________________________
p_re_lu_4 (PReLU)            (None, 8)                 8         
_________________________________________________________________
dropout_4 (Dropout)          (None, 8)                 0         
_________________________________________________________________
dense_4 (Dense)              (None, 5)                 45        
_________________________________________________________________
p_re_lu_5 (PReLU)            (None, 5)                 5         
_________________________________________________________________
dense_5 (Dense)              (None, 1)                 6         
=================================================================
Total params: 352,536
Trainable params: 352,520
Non-trainable params: 16
_________________________________________________________________
None
Epoch 1/35
 - 5s - loss: 0.6943 - acc: 0.5199
Epoch 2/35
 - 4s - loss: 0.6928 - acc: 0.5216
Epoch 3/35
 - 4s - loss: 0.6923 - acc: 0.5233
Epoch 4/35
 - 4s - loss: 0.6925 - acc: 0.5215
…
ROC/AUC Score:  0.598156423739608


CV Score: 0.58% (+/- 0.01%)
CV Time:  0:10:51.546011
Initialising CNN Model... 

Building CNN... 

Filters:  8
Kernel Size:  9
Number of blocks:  0
Pooling type: average
Pooling Strides/Length: 2
Conv Dropout:  0.30534787827887033
FC Dropout:  0.3592975017438845
Dense Units:  32
Activation: prelu
Batch Normalisation: True


Compilation Time:  0.014013528823852539
_________________________________________________________________
Layer (type)                 Output Shape              Param #   
=================================================================
conv1d_2 (Conv1D)            (None, 3992, 8)           80        
_________________________________________________________________
batch_normalization_2 (Batch (None, 3992, 8)           32        
_________________________________________________________________
average_pooling1d_1 (Average (None, 1996, 8)           0         
_________________________________________________________________
dropout_5 (Dropout)          (None, 1996, 8)           0         
_________________________________________________________________
p_re_lu_6 (PReLU)            (None, 1996, 8)           15968     
_________________________________________________________________
flatten_2 (Flatten)          (None, 15968)             0         
_________________________________________________________________
dense_6 (Dense)              (None, 32)                511008    
_________________________________________________________________
dropout_6 (Dropout)          (None, 32)                0         
_________________________________________________________________
p_re_lu_7 (PReLU)            (None, 32)                32        
_________________________________________________________________
dense_7 (Dense)              (None, 16)                528       
_________________________________________________________________
p_re_lu_8 (PReLU)            (None, 16)                16        
_________________________________________________________________
dropout_7 (Dropout)          (None, 16)                0         
_________________________________________________________________
dense_8 (Dense)              (None, 8)                 136       
_________________________________________________________________
p_re_lu_9 (PReLU)            (None, 8)                 8         
_________________________________________________________________
dropout_8 (Dropout)          (None, 8)                 0         
_________________________________________________________________
dense_9 (Dense)              (None, 5)                 45        
_________________________________________________________________
p_re_lu_10 (PReLU)           (None, 5)                 5         
_________________________________________________________________
dense_10 (Dense)             (None, 1)                 6         
=================================================================
Total params: 527,864
Trainable params: 527,848
Non-trainable params: 16
_________________________________________________________________
None
Epoch 1/35
 - 7s - loss: 0.6971 - acc: 0.5127
Epoch 2/35
 - 6s - loss: 0.6932 - acc: 0.5207
Epoch 3/35
 - 6s - loss: 0.6933 - acc: 0.5196
Epoch 4/35
 - 6s - loss: 0.6922 - acc: 0.5228
…
ROC/AUC Score:  0.5198274724455078


CV Score: 0.52% (+/- 0.01%)
CV Time:  0:19:49.926477
Initialising CNN Model... 

Building CNN... 

Filters:  16
Kernel Size:  7
Number of blocks:  0
Pooling type: max
Pooling Strides/Length: 2
Conv Dropout:  0.06922099734861947
FC Dropout:  0.30762779710132676
Dense Units:  64
Activation: prelu
Batch Normalisation: True


Compilation Time:  0.014513731002807617
_________________________________________________________________
Layer (type)                 Output Shape              Param #   
=================================================================
conv1d_3 (Conv1D)            (None, 3994, 16)          128       
_________________________________________________________________
batch_normalization_3 (Batch (None, 3994, 16)          64        
_________________________________________________________________
max_pooling1d_2 (MaxPooling1 (None, 1997, 16)          0         
_________________________________________________________________
dropout_9 (Dropout)          (None, 1997, 16)          0         
_________________________________________________________________
p_re_lu_11 (PReLU)           (None, 1997, 16)          31952     
_________________________________________________________________
flatten_3 (Flatten)          (None, 31952)             0         
_________________________________________________________________
dense_11 (Dense)             (None, 64)                2044992   
_________________________________________________________________
dropout_10 (Dropout)         (None, 64)                0         
_________________________________________________________________
p_re_lu_12 (PReLU)           (None, 64)                64        
_________________________________________________________________
dense_12 (Dense)             (None, 32)                2080      
_________________________________________________________________
p_re_lu_13 (PReLU)           (None, 32)                32        
_________________________________________________________________
dropout_11 (Dropout)         (None, 32)                0         
_________________________________________________________________
dense_13 (Dense)             (None, 16)                528       
_________________________________________________________________
p_re_lu_14 (PReLU)           (None, 16)                16        
_________________________________________________________________
dropout_12 (Dropout)         (None, 16)                0         
_________________________________________________________________
dense_14 (Dense)             (None, 10)                170       
_________________________________________________________________
p_re_lu_15 (PReLU)           (None, 10)                10        
_________________________________________________________________
dense_15 (Dense)             (None, 1)                 11        
=================================================================
Total params: 2,080,047
Trainable params: 2,080,015
Non-trainable params: 32
_________________________________________________________________
None
Epoch 1/35
 - 6s - loss: 0.6996 - acc: 0.5136
Epoch 2/35
 - 5s - loss: 0.6950 - acc: 0.5153
Epoch 3/35
 - 5s - loss: 0.6940 - acc: 0.5149
Epoch 4/35
 - 5s - loss: 0.6932 - acc: 0.5185
…
ROC/AUC Score:  0.5849504205610158


CV Score: 0.54% (+/- 0.03%)
CV Time:  0:16:16.903226
Initialising CNN Model... 

Building CNN... 

Filters:  64
Kernel Size:  9
Number of blocks:  0
Pooling type: max
Pooling Strides/Length: 3
Conv Dropout:  0.299750491329609
FC Dropout:  0.3476685681456728
Dense Units:  128
Activation: prelu
Batch Normalisation: False


Compilation Time:  0.01451420783996582
_________________________________________________________________
Layer (type)                 Output Shape              Param #   
=================================================================
conv1d_4 (Conv1D)            (None, 3992, 64)          640       
_________________________________________________________________
max_pooling1d_3 (MaxPooling1 (None, 1331, 64)          0         
_________________________________________________________________
dropout_13 (Dropout)         (None, 1331, 64)          0         
_________________________________________________________________
p_re_lu_16 (PReLU)           (None, 1331, 64)          85184     
_________________________________________________________________
flatten_4 (Flatten)          (None, 85184)             0         
_________________________________________________________________
dense_16 (Dense)             (None, 128)               10903680  
_________________________________________________________________
dropout_14 (Dropout)         (None, 128)               0         
_________________________________________________________________
p_re_lu_17 (PReLU)           (None, 128)               128       
_________________________________________________________________
dense_17 (Dense)             (None, 64)                8256      
_________________________________________________________________
p_re_lu_18 (PReLU)           (None, 64)                64        
_________________________________________________________________
dropout_15 (Dropout)         (None, 64)                0         
_________________________________________________________________
dense_18 (Dense)             (None, 32)                2080      
_________________________________________________________________
p_re_lu_19 (PReLU)           (None, 32)                32        
_________________________________________________________________
dropout_16 (Dropout)         (None, 32)                0         
_________________________________________________________________
dense_19 (Dense)             (None, 21)                693       
_________________________________________________________________
p_re_lu_20 (PReLU)           (None, 21)                21        
_________________________________________________________________
dense_20 (Dense)             (None, 1)                 22        
=================================================================
Total params: 11,000,800
Trainable params: 11,000,800
Non-trainable params: 0
_________________________________________________________________
None
Epoch 1/35
 - 10s - loss: 0.6941 - acc: 0.5089
Epoch 2/35
 - 10s - loss: 0.6926 - acc: 0.5244
Epoch 3/35
 - 10s - loss: 0.6926 - acc: 0.5258
Epoch 4/35
 - 10s - loss: 0.6935 - acc: 0.5234
…
ROC/AUC Score:  0.5095883106413986


CV Score: 0.50% (+/- 0.01%)
CV Time:  0:29:01.971745
Initialising CNN Model... 

Building CNN... 

Filters:  64
Kernel Size:  5
Number of blocks:  3
Pooling type: max
Pooling Strides/Length: 4
Conv Dropout:  0.307451579004305
FC Dropout:  0.0032395437175568808
Dense Units:  32
Activation: prelu
Batch Normalisation: True


Compilation Time:  0.016014814376831055
_________________________________________________________________
Layer (type)                 Output Shape              Param #   
=================================================================
conv1d_5 (Conv1D)            (None, 3996, 64)          384       
_________________________________________________________________
batch_normalization_4 (Batch (None, 3996, 64)          256       
_________________________________________________________________
max_pooling1d_4 (MaxPooling1 (None, 999, 64)           0         
_________________________________________________________________
dropout_17 (Dropout)         (None, 999, 64)           0         
_________________________________________________________________
p_re_lu_21 (PReLU)           (None, 999, 64)           63936     
_________________________________________________________________
conv1d_6 (Conv1D)            (None, 995, 64)           20544     
_________________________________________________________________
batch_normalization_5 (Batch (None, 995, 64)           256       
_________________________________________________________________
max_pooling1d_5 (MaxPooling1 (None, 249, 64)           0         
_________________________________________________________________
dropout_18 (Dropout)         (None, 249, 64)           0         
_________________________________________________________________
p_re_lu_22 (PReLU)           (None, 249, 64)           15936     
_________________________________________________________________
conv1d_7 (Conv1D)            (None, 245, 64)           20544     
_________________________________________________________________
batch_normalization_6 (Batch (None, 245, 64)           256       
_________________________________________________________________
max_pooling1d_6 (MaxPooling1 (None, 61, 64)            0         
_________________________________________________________________
dropout_19 (Dropout)         (None, 61, 64)            0         
_________________________________________________________________
p_re_lu_23 (PReLU)           (None, 61, 64)            3904      
_________________________________________________________________
conv1d_8 (Conv1D)            (None, 57, 64)            20544     
_________________________________________________________________
batch_normalization_7 (Batch (None, 57, 64)            256       
_________________________________________________________________
max_pooling1d_7 (MaxPooling1 (None, 14, 64)            0         
_________________________________________________________________
dropout_20 (Dropout)         (None, 14, 64)            0         
_________________________________________________________________
p_re_lu_24 (PReLU)           (None, 14, 64)            896       
_________________________________________________________________
flatten_5 (Flatten)          (None, 896)               0         
_________________________________________________________________
dense_21 (Dense)             (None, 32)                28704     
_________________________________________________________________
dropout_21 (Dropout)         (None, 32)                0         
_________________________________________________________________
p_re_lu_25 (PReLU)           (None, 32)                32        
_________________________________________________________________
dense_22 (Dense)             (None, 16)                528       
_________________________________________________________________
p_re_lu_26 (PReLU)           (None, 16)                16        
_________________________________________________________________
dropout_22 (Dropout)         (None, 16)                0         
_________________________________________________________________
dense_23 (Dense)             (None, 8)                 136       
_________________________________________________________________
p_re_lu_27 (PReLU)           (None, 8)                 8         
_________________________________________________________________
dropout_23 (Dropout)         (None, 8)                 0         
_________________________________________________________________
dense_24 (Dense)             (None, 5)                 45        
_________________________________________________________________
p_re_lu_28 (PReLU)           (None, 5)                 5         
_________________________________________________________________
dense_25 (Dense)             (None, 1)                 6         
=================================================================
Total params: 177,192
Trainable params: 176,680
Non-trainable params: 512
_________________________________________________________________
None
Epoch 1/35
2018-04-18 01:32:27.670990: W C:\tf_jenkins\workspace\rel-win\M\windows-gpu\PY\35\tensorflow\core\common_runtime\bfc_allocator.cc:217] Allocator (GPU_0_bfc) ran out of memory trying to allocate 3.02GiB. The caller indicates that this is not a failure, but may mean that there could be performance gains if more memory is available.
…
ROC/AUC Score:  0.47538886115748946


CV Score: 0.49% (+/- 0.01%)
CV Time:  0:43:58.076255
Initialising CNN Model... 

Building CNN... 

Filters:  8
Kernel Size:  7
Number of blocks:  0
Pooling type: average
Pooling Strides/Length: 4
Conv Dropout:  0.19465700747652182
FC Dropout:  0.14334199609667356
Dense Units:  32
Activation: prelu
Batch Normalisation: True


Compilation Time:  0.014014244079589844
_________________________________________________________________
Layer (type)                 Output Shape              Param #   
=================================================================
conv1d_9 (Conv1D)            (None, 3994, 8)           64        
_________________________________________________________________
batch_normalization_8 (Batch (None, 3994, 8)           32        
_________________________________________________________________
average_pooling1d_2 (Average (None, 998, 8)            0         
_________________________________________________________________
dropout_24 (Dropout)         (None, 998, 8)            0         
_________________________________________________________________
p_re_lu_29 (PReLU)           (None, 998, 8)            7984      
_________________________________________________________________
flatten_6 (Flatten)          (None, 7984)              0         
_________________________________________________________________
dense_26 (Dense)             (None, 32)                255520    
_________________________________________________________________
dropout_25 (Dropout)         (None, 32)                0         
_________________________________________________________________
p_re_lu_30 (PReLU)           (None, 32)                32        
_________________________________________________________________
dense_27 (Dense)             (None, 16)                528       
_________________________________________________________________
p_re_lu_31 (PReLU)           (None, 16)                16        
_________________________________________________________________
dropout_26 (Dropout)         (None, 16)                0         
_________________________________________________________________
dense_28 (Dense)             (None, 8)                 136       
_________________________________________________________________
p_re_lu_32 (PReLU)           (None, 8)                 8         
_________________________________________________________________
dropout_27 (Dropout)         (None, 8)                 0         
_________________________________________________________________
dense_29 (Dense)             (None, 5)                 45        
_________________________________________________________________
p_re_lu_33 (PReLU)           (None, 5)                 5         
_________________________________________________________________
dense_30 (Dense)             (None, 1)                 6         
=================================================================
Total params: 264,376
Trainable params: 264,360
Non-trainable params: 16
_________________________________________________________________
None
Epoch 1/35
 - 4s - loss: 0.6962 - acc: 0.5028
Epoch 2/35
 - 4s - loss: 0.6931 - acc: 0.5228
Epoch 3/35
 - 4s - loss: 0.6932 - acc: 0.5200
Epoch 4/35
 - 4s - loss: 0.6929 - acc: 0.5181
…
ROC/AUC Score:  0.5081180683454682


CV Score: 0.50% (+/- 0.01%)
CV Time:  0:11:09.337948
Initialising CNN Model... 

Building CNN... 

Filters:  16
Kernel Size:  5
Number of blocks:  3
Pooling type: max
Pooling Strides/Length: 4
Conv Dropout:  0.3337019785587925
FC Dropout:  0.2629838015052135
Dense Units:  128
Activation: prelu
Batch Normalisation: False


Compilation Time:  0.0150146484375
_________________________________________________________________
Layer (type)                 Output Shape              Param #   
=================================================================
conv1d_10 (Conv1D)           (None, 3996, 16)          96        
_________________________________________________________________
max_pooling1d_8 (MaxPooling1 (None, 999, 16)           0         
_________________________________________________________________
dropout_28 (Dropout)         (None, 999, 16)           0         
_________________________________________________________________
p_re_lu_34 (PReLU)           (None, 999, 16)           15984     
_________________________________________________________________
conv1d_11 (Conv1D)           (None, 995, 16)           1296      
_________________________________________________________________
max_pooling1d_9 (MaxPooling1 (None, 249, 16)           0         
_________________________________________________________________
dropout_29 (Dropout)         (None, 249, 16)           0         
_________________________________________________________________
p_re_lu_35 (PReLU)           (None, 249, 16)           3984      
_________________________________________________________________
conv1d_12 (Conv1D)           (None, 245, 16)           1296      
_________________________________________________________________
max_pooling1d_10 (MaxPooling (None, 61, 16)            0         
_________________________________________________________________
dropout_30 (Dropout)         (None, 61, 16)            0         
_________________________________________________________________
p_re_lu_36 (PReLU)           (None, 61, 16)            976       
_________________________________________________________________
conv1d_13 (Conv1D)           (None, 57, 16)            1296      
_________________________________________________________________
max_pooling1d_11 (MaxPooling (None, 14, 16)            0         
_________________________________________________________________
dropout_31 (Dropout)         (None, 14, 16)            0         
_________________________________________________________________
p_re_lu_37 (PReLU)           (None, 14, 16)            224       
_________________________________________________________________
flatten_7 (Flatten)          (None, 224)               0         
_________________________________________________________________
dense_31 (Dense)             (None, 128)               28800     
_________________________________________________________________
dropout_32 (Dropout)         (None, 128)               0         
_________________________________________________________________
p_re_lu_38 (PReLU)           (None, 128)               128       
_________________________________________________________________
dense_32 (Dense)             (None, 64)                8256      
_________________________________________________________________
p_re_lu_39 (PReLU)           (None, 64)                64        
_________________________________________________________________
dropout_33 (Dropout)         (None, 64)                0         
_________________________________________________________________
dense_33 (Dense)             (None, 32)                2080      
_________________________________________________________________
p_re_lu_40 (PReLU)           (None, 32)                32        
_________________________________________________________________
dropout_34 (Dropout)         (None, 32)                0         
_________________________________________________________________
dense_34 (Dense)             (None, 21)                693       
_________________________________________________________________
p_re_lu_41 (PReLU)           (None, 21)                21        
_________________________________________________________________
dense_35 (Dense)             (None, 1)                 22        
=================================================================
Total params: 65,248
Trainable params: 65,248
Non-trainable params: 0
_________________________________________________________________
None
Epoch 1/35
 - 5s - loss: 0.6973 - acc: 0.5003
Epoch 2/35
 - 5s - loss: 0.6961 - acc: 0.5224
Epoch 3/35
 - 5s - loss: 0.6953 - acc: 0.5233
Epoch 4/35
 - 5s - loss: 0.6940 - acc: 0.5257
Epoch 5/35
…
ROC/AUC Score:  0.4908287361366909


CV Score: 0.48% (+/- 0.01%)
CV Time:  0:13:45.878577
Initialising CNN Model... 

Building CNN... 

Filters:  64
Kernel Size:  3
Number of blocks:  1
Pooling type: max
Pooling Strides/Length: 3
Conv Dropout:  0.06088089550519185
FC Dropout:  0.002696874160727747
Dense Units:  32
Activation: prelu
Batch Normalisation: True


Compilation Time:  0.013001203536987305
_________________________________________________________________
Layer (type)                 Output Shape              Param #   
=================================================================
conv1d_14 (Conv1D)           (None, 3998, 64)          256       
_________________________________________________________________
batch_normalization_9 (Batch (None, 3998, 64)          256       
_________________________________________________________________
max_pooling1d_12 (MaxPooling (None, 1333, 64)          0         
_________________________________________________________________
dropout_35 (Dropout)         (None, 1333, 64)          0         
_________________________________________________________________
p_re_lu_42 (PReLU)           (None, 1333, 64)          85312     
_________________________________________________________________
conv1d_15 (Conv1D)           (None, 1331, 64)          12352     
_________________________________________________________________
batch_normalization_10 (Batc (None, 1331, 64)          256       
_________________________________________________________________
max_pooling1d_13 (MaxPooling (None, 444, 64)           0         
_________________________________________________________________
dropout_36 (Dropout)         (None, 444, 64)           0         
_________________________________________________________________
p_re_lu_43 (PReLU)           (None, 444, 64)           28416     
_________________________________________________________________
flatten_8 (Flatten)          (None, 28416)             0         
_________________________________________________________________
dense_36 (Dense)             (None, 32)                909344    
_________________________________________________________________
dropout_37 (Dropout)         (None, 32)                0         
_________________________________________________________________
p_re_lu_44 (PReLU)           (None, 32)                32        
_________________________________________________________________
dense_37 (Dense)             (None, 16)                528       
_________________________________________________________________
p_re_lu_45 (PReLU)           (None, 16)                16        
_________________________________________________________________
dropout_38 (Dropout)         (None, 16)                0         
_________________________________________________________________
dense_38 (Dense)             (None, 8)                 136       
_________________________________________________________________
p_re_lu_46 (PReLU)           (None, 8)                 8         
_________________________________________________________________
dropout_39 (Dropout)         (None, 8)                 0         
_________________________________________________________________
dense_39 (Dense)             (None, 5)                 45        
_________________________________________________________________
p_re_lu_47 (PReLU)           (None, 5)                 5         
_________________________________________________________________
dense_40 (Dense)             (None, 1)                 6         
=================================================================
Total params: 1,036,968
Trainable params: 1,036,712
Non-trainable params: 256
_________________________________________________________________
None
Epoch 1/35
 - 15s - loss: 0.6930 - acc: 0.5140
Epoch 2/35
 - 15s - loss: 0.6927 - acc: 0.5233
Epoch 3/35
 - 15s - loss: 0.6925 - acc: 0.5239
Epoch 4/35
 - 15s - loss: 0.6922 - acc: 0.5253
…
ROC/AUC Score:  0.5300539041029084


CV Score: 0.53% (+/- 0.01%)
CV Time:  0:42:33.227449
Initialising CNN Model... 

Building CNN... 

Filters:  32
Kernel Size:  7
Number of blocks:  0
Pooling type: average
Pooling Strides/Length: 3
Conv Dropout:  0.008733422763006581
FC Dropout:  0.14235861403930375
Dense Units:  64
Activation: prelu
Batch Normalisation: False


Compilation Time:  0.014024734497070312
_________________________________________________________________
Layer (type)                 Output Shape              Param #   
=================================================================
conv1d_16 (Conv1D)           (None, 3994, 32)          256       
_________________________________________________________________
average_pooling1d_3 (Average (None, 1331, 32)          0         
_________________________________________________________________
dropout_40 (Dropout)         (None, 1331, 32)          0         
_________________________________________________________________
p_re_lu_48 (PReLU)           (None, 1331, 32)          42592     
_________________________________________________________________
flatten_9 (Flatten)          (None, 42592)             0         
_________________________________________________________________
dense_41 (Dense)             (None, 64)                2725952   
_________________________________________________________________
dropout_41 (Dropout)         (None, 64)                0         
_________________________________________________________________
p_re_lu_49 (PReLU)           (None, 64)                64        
_________________________________________________________________
dense_42 (Dense)             (None, 32)                2080      
_________________________________________________________________
p_re_lu_50 (PReLU)           (None, 32)                32        
_________________________________________________________________
dropout_42 (Dropout)         (None, 32)                0         
_________________________________________________________________
dense_43 (Dense)             (None, 16)                528       
_________________________________________________________________
p_re_lu_51 (PReLU)           (None, 16)                16        
_________________________________________________________________
dropout_43 (Dropout)         (None, 16)                0         
_________________________________________________________________
dense_44 (Dense)             (None, 10)                170       
_________________________________________________________________
p_re_lu_52 (PReLU)           (None, 10)                10        
_________________________________________________________________
dense_45 (Dense)             (None, 1)                 11        
=================================================================
Total params: 2,771,711
Trainable params: 2,771,711
Non-trainable params: 0
_________________________________________________________________
None
Epoch 1/35
 - 9s - loss: 0.6930 - acc: 0.5210
Epoch 2/35
 - 8s - loss: 0.6924 - acc: 0.5217
Epoch 3/35
 - 8s - loss: 0.6921 - acc: 0.5224
Epoch 4/35
 - 8s - loss: 0.6923 - acc: 0.5221
…
ROC/AUC Score:  0.5149159666878955


CV Score: 0.50% (+/- 0.01%)
CV Time:  0:23:15.636636
Initialising CNN Model... 

Building CNN... 

Filters:  8
Kernel Size:  5
Number of blocks:  2
Pooling type: average
Pooling Strides/Length: 2
Conv Dropout:  0.024516014499423238
FC Dropout:  0.4359488241472978
Dense Units:  32
Activation: prelu
Batch Normalisation: True


Compilation Time:  0.013012409210205078
_________________________________________________________________
Layer (type)                 Output Shape              Param #   
=================================================================
conv1d_17 (Conv1D)           (None, 3996, 8)           48        
_________________________________________________________________
batch_normalization_11 (Batc (None, 3996, 8)           32        
_________________________________________________________________
average_pooling1d_4 (Average (None, 1998, 8)           0         
_________________________________________________________________
dropout_44 (Dropout)         (None, 1998, 8)           0         
_________________________________________________________________
p_re_lu_53 (PReLU)           (None, 1998, 8)           15984     
_________________________________________________________________
conv1d_18 (Conv1D)           (None, 1994, 8)           328       
_________________________________________________________________
batch_normalization_12 (Batc (None, 1994, 8)           32        
_________________________________________________________________
average_pooling1d_5 (Average (None, 997, 8)            0         
_________________________________________________________________
dropout_45 (Dropout)         (None, 997, 8)            0         
_________________________________________________________________
p_re_lu_54 (PReLU)           (None, 997, 8)            7976      
_________________________________________________________________
conv1d_19 (Conv1D)           (None, 993, 8)            328       
_________________________________________________________________
batch_normalization_13 (Batc (None, 993, 8)            32        
_________________________________________________________________
average_pooling1d_6 (Average (None, 496, 8)            0         
_________________________________________________________________
dropout_46 (Dropout)         (None, 496, 8)            0         
_________________________________________________________________
p_re_lu_55 (PReLU)           (None, 496, 8)            3968      
_________________________________________________________________
flatten_10 (Flatten)         (None, 3968)              0         
_________________________________________________________________
dense_46 (Dense)             (None, 32)                127008    
_________________________________________________________________
dropout_47 (Dropout)         (None, 32)                0         
_________________________________________________________________
p_re_lu_56 (PReLU)           (None, 32)                32        
_________________________________________________________________
dense_47 (Dense)             (None, 16)                528       
_________________________________________________________________
p_re_lu_57 (PReLU)           (None, 16)                16        
_________________________________________________________________
dropout_48 (Dropout)         (None, 16)                0         
_________________________________________________________________
dense_48 (Dense)             (None, 8)                 136       
_________________________________________________________________
p_re_lu_58 (PReLU)           (None, 8)                 8         
_________________________________________________________________
dropout_49 (Dropout)         (None, 8)                 0         
_________________________________________________________________
dense_49 (Dense)             (None, 5)                 45        
_________________________________________________________________
p_re_lu_59 (PReLU)           (None, 5)                 5         
_________________________________________________________________
dense_50 (Dense)             (None, 1)                 6         
=================================================================
Total params: 156,512
Trainable params: 156,464
Non-trainable params: 48
_________________________________________________________________
None
Epoch 1/35
 - 10s - loss: 0.6978 - acc: 0.5098
Epoch 2/35
 - 9s - loss: 0.6938 - acc: 0.5218
Epoch 3/35
 - 9s - loss: 0.6931 - acc: 0.5171
Epoch 4/35
 - 9s - loss: 0.6930 - acc: 0.5177
…
ROC/AUC Score:  0.5223532411312116


CV Score: 0.51% (+/- 0.01%)
CV Time:  0:25:29.927021
Initialising CNN Model... 

Building CNN... 

Filters:  32
Kernel Size:  5
Number of blocks:  1
Pooling type: max
Pooling Strides/Length: 4
Conv Dropout:  0.2679675650325075
FC Dropout:  0.40660782466174883
Dense Units:  64
Activation: prelu
Batch Normalisation: True


Compilation Time:  0.014014005661010742
_________________________________________________________________
Layer (type)                 Output Shape              Param #   
=================================================================
conv1d_20 (Conv1D)           (None, 3996, 32)          192       
_________________________________________________________________
batch_normalization_14 (Batc (None, 3996, 32)          128       
_________________________________________________________________
max_pooling1d_14 (MaxPooling (None, 999, 32)           0         
_________________________________________________________________
dropout_50 (Dropout)         (None, 999, 32)           0         
_________________________________________________________________
p_re_lu_60 (PReLU)           (None, 999, 32)           31968     
_________________________________________________________________
conv1d_21 (Conv1D)           (None, 995, 32)           5152      
_________________________________________________________________
batch_normalization_15 (Batc (None, 995, 32)           128       
_________________________________________________________________
max_pooling1d_15 (MaxPooling (None, 249, 32)           0         
_________________________________________________________________
dropout_51 (Dropout)         (None, 249, 32)           0         
_________________________________________________________________
p_re_lu_61 (PReLU)           (None, 249, 32)           7968      
_________________________________________________________________
flatten_11 (Flatten)         (None, 7968)              0         
_________________________________________________________________
dense_51 (Dense)             (None, 64)                510016    
_________________________________________________________________
dropout_52 (Dropout)         (None, 64)                0         
_________________________________________________________________
p_re_lu_62 (PReLU)           (None, 64)                64        
_________________________________________________________________
dense_52 (Dense)             (None, 32)                2080      
_________________________________________________________________
p_re_lu_63 (PReLU)           (None, 32)                32        
_________________________________________________________________
dropout_53 (Dropout)         (None, 32)                0         
_________________________________________________________________
dense_53 (Dense)             (None, 16)                528       
_________________________________________________________________
p_re_lu_64 (PReLU)           (None, 16)                16        
_________________________________________________________________
dropout_54 (Dropout)         (None, 16)                0         
_________________________________________________________________
dense_54 (Dense)             (None, 10)                170       
_________________________________________________________________
p_re_lu_65 (PReLU)           (None, 10)                10        
_________________________________________________________________
dense_55 (Dense)             (None, 1)                 11        
=================================================================
Total params: 558,463
Trainable params: 558,335
Non-trainable params: 128
_________________________________________________________________
None
Epoch 1/35
 - 9s - loss: 0.7094 - acc: 0.5093
Epoch 2/35
 - 8s - loss: 0.7001 - acc: 0.5065
Epoch 3/35
 - 8s - loss: 0.6980 - acc: 0.5021
Epoch 4/35
 - 8s - loss: 0.6951 - acc: 0.5137
…
ROC/AUC Score:  0.5117553043473272


CV Score: 0.51% (+/- 0.01%)
CV Time:  0:22:34.499941
Initialising CNN Model... 

Building CNN... 

Filters:  16
Kernel Size:  5
Number of blocks:  0
Pooling type: average
Pooling Strides/Length: 3
Conv Dropout:  0.18802414205910212
FC Dropout:  0.1275549880798317
Dense Units:  64
Activation: prelu
Batch Normalisation: False


Compilation Time:  0.013012170791625977
_________________________________________________________________
Layer (type)                 Output Shape              Param #   
=================================================================
conv1d_22 (Conv1D)           (None, 3996, 16)          96        
_________________________________________________________________
average_pooling1d_7 (Average (None, 1332, 16)          0         
_________________________________________________________________
dropout_55 (Dropout)         (None, 1332, 16)          0         
_________________________________________________________________
p_re_lu_66 (PReLU)           (None, 1332, 16)          21312     
_________________________________________________________________
flatten_12 (Flatten)         (None, 21312)             0         
_________________________________________________________________
dense_56 (Dense)             (None, 64)                1364032   
_________________________________________________________________
dropout_56 (Dropout)         (None, 64)                0         
_________________________________________________________________
p_re_lu_67 (PReLU)           (None, 64)                64        
_________________________________________________________________
dense_57 (Dense)             (None, 32)                2080      
_________________________________________________________________
p_re_lu_68 (PReLU)           (None, 32)                32        
_________________________________________________________________
dropout_57 (Dropout)         (None, 32)                0         
_________________________________________________________________
dense_58 (Dense)             (None, 16)                528       
_________________________________________________________________
p_re_lu_69 (PReLU)           (None, 16)                16        
_________________________________________________________________
dropout_58 (Dropout)         (None, 16)                0         
_________________________________________________________________
dense_59 (Dense)             (None, 10)                170       
_________________________________________________________________
p_re_lu_70 (PReLU)           (None, 10)                10        
_________________________________________________________________
dense_60 (Dense)             (None, 1)                 11        
=================================================================
Total params: 1,388,351
Trainable params: 1,388,351
Non-trainable params: 0
_________________________________________________________________
None
Epoch 1/35
 - 7s - loss: 0.6935 - acc: 0.5222
Epoch 2/35
 - 6s - loss: 0.6927 - acc: 0.5257
Epoch 3/35
 - 6s - loss: 0.6932 - acc: 0.5231
Epoch 4/35
 - 6s - loss: 0.6931 - acc: 0.5231
…
ROC/AUC Score:  0.5442507071506848


CV Score: 0.51% (+/- 0.02%)
CV Time:  0:18:37.443328
Initialising CNN Model... 

Building CNN... 

Filters:  16
Kernel Size:  7
Number of blocks:  3
Pooling type: average
Pooling Strides/Length: 4
Conv Dropout:  0.2962414181586087
FC Dropout:  0.4681741075686852
Dense Units:  32
Activation: prelu
Batch Normalisation: False


Compilation Time:  0.014014005661010742
_________________________________________________________________
Layer (type)                 Output Shape              Param #   
=================================================================
conv1d_23 (Conv1D)           (None, 3994, 16)          128       
_________________________________________________________________
average_pooling1d_8 (Average (None, 998, 16)           0         
_________________________________________________________________
dropout_59 (Dropout)         (None, 998, 16)           0         
_________________________________________________________________
p_re_lu_71 (PReLU)           (None, 998, 16)           15968     
_________________________________________________________________
conv1d_24 (Conv1D)           (None, 992, 16)           1808      
_________________________________________________________________
average_pooling1d_9 (Average (None, 248, 16)           0         
_________________________________________________________________
dropout_60 (Dropout)         (None, 248, 16)           0         
_________________________________________________________________
p_re_lu_72 (PReLU)           (None, 248, 16)           3968      
_________________________________________________________________
conv1d_25 (Conv1D)           (None, 242, 16)           1808      
_________________________________________________________________
average_pooling1d_10 (Averag (None, 60, 16)            0         
_________________________________________________________________
dropout_61 (Dropout)         (None, 60, 16)            0         
_________________________________________________________________
p_re_lu_73 (PReLU)           (None, 60, 16)            960       
_________________________________________________________________
conv1d_26 (Conv1D)           (None, 54, 16)            1808      
_________________________________________________________________
average_pooling1d_11 (Averag (None, 13, 16)            0         
_________________________________________________________________
dropout_62 (Dropout)         (None, 13, 16)            0         
_________________________________________________________________
p_re_lu_74 (PReLU)           (None, 13, 16)            208       
_________________________________________________________________
flatten_13 (Flatten)         (None, 208)               0         
_________________________________________________________________
dense_61 (Dense)             (None, 32)                6688      
_________________________________________________________________
dropout_63 (Dropout)         (None, 32)                0         
_________________________________________________________________
p_re_lu_75 (PReLU)           (None, 32)                32        
_________________________________________________________________
dense_62 (Dense)             (None, 16)                528       
_________________________________________________________________
p_re_lu_76 (PReLU)           (None, 16)                16        
_________________________________________________________________
dropout_64 (Dropout)         (None, 16)                0         
_________________________________________________________________
dense_63 (Dense)             (None, 8)                 136       
_________________________________________________________________
p_re_lu_77 (PReLU)           (None, 8)                 8         
_________________________________________________________________
dropout_65 (Dropout)         (None, 8)                 0         
_________________________________________________________________
dense_64 (Dense)             (None, 5)                 45        
_________________________________________________________________
p_re_lu_78 (PReLU)           (None, 5)                 5         
_________________________________________________________________
dense_65 (Dense)             (None, 1)                 6         
=================================================================
Total params: 34,120
Trainable params: 34,120
Non-trainable params: 0
_________________________________________________________________
None
Epoch 1/35
 - 8s - loss: 0.6929 - acc: 0.5197
Epoch 2/35
 - 7s - loss: 0.6925 - acc: 0.5230
Epoch 3/35
 - 7s - loss: 0.6925 - acc: 0.5213
Epoch 4/35
 - 7s - loss: 0.6922 - acc: 0.5218
…


CV Score: 0.50% (+/- 0.01%)
CV Time:  0:21:33.123469
Initialising CNN Model... 

Building CNN... 

Filters:  16
Kernel Size:  7
Number of blocks:  3
Pooling type: average
Pooling Strides/Length: 3
Conv Dropout:  0.004063439812128022
FC Dropout:  0.48262710562537525
Dense Units:  128
Activation: prelu
Batch Normalisation: False


Compilation Time:  0.014012813568115234
_________________________________________________________________
Layer (type)                 Output Shape              Param #   
=================================================================
conv1d_27 (Conv1D)           (None, 3994, 16)          128       
_________________________________________________________________
average_pooling1d_12 (Averag (None, 1331, 16)          0         
_________________________________________________________________
dropout_66 (Dropout)         (None, 1331, 16)          0         
_________________________________________________________________
p_re_lu_79 (PReLU)           (None, 1331, 16)          21296     
_________________________________________________________________
conv1d_28 (Conv1D)           (None, 1325, 16)          1808      
_________________________________________________________________
average_pooling1d_13 (Averag (None, 441, 16)           0         
_________________________________________________________________
dropout_67 (Dropout)         (None, 441, 16)           0         
_________________________________________________________________
p_re_lu_80 (PReLU)           (None, 441, 16)           7056      
_________________________________________________________________
conv1d_29 (Conv1D)           (None, 435, 16)           1808      
_________________________________________________________________
average_pooling1d_14 (Averag (None, 145, 16)           0         
_________________________________________________________________
dropout_68 (Dropout)         (None, 145, 16)           0         
_________________________________________________________________
p_re_lu_81 (PReLU)           (None, 145, 16)           2320      
_________________________________________________________________
conv1d_30 (Conv1D)           (None, 139, 16)           1808      
_________________________________________________________________
average_pooling1d_15 (Averag (None, 46, 16)            0         
_________________________________________________________________
dropout_69 (Dropout)         (None, 46, 16)            0         
_________________________________________________________________
p_re_lu_82 (PReLU)           (None, 46, 16)            736       
_________________________________________________________________
flatten_14 (Flatten)         (None, 736)               0         
_________________________________________________________________
dense_66 (Dense)             (None, 128)               94336     
_________________________________________________________________
dropout_70 (Dropout)         (None, 128)               0         
_________________________________________________________________
p_re_lu_83 (PReLU)           (None, 128)               128       
_________________________________________________________________
dense_67 (Dense)             (None, 64)                8256      
_________________________________________________________________
p_re_lu_84 (PReLU)           (None, 64)                64        
_________________________________________________________________
dropout_71 (Dropout)         (None, 64)                0         
_________________________________________________________________
dense_68 (Dense)             (None, 32)                2080      
_________________________________________________________________
p_re_lu_85 (PReLU)           (None, 32)                32        
_________________________________________________________________
dropout_72 (Dropout)         (None, 32)                0         
_________________________________________________________________
dense_69 (Dense)             (None, 21)                693       
_________________________________________________________________
p_re_lu_86 (PReLU)           (None, 21)                21        
_________________________________________________________________
dense_70 (Dense)             (None, 1)                 22        
=================================================================
Total params: 142,592
Trainable params: 142,592
Non-trainable params: 0
_________________________________________________________________
None
Epoch 1/35
 - 6s - loss: 0.6940 - acc: 0.5170
Epoch 2/35
 - 5s - loss: 0.6932 - acc: 0.5223
Epoch 3/35
 - 5s - loss: 0.6929 - acc: 0.5228
Epoch 4/35
 - 5s - loss: 0.6927 - acc: 0.5238
…
ROC/AUC Score:  0.5293584077777969


CV Score: 0.52% (+/- 0.01%)
CV Time:  0:14:33.976338
Initialising CNN Model... 

Building CNN... 

Filters:  64
Kernel Size:  3
Number of blocks:  1
Pooling type: max
Pooling Strides/Length: 3
Conv Dropout:  0.27247107816228466
FC Dropout:  0.2311592180812992
Dense Units:  64
Activation: prelu
Batch Normalisation: False


Compilation Time:  0.013023853302001953
_________________________________________________________________
Layer (type)                 Output Shape              Param #   
=================================================================
conv1d_31 (Conv1D)           (None, 3998, 64)          256       
_________________________________________________________________
max_pooling1d_16 (MaxPooling (None, 1333, 64)          0         
_________________________________________________________________
dropout_73 (Dropout)         (None, 1333, 64)          0         
_________________________________________________________________
p_re_lu_87 (PReLU)           (None, 1333, 64)          85312     
_________________________________________________________________
conv1d_32 (Conv1D)           (None, 1331, 64)          12352     
_________________________________________________________________
max_pooling1d_17 (MaxPooling (None, 444, 64)           0         
_________________________________________________________________
dropout_74 (Dropout)         (None, 444, 64)           0         
_________________________________________________________________
p_re_lu_88 (PReLU)           (None, 444, 64)           28416     
_________________________________________________________________
flatten_15 (Flatten)         (None, 28416)             0         
_________________________________________________________________
dense_71 (Dense)             (None, 64)                1818688   
_________________________________________________________________
dropout_75 (Dropout)         (None, 64)                0         
_________________________________________________________________
p_re_lu_89 (PReLU)           (None, 64)                64        
_________________________________________________________________
dense_72 (Dense)             (None, 32)                2080      
_________________________________________________________________
p_re_lu_90 (PReLU)           (None, 32)                32        
_________________________________________________________________
dropout_76 (Dropout)         (None, 32)                0         
_________________________________________________________________
dense_73 (Dense)             (None, 16)                528       
_________________________________________________________________
p_re_lu_91 (PReLU)           (None, 16)                16        
_________________________________________________________________
dropout_77 (Dropout)         (None, 16)                0         
_________________________________________________________________
dense_74 (Dense)             (None, 10)                170       
_________________________________________________________________
p_re_lu_92 (PReLU)           (None, 10)                10        
_________________________________________________________________
dense_75 (Dense)             (None, 1)                 11        
=================================================================
Total params: 1,947,935
Trainable params: 1,947,935
Non-trainable params: 0
_________________________________________________________________
None
Epoch 1/35
 - 10s - loss: 0.6931 - acc: 0.5141
Epoch 2/35
 - 9s - loss: 0.6928 - acc: 0.5239
Epoch 3/35
 - 9s - loss: 0.6925 - acc: 0.5231
Epoch 4/35
 - 9s - loss: 0.6922 - acc: 0.5227
…
ROC/AUC Score:  0.5296827575721064


CV Score: 0.53% (+/- 0.02%)
CV Time:  0:26:58.444372
Initialising CNN Model... 

Building CNN... 

Filters:  64
Kernel Size:  7
Number of blocks:  2
Pooling type: average
Pooling Strides/Length: 2
Conv Dropout:  0.18854989603223216
FC Dropout:  0.20504623471534958
Dense Units:  64
Activation: prelu
Batch Normalisation: True


Compilation Time:  0.014012813568115234
_________________________________________________________________
Layer (type)                 Output Shape              Param #   
=================================================================
conv1d_33 (Conv1D)           (None, 3994, 64)          512       
_________________________________________________________________
batch_normalization_16 (Batc (None, 3994, 64)          256       
_________________________________________________________________
average_pooling1d_16 (Averag (None, 1997, 64)          0         
_________________________________________________________________
dropout_78 (Dropout)         (None, 1997, 64)          0         
_________________________________________________________________
p_re_lu_93 (PReLU)           (None, 1997, 64)          127808    
_________________________________________________________________
conv1d_34 (Conv1D)           (None, 1991, 64)          28736     
_________________________________________________________________
batch_normalization_17 (Batc (None, 1991, 64)          256       
_________________________________________________________________
average_pooling1d_17 (Averag (None, 995, 64)           0         
_________________________________________________________________
dropout_79 (Dropout)         (None, 995, 64)           0         
_________________________________________________________________
p_re_lu_94 (PReLU)           (None, 995, 64)           63680     
_________________________________________________________________
conv1d_35 (Conv1D)           (None, 989, 64)           28736     
_________________________________________________________________
batch_normalization_18 (Batc (None, 989, 64)           256       
_________________________________________________________________
average_pooling1d_18 (Averag (None, 494, 64)           0         
_________________________________________________________________
dropout_80 (Dropout)         (None, 494, 64)           0         
_________________________________________________________________
p_re_lu_95 (PReLU)           (None, 494, 64)           31616     
_________________________________________________________________
flatten_16 (Flatten)         (None, 31616)             0         
_________________________________________________________________
dense_76 (Dense)             (None, 64)                2023488   
_________________________________________________________________
dropout_81 (Dropout)         (None, 64)                0         
_________________________________________________________________
p_re_lu_96 (PReLU)           (None, 64)                64        
_________________________________________________________________
dense_77 (Dense)             (None, 32)                2080      
_________________________________________________________________
p_re_lu_97 (PReLU)           (None, 32)                32        
_________________________________________________________________
dropout_82 (Dropout)         (None, 32)                0         
_________________________________________________________________
dense_78 (Dense)             (None, 16)                528       
_________________________________________________________________
p_re_lu_98 (PReLU)           (None, 16)                16        
_________________________________________________________________
dropout_83 (Dropout)         (None, 16)                0         
_________________________________________________________________
dense_79 (Dense)             (None, 10)                170       
_________________________________________________________________
p_re_lu_99 (PReLU)           (None, 10)                10        
_________________________________________________________________
dense_80 (Dense)             (None, 1)                 11        
=================================================================
Total params: 2,308,255
Trainable params: 2,307,871
Non-trainable params: 384
_________________________________________________________________
None
Epoch 1/35
 - 24s - loss: 0.7030 - acc: 0.4952
Epoch 2/35
 - 22s - loss: 0.6946 - acc: 0.5133
Epoch 3/35
 - 22s - loss: 0.6933 - acc: 0.5209
Epoch 4/35
 - 22s - loss: 0.6947 - acc: 0.5113
…
ROC/AUC Score:  0.5252985667647784


CV Score: 0.50% (+/- 0.01%)
CV Time:  1:05:26.247713
Initialising CNN Model... 

Building CNN... 

Filters:  32
Kernel Size:  5
Number of blocks:  3
Pooling type: average
Pooling Strides/Length: 4
Conv Dropout:  0.04238408362997445
FC Dropout:  0.3951736322905879
Dense Units:  128
Activation: prelu
Batch Normalisation: False


Compilation Time:  0.014012813568115234
_________________________________________________________________
Layer (type)                 Output Shape              Param #   
=================================================================
conv1d_36 (Conv1D)           (None, 3996, 32)          192       
_________________________________________________________________
average_pooling1d_19 (Averag (None, 999, 32)           0         
_________________________________________________________________
dropout_84 (Dropout)         (None, 999, 32)           0         
_________________________________________________________________
p_re_lu_100 (PReLU)          (None, 999, 32)           31968     
_________________________________________________________________
conv1d_37 (Conv1D)           (None, 995, 32)           5152      
_________________________________________________________________
average_pooling1d_20 (Averag (None, 248, 32)           0         
_________________________________________________________________
dropout_85 (Dropout)         (None, 248, 32)           0         
_________________________________________________________________
p_re_lu_101 (PReLU)          (None, 248, 32)           7936      
_________________________________________________________________
conv1d_38 (Conv1D)           (None, 244, 32)           5152      
_________________________________________________________________
average_pooling1d_21 (Averag (None, 61, 32)            0         
_________________________________________________________________
dropout_86 (Dropout)         (None, 61, 32)            0         
_________________________________________________________________
p_re_lu_102 (PReLU)          (None, 61, 32)            1952      
_________________________________________________________________
conv1d_39 (Conv1D)           (None, 57, 32)            5152      
_________________________________________________________________
average_pooling1d_22 (Averag (None, 14, 32)            0         
_________________________________________________________________
dropout_87 (Dropout)         (None, 14, 32)            0         
_________________________________________________________________
p_re_lu_103 (PReLU)          (None, 14, 32)            448       
_________________________________________________________________
flatten_17 (Flatten)         (None, 448)               0         
_________________________________________________________________
dense_81 (Dense)             (None, 128)               57472     
_________________________________________________________________
dropout_88 (Dropout)         (None, 128)               0         
_________________________________________________________________
p_re_lu_104 (PReLU)          (None, 128)               128       
_________________________________________________________________
dense_82 (Dense)             (None, 64)                8256      
_________________________________________________________________
p_re_lu_105 (PReLU)          (None, 64)                64        
_________________________________________________________________
dropout_89 (Dropout)         (None, 64)                0         
_________________________________________________________________
dense_83 (Dense)             (None, 32)                2080      
_________________________________________________________________
p_re_lu_106 (PReLU)          (None, 32)                32        
_________________________________________________________________
dropout_90 (Dropout)         (None, 32)                0         
_________________________________________________________________
dense_84 (Dense)             (None, 21)                693       
_________________________________________________________________
p_re_lu_107 (PReLU)          (None, 21)                21        
_________________________________________________________________
dense_85 (Dense)             (None, 1)                 22        
=================================================================
Total params: 126,720
Trainable params: 126,720
Non-trainable params: 0
_________________________________________________________________
None
Epoch 1/35
 - 7s - loss: 0.6932 - acc: 0.5079
Epoch 2/35
 - 6s - loss: 0.6927 - acc: 0.5238
Epoch 3/35
 - 6s - loss: 0.6926 - acc: 0.5233
Epoch 4/35
 - 6s - loss: 0.6924 - acc: 0.5225
…
ROC/AUC Score:  0.5312017688807799


CV Score: 0.52% (+/- 0.00%)
CV Time:  0:17:01.042325
Initialising CNN Model... 

Building CNN... 

Filters:  8
Kernel Size:  7
Number of blocks:  0
Pooling type: max
Pooling Strides/Length: 2
Conv Dropout:  0.18775261252690473
FC Dropout:  0.0069745345875253046
Dense Units:  32
Activation: prelu
Batch Normalisation: True


Compilation Time:  0.014014244079589844
_________________________________________________________________
Layer (type)                 Output Shape              Param #   
=================================================================
conv1d_40 (Conv1D)           (None, 3994, 8)           64        
_________________________________________________________________
batch_normalization_19 (Batc (None, 3994, 8)           32        
_________________________________________________________________
max_pooling1d_18 (MaxPooling (None, 1997, 8)           0         
_________________________________________________________________
dropout_91 (Dropout)         (None, 1997, 8)           0         
_________________________________________________________________
p_re_lu_108 (PReLU)          (None, 1997, 8)           15976     
_________________________________________________________________
flatten_18 (Flatten)         (None, 15976)             0         
_________________________________________________________________
dense_86 (Dense)             (None, 32)                511264    
_________________________________________________________________
dropout_92 (Dropout)         (None, 32)                0         
_________________________________________________________________
p_re_lu_109 (PReLU)          (None, 32)                32        
_________________________________________________________________
dense_87 (Dense)             (None, 16)                528       
_________________________________________________________________
p_re_lu_110 (PReLU)          (None, 16)                16        
_________________________________________________________________
dropout_93 (Dropout)         (None, 16)                0         
_________________________________________________________________
dense_88 (Dense)             (None, 8)                 136       
_________________________________________________________________
p_re_lu_111 (PReLU)          (None, 8)                 8         
_________________________________________________________________
dropout_94 (Dropout)         (None, 8)                 0         
_________________________________________________________________
dense_89 (Dense)             (None, 5)                 45        
_________________________________________________________________
p_re_lu_112 (PReLU)          (None, 5)                 5         
_________________________________________________________________
dense_90 (Dense)             (None, 1)                 6         
=================================================================
Total params: 528,112
Trainable params: 528,096
Non-trainable params: 16
_________________________________________________________________
None
Epoch 1/35
 - 8s - loss: 0.6938 - acc: 0.4987
Epoch 2/35
 - 7s - loss: 0.6927 - acc: 0.5183
Epoch 3/35
 - 7s - loss: 0.6923 - acc: 0.5221
Epoch 4/35
 - 7s - loss: 0.6922 - acc: 0.5254
…
ROC/AUC Score:  0.5807091301329386


CV Score: 0.57% (+/- 0.01%)
CV Time:  0:20:02.361454
Initialising CNN Model... 

Building CNN... 

Filters:  16
Kernel Size:  7
Number of blocks:  1
Pooling type: average
Pooling Strides/Length: 2
Conv Dropout:  0.025080648250202703
FC Dropout:  0.33966818993576364
Dense Units:  32
Activation: prelu
Batch Normalisation: True


Compilation Time:  0.013000726699829102
_________________________________________________________________
Layer (type)                 Output Shape              Param #   
=================================================================
conv1d_41 (Conv1D)           (None, 3994, 16)          128       
_________________________________________________________________
batch_normalization_20 (Batc (None, 3994, 16)          64        
_________________________________________________________________
average_pooling1d_23 (Averag (None, 1997, 16)          0         
_________________________________________________________________
dropout_95 (Dropout)         (None, 1997, 16)          0         
_________________________________________________________________
p_re_lu_113 (PReLU)          (None, 1997, 16)          31952     
_________________________________________________________________
conv1d_42 (Conv1D)           (None, 1991, 16)          1808      
_________________________________________________________________
batch_normalization_21 (Batc (None, 1991, 16)          64        
_________________________________________________________________
average_pooling1d_24 (Averag (None, 995, 16)           0         
_________________________________________________________________
dropout_96 (Dropout)         (None, 995, 16)           0         
_________________________________________________________________
p_re_lu_114 (PReLU)          (None, 995, 16)           15920     
_________________________________________________________________
flatten_19 (Flatten)         (None, 15920)             0         
_________________________________________________________________
dense_91 (Dense)             (None, 32)                509472    
_________________________________________________________________
dropout_97 (Dropout)         (None, 32)                0         
_________________________________________________________________
p_re_lu_115 (PReLU)          (None, 32)                32        
_________________________________________________________________
dense_92 (Dense)             (None, 16)                528       
_________________________________________________________________
p_re_lu_116 (PReLU)          (None, 16)                16        
_________________________________________________________________
dropout_98 (Dropout)         (None, 16)                0         
_________________________________________________________________
dense_93 (Dense)             (None, 8)                 136       
_________________________________________________________________
p_re_lu_117 (PReLU)          (None, 8)                 8         
_________________________________________________________________
dropout_99 (Dropout)         (None, 8)                 0         
_________________________________________________________________
dense_94 (Dense)             (None, 5)                 45        
_________________________________________________________________
p_re_lu_118 (PReLU)          (None, 5)                 5         
_________________________________________________________________
dense_95 (Dense)             (None, 1)                 6         
=================================================================
Total params: 560,184
Trainable params: 560,120
Non-trainable params: 64
_________________________________________________________________
None
Epoch 1/35
 - 11s - loss: 0.6970 - acc: 0.5073
Epoch 2/35
 - 10s - loss: 0.6929 - acc: 0.5203
Epoch 3/35
 - 10s - loss: 0.6923 - acc: 0.5227
Epoch 4/35
 - 10s - loss: 0.6928 - acc: 0.5182
…
ROC/AUC Score:  0.5576526828694539


CV Score: 0.54% (+/- 0.02%)
CV Time:  0:29:11.822419
Initialising CNN Model... 

Building CNN... 

Filters:  32
Kernel Size:  9
Number of blocks:  1
Pooling type: max
Pooling Strides/Length: 3
Conv Dropout:  0.09835734518028365
FC Dropout:  0.512170213580334
Dense Units:  128
Activation: prelu
Batch Normalisation: True


Compilation Time:  0.014013290405273438
_________________________________________________________________
Layer (type)                 Output Shape              Param #   
=================================================================
conv1d_43 (Conv1D)           (None, 3992, 32)          320       
_________________________________________________________________
batch_normalization_22 (Batc (None, 3992, 32)          128       
_________________________________________________________________
max_pooling1d_19 (MaxPooling (None, 1331, 32)          0         
_________________________________________________________________
dropout_100 (Dropout)        (None, 1331, 32)          0         
_________________________________________________________________
p_re_lu_119 (PReLU)          (None, 1331, 32)          42592     
_________________________________________________________________
conv1d_44 (Conv1D)           (None, 1323, 32)          9248      
_________________________________________________________________
batch_normalization_23 (Batc (None, 1323, 32)          128       
_________________________________________________________________
max_pooling1d_20 (MaxPooling (None, 441, 32)           0         
_________________________________________________________________
dropout_101 (Dropout)        (None, 441, 32)           0         
_________________________________________________________________
p_re_lu_120 (PReLU)          (None, 441, 32)           14112     
_________________________________________________________________
flatten_20 (Flatten)         (None, 14112)             0         
_________________________________________________________________
dense_96 (Dense)             (None, 128)               1806464   
_________________________________________________________________
dropout_102 (Dropout)        (None, 128)               0         
_________________________________________________________________
p_re_lu_121 (PReLU)          (None, 128)               128       
_________________________________________________________________
dense_97 (Dense)             (None, 64)                8256      
_________________________________________________________________
p_re_lu_122 (PReLU)          (None, 64)                64        
_________________________________________________________________
dropout_103 (Dropout)        (None, 64)                0         
_________________________________________________________________
dense_98 (Dense)             (None, 32)                2080      
_________________________________________________________________
p_re_lu_123 (PReLU)          (None, 32)                32        
_________________________________________________________________
dropout_104 (Dropout)        (None, 32)                0         
_________________________________________________________________
dense_99 (Dense)             (None, 21)                693       
_________________________________________________________________
p_re_lu_124 (PReLU)          (None, 21)                21        
_________________________________________________________________
dense_100 (Dense)            (None, 1)                 22        
=================================================================
Total params: 1,884,288
Trainable params: 1,884,160
Non-trainable params: 128
_________________________________________________________________
None
Epoch 1/35
 - 11s - loss: 0.7222 - acc: 0.5090
Epoch 2/35
 - 9s - loss: 0.6951 - acc: 0.5063
Epoch 3/35
 - 9s - loss: 0.6940 - acc: 0.5136
Epoch 4/35
 - 9s - loss: 0.6933 - acc: 0.5170
…
ROC/AUC Score:  0.5224504205610158


CV Score: 0.53% (+/- 0.01%)
CV Time:  0:26:55.850247
Initialising CNN Model... 

Building CNN... 

Filters:  8
Kernel Size:  3
Number of blocks:  0
Pooling type: max
Pooling Strides/Length: 3
Conv Dropout:  0.12170517572078993
FC Dropout:  0.5790067477427943
Dense Units:  64
Activation: prelu
Batch Normalisation: True


Compilation Time:  0.014014005661010742
_________________________________________________________________
Layer (type)                 Output Shape              Param #   
=================================================================
conv1d_45 (Conv1D)           (None, 3998, 8)           32        
_________________________________________________________________
batch_normalization_24 (Batc (None, 3998, 8)           32        
_________________________________________________________________
max_pooling1d_21 (MaxPooling (None, 1333, 8)           0         
_________________________________________________________________
dropout_105 (Dropout)        (None, 1333, 8)           0         
_________________________________________________________________
p_re_lu_125 (PReLU)          (None, 1333, 8)           10664     
_________________________________________________________________
flatten_21 (Flatten)         (None, 10664)             0         
_________________________________________________________________
dense_101 (Dense)            (None, 64)                682560    
_________________________________________________________________
dropout_106 (Dropout)        (None, 64)                0         
_________________________________________________________________
p_re_lu_126 (PReLU)          (None, 64)                64        
_________________________________________________________________
dense_102 (Dense)            (None, 32)                2080      
_________________________________________________________________
p_re_lu_127 (PReLU)          (None, 32)                32        
_________________________________________________________________
dropout_107 (Dropout)        (None, 32)                0         
_________________________________________________________________
dense_103 (Dense)            (None, 16)                528       
_________________________________________________________________
p_re_lu_128 (PReLU)          (None, 16)                16        
_________________________________________________________________
dropout_108 (Dropout)        (None, 16)                0         
_________________________________________________________________
dense_104 (Dense)            (None, 10)                170       
_________________________________________________________________
p_re_lu_129 (PReLU)          (None, 10)                10        
_________________________________________________________________
dense_105 (Dense)            (None, 1)                 11        
=================================================================
Total params: 696,199
Trainable params: 696,183
Non-trainable params: 16
_________________________________________________________________
None
Epoch 1/35
 - 6s - loss: 0.7176 - acc: 0.5008
Epoch 2/35
 - 4s - loss: 0.6941 - acc: 0.5120
Epoch 3/35
 - 4s - loss: 0.6930 - acc: 0.5179
Epoch 4/35
 - 4s - loss: 0.6931 - acc: 0.5206
…
ROC/AUC Score:  0.5276780284122531


CV Score: 0.52% (+/- 0.02%)
CV Time:  0:11:48.779906
Initialising CNN Model... 

Building CNN... 

Filters:  16
Kernel Size:  5
Number of blocks:  0
Pooling type: max
Pooling Strides/Length: 3
Conv Dropout:  0.09497631586509817
FC Dropout:  0.07876388559318538
Dense Units:  64
Activation: prelu
Batch Normalisation: True


Compilation Time:  0.014025211334228516
_________________________________________________________________
Layer (type)                 Output Shape              Param #   
=================================================================
conv1d_46 (Conv1D)           (None, 3996, 16)          96        
_________________________________________________________________
batch_normalization_25 (Batc (None, 3996, 16)          64        
_________________________________________________________________
max_pooling1d_22 (MaxPooling (None, 1332, 16)          0         
_________________________________________________________________
dropout_109 (Dropout)        (None, 1332, 16)          0         
_________________________________________________________________
p_re_lu_130 (PReLU)          (None, 1332, 16)          21312     
_________________________________________________________________
flatten_22 (Flatten)         (None, 21312)             0         
_________________________________________________________________
dense_106 (Dense)            (None, 64)                1364032   
_________________________________________________________________
dropout_110 (Dropout)        (None, 64)                0         
_________________________________________________________________
p_re_lu_131 (PReLU)          (None, 64)                64        
_________________________________________________________________
dense_107 (Dense)            (None, 32)                2080      
_________________________________________________________________
p_re_lu_132 (PReLU)          (None, 32)                32        
_________________________________________________________________
dropout_111 (Dropout)        (None, 32)                0         
_________________________________________________________________
dense_108 (Dense)            (None, 16)                528       
_________________________________________________________________
p_re_lu_133 (PReLU)          (None, 16)                16        
_________________________________________________________________
dropout_112 (Dropout)        (None, 16)                0         
_________________________________________________________________
dense_109 (Dense)            (None, 10)                170       
_________________________________________________________________
p_re_lu_134 (PReLU)          (None, 10)                10        
_________________________________________________________________
dense_110 (Dense)            (None, 1)                 11        
=================================================================
Total params: 1,388,415
Trainable params: 1,388,383
Non-trainable params: 32
_________________________________________________________________
None
Epoch 1/35
 - 7s - loss: 0.6946 - acc: 0.5092
Epoch 2/35
 - 5s - loss: 0.6931 - acc: 0.5218
Epoch 3/35
 - 5s - loss: 0.6931 - acc: 0.5180
Epoch 4/35
 - 5s - loss: 0.6928 - acc: 0.5225
…
ROC/AUC Score:  0.54562914895204


CV Score: 0.52% (+/- 0.01%)
CV Time:  0:15:10.184494
Initialising CNN Model... 

Building CNN... 

Filters:  8
Kernel Size:  5
Number of blocks:  0
Pooling type: max
Pooling Strides/Length: 3
Conv Dropout:  0.1456914537844065
FC Dropout:  0.29438723679734735
Dense Units:  64
Activation: prelu
Batch Normalisation: True


Compilation Time:  0.01401376724243164
_________________________________________________________________
Layer (type)                 Output Shape              Param #   
=================================================================
conv1d_47 (Conv1D)           (None, 3996, 8)           48        
_________________________________________________________________
batch_normalization_26 (Batc (None, 3996, 8)           32        
_________________________________________________________________
max_pooling1d_23 (MaxPooling (None, 1332, 8)           0         
_________________________________________________________________
dropout_113 (Dropout)        (None, 1332, 8)           0         
_________________________________________________________________
p_re_lu_135 (PReLU)          (None, 1332, 8)           10656     
_________________________________________________________________
flatten_23 (Flatten)         (None, 10656)             0         
_________________________________________________________________
dense_111 (Dense)            (None, 64)                682048    
_________________________________________________________________
dropout_114 (Dropout)        (None, 64)                0         
_________________________________________________________________
p_re_lu_136 (PReLU)          (None, 64)                64        
_________________________________________________________________
dense_112 (Dense)            (None, 32)                2080      
_________________________________________________________________
p_re_lu_137 (PReLU)          (None, 32)                32        
_________________________________________________________________
dropout_115 (Dropout)        (None, 32)                0         
_________________________________________________________________
dense_113 (Dense)            (None, 16)                528       
_________________________________________________________________
p_re_lu_138 (PReLU)          (None, 16)                16        
_________________________________________________________________
dropout_116 (Dropout)        (None, 16)                0         
_________________________________________________________________
dense_114 (Dense)            (None, 10)                170       
_________________________________________________________________
p_re_lu_139 (PReLU)          (None, 10)                10        
_________________________________________________________________
dense_115 (Dense)            (None, 1)                 11        
=================================================================
Total params: 695,695
Trainable params: 695,679
Non-trainable params: 16
_________________________________________________________________
None
Epoch 1/35
 - 6s - loss: 0.7037 - acc: 0.5012
Epoch 2/35
 - 4s - loss: 0.6947 - acc: 0.5106
Epoch 3/35
 - 4s - loss: 0.6932 - acc: 0.5181
Epoch 4/35
 - 4s - loss: 0.6931 - acc: 0.5194
…
ROC/AUC Score:  0.510888937179774


CV Score: 0.50% (+/- 0.01%)
CV Time:  0:11:53.703597
Initialising CNN Model... 

Building CNN... 

Filters:  16
Kernel Size:  9
Number of blocks:  2
Pooling type: max
Pooling Strides/Length: 2
Conv Dropout:  0.06861882634350173
FC Dropout:  0.07362118970584677
Dense Units:  32
Activation: prelu
Batch Normalisation: True


Compilation Time:  0.016004085540771484
_________________________________________________________________
Layer (type)                 Output Shape              Param #   
=================================================================
conv1d_48 (Conv1D)           (None, 3992, 16)          160       
_________________________________________________________________
batch_normalization_27 (Batc (None, 3992, 16)          64        
_________________________________________________________________
max_pooling1d_24 (MaxPooling (None, 1996, 16)          0         
_________________________________________________________________
dropout_117 (Dropout)        (None, 1996, 16)          0         
_________________________________________________________________
p_re_lu_140 (PReLU)          (None, 1996, 16)          31936     
_________________________________________________________________
conv1d_49 (Conv1D)           (None, 1988, 16)          2320      
_________________________________________________________________
batch_normalization_28 (Batc (None, 1988, 16)          64        
_________________________________________________________________
max_pooling1d_25 (MaxPooling (None, 994, 16)           0         
_________________________________________________________________
dropout_118 (Dropout)        (None, 994, 16)           0         
_________________________________________________________________
p_re_lu_141 (PReLU)          (None, 994, 16)           15904     
_________________________________________________________________
conv1d_50 (Conv1D)           (None, 986, 16)           2320      
_________________________________________________________________
batch_normalization_29 (Batc (None, 986, 16)           64        
_________________________________________________________________
max_pooling1d_26 (MaxPooling (None, 493, 16)           0         
_________________________________________________________________
dropout_119 (Dropout)        (None, 493, 16)           0         
_________________________________________________________________
p_re_lu_142 (PReLU)          (None, 493, 16)           7888      
_________________________________________________________________
flatten_24 (Flatten)         (None, 7888)              0         
_________________________________________________________________
dense_116 (Dense)            (None, 32)                252448    
_________________________________________________________________
dropout_120 (Dropout)        (None, 32)                0         
_________________________________________________________________
p_re_lu_143 (PReLU)          (None, 32)                32        
_________________________________________________________________
dense_117 (Dense)            (None, 16)                528       
_________________________________________________________________
p_re_lu_144 (PReLU)          (None, 16)                16        
_________________________________________________________________
dropout_121 (Dropout)        (None, 16)                0         
_________________________________________________________________
dense_118 (Dense)            (None, 8)                 136       
_________________________________________________________________
p_re_lu_145 (PReLU)          (None, 8)                 8         
_________________________________________________________________
dropout_122 (Dropout)        (None, 8)                 0         
_________________________________________________________________
dense_119 (Dense)            (None, 5)                 45        
_________________________________________________________________
p_re_lu_146 (PReLU)          (None, 5)                 5         
_________________________________________________________________
dense_120 (Dense)            (None, 1)                 6         
=================================================================
Total params: 313,944
Trainable params: 313,848
Non-trainable params: 96
_________________________________________________________________
None
Epoch 1/35
 - 10s - loss: 0.6981 - acc: 0.5077
Epoch 2/35
 - 8s - loss: 0.6945 - acc: 0.5130
Epoch 3/35
 - 8s - loss: 0.6939 - acc: 0.5225
Epoch 4/35
 - 8s - loss: 0.6930 - acc: 0.5186
…
ROC/AUC Score:  0.5236250007171913


CV Score: 0.52% (+/- 0.01%)
CV Time:  0:24:28.115030
Initialising CNN Model... 

Building CNN... 

Filters:  8
Kernel Size:  7
Number of blocks:  0
Pooling type: max
Pooling Strides/Length: 3
Conv Dropout:  0.1523743220593027
FC Dropout:  0.18955899937062853
Dense Units:  64
Activation: prelu
Batch Normalisation: True


Compilation Time:  0.014000415802001953
_________________________________________________________________
Layer (type)                 Output Shape              Param #   
=================================================================
conv1d_51 (Conv1D)           (None, 3994, 8)           64        
_________________________________________________________________
batch_normalization_30 (Batc (None, 3994, 8)           32        
_________________________________________________________________
max_pooling1d_27 (MaxPooling (None, 1331, 8)           0         
_________________________________________________________________
dropout_123 (Dropout)        (None, 1331, 8)           0         
_________________________________________________________________
p_re_lu_147 (PReLU)          (None, 1331, 8)           10648     
_________________________________________________________________
flatten_25 (Flatten)         (None, 10648)             0         
_________________________________________________________________
dense_121 (Dense)            (None, 64)                681536    
_________________________________________________________________
dropout_124 (Dropout)        (None, 64)                0         
_________________________________________________________________
p_re_lu_148 (PReLU)          (None, 64)                64        
_________________________________________________________________
dense_122 (Dense)            (None, 32)                2080      
_________________________________________________________________
p_re_lu_149 (PReLU)          (None, 32)                32        
_________________________________________________________________
dropout_125 (Dropout)        (None, 32)                0         
_________________________________________________________________
dense_123 (Dense)            (None, 16)                528       
_________________________________________________________________
p_re_lu_150 (PReLU)          (None, 16)                16        
_________________________________________________________________
dropout_126 (Dropout)        (None, 16)                0         
_________________________________________________________________
dense_124 (Dense)            (None, 10)                170       
_________________________________________________________________
p_re_lu_151 (PReLU)          (None, 10)                10        
_________________________________________________________________
dense_125 (Dense)            (None, 1)                 11        
=================================================================
Total params: 695,191
Trainable params: 695,175
Non-trainable params: 16
_________________________________________________________________
None
Epoch 1/35
 - 6s - loss: 0.6957 - acc: 0.5232
Epoch 2/35
 - 4s - loss: 0.6944 - acc: 0.5191
Epoch 3/35
 - 4s - loss: 0.6935 - acc: 0.5205
Epoch 4/35
 - 4s - loss: 0.6930 - acc: 0.5252
…
ROC/AUC Score:  0.5761200018933852


CV Score: 0.56% (+/- 0.01%)
CV Time:  0:12:00.341288
Initialising CNN Model... 

Building CNN... 

Filters:  16
Kernel Size:  3
Number of blocks:  0
Pooling type: max
Pooling Strides/Length: 3
Conv Dropout:  0.223280791475442
FC Dropout:  0.285907721022964
Dense Units:  32
Activation: prelu
Batch Normalisation: True


Compilation Time:  0.014013528823852539
_________________________________________________________________
Layer (type)                 Output Shape              Param #   
=================================================================
conv1d_52 (Conv1D)           (None, 3998, 16)          64        
_________________________________________________________________
batch_normalization_31 (Batc (None, 3998, 16)          64        
_________________________________________________________________
max_pooling1d_28 (MaxPooling (None, 1333, 16)          0         
_________________________________________________________________
dropout_127 (Dropout)        (None, 1333, 16)          0         
_________________________________________________________________
p_re_lu_152 (PReLU)          (None, 1333, 16)          21328     
_________________________________________________________________
flatten_26 (Flatten)         (None, 21328)             0         
_________________________________________________________________
dense_126 (Dense)            (None, 32)                682528    
_________________________________________________________________
dropout_128 (Dropout)        (None, 32)                0         
_________________________________________________________________
p_re_lu_153 (PReLU)          (None, 32)                32        
_________________________________________________________________
dense_127 (Dense)            (None, 16)                528       
_________________________________________________________________
p_re_lu_154 (PReLU)          (None, 16)                16        
_________________________________________________________________
dropout_129 (Dropout)        (None, 16)                0         
_________________________________________________________________
dense_128 (Dense)            (None, 8)                 136       
_________________________________________________________________
p_re_lu_155 (PReLU)          (None, 8)                 8         
_________________________________________________________________
dropout_130 (Dropout)        (None, 8)                 0         
_________________________________________________________________
dense_129 (Dense)            (None, 5)                 45        
_________________________________________________________________
p_re_lu_156 (PReLU)          (None, 5)                 5         
_________________________________________________________________
dense_130 (Dense)            (None, 1)                 6         
=================================================================
Total params: 704,760
Trainable params: 704,728
Non-trainable params: 32
_________________________________________________________________
None
Epoch 1/35
 - 7s - loss: 0.6958 - acc: 0.5170
Epoch 2/35
 - 5s - loss: 0.6939 - acc: 0.5164
Epoch 3/35
 - 5s - loss: 0.6928 - acc: 0.5215
Epoch 4/35
 - 5s - loss: 0.6929 - acc: 0.5216
…
ROC/AUC Score:  0.5169644445209448


CV Score: 0.50% (+/- 0.01%)
CV Time:  0:14:43.336004
Initialising CNN Model... 

Building CNN... 

Filters:  8
Kernel Size:  7
Number of blocks:  2
Pooling type: max
Pooling Strides/Length: 2
Conv Dropout:  0.07841959668050955
FC Dropout:  0.1900351070809795
Dense Units:  64
Activation: prelu
Batch Normalisation: True


Compilation Time:  0.34032607078552246
_________________________________________________________________
Layer (type)                 Output Shape              Param #   
=================================================================
conv1d_53 (Conv1D)           (None, 3994, 8)           64        
_________________________________________________________________
batch_normalization_32 (Batc (None, 3994, 8)           32        
_________________________________________________________________
max_pooling1d_29 (MaxPooling (None, 1997, 8)           0         
_________________________________________________________________
dropout_131 (Dropout)        (None, 1997, 8)           0         
_________________________________________________________________
p_re_lu_157 (PReLU)          (None, 1997, 8)           15976     
_________________________________________________________________
conv1d_54 (Conv1D)           (None, 1991, 8)           456       
_________________________________________________________________
batch_normalization_33 (Batc (None, 1991, 8)           32        
_________________________________________________________________
max_pooling1d_30 (MaxPooling (None, 995, 8)            0         
_________________________________________________________________
dropout_132 (Dropout)        (None, 995, 8)            0         
_________________________________________________________________
p_re_lu_158 (PReLU)          (None, 995, 8)            7960      
_________________________________________________________________
conv1d_55 (Conv1D)           (None, 989, 8)            456       
_________________________________________________________________
batch_normalization_34 (Batc (None, 989, 8)            32        
_________________________________________________________________
max_pooling1d_31 (MaxPooling (None, 494, 8)            0         
_________________________________________________________________
dropout_133 (Dropout)        (None, 494, 8)            0         
_________________________________________________________________
p_re_lu_159 (PReLU)          (None, 494, 8)            3952      
_________________________________________________________________
flatten_27 (Flatten)         (None, 3952)              0         
_________________________________________________________________
dense_131 (Dense)            (None, 64)                252992    
_________________________________________________________________
dropout_134 (Dropout)        (None, 64)                0         
_________________________________________________________________
p_re_lu_160 (PReLU)          (None, 64)                64        
_________________________________________________________________
dense_132 (Dense)            (None, 32)                2080      
_________________________________________________________________
p_re_lu_161 (PReLU)          (None, 32)                32        
_________________________________________________________________
dropout_135 (Dropout)        (None, 32)                0         
_________________________________________________________________
dense_133 (Dense)            (None, 16)                528       
_________________________________________________________________
p_re_lu_162 (PReLU)          (None, 16)                16        
_________________________________________________________________
dropout_136 (Dropout)        (None, 16)                0         
_________________________________________________________________
dense_134 (Dense)            (None, 10)                170       
_________________________________________________________________
p_re_lu_163 (PReLU)          (None, 10)                10        
_________________________________________________________________
dense_135 (Dense)            (None, 1)                 11        
=================================================================
Total params: 284,863
Trainable params: 284,815
Non-trainable params: 48
_________________________________________________________________
None
Epoch 1/35
 - 8s - loss: 0.6972 - acc: 0.5102
Epoch 2/35
 - 6s - loss: 0.6950 - acc: 0.5085
Epoch 3/35
 - 6s - loss: 0.6934 - acc: 0.5197
Epoch 4/35
 - 6s - loss: 0.6937 - acc: 0.5182
…
ROC/AUC Score:  0.533077044999455


CV Score: 0.52% (+/- 0.01%)
CV Time:  0:17:12.798310
Initialising CNN Model... 

Building CNN... 

Filters:  16
Kernel Size:  5
Number of blocks:  0
Pooling type: max
Pooling Strides/Length: 2
Conv Dropout:  0.04291212973132383
FC Dropout:  0.25154776359409975
Dense Units:  64
Activation: prelu
Batch Normalisation: True


Compilation Time:  0.015014171600341797
_________________________________________________________________
Layer (type)                 Output Shape              Param #   
=================================================================
conv1d_56 (Conv1D)           (None, 3996, 16)          96        
_________________________________________________________________
batch_normalization_35 (Batc (None, 3996, 16)          64        
_________________________________________________________________
max_pooling1d_32 (MaxPooling (None, 1998, 16)          0         
_________________________________________________________________
dropout_137 (Dropout)        (None, 1998, 16)          0         
_________________________________________________________________
p_re_lu_164 (PReLU)          (None, 1998, 16)          31968     
_________________________________________________________________
flatten_28 (Flatten)         (None, 31968)             0         
_________________________________________________________________
dense_136 (Dense)            (None, 64)                2046016   
_________________________________________________________________
dropout_138 (Dropout)        (None, 64)                0         
_________________________________________________________________
p_re_lu_165 (PReLU)          (None, 64)                64        
_________________________________________________________________
dense_137 (Dense)            (None, 32)                2080      
_________________________________________________________________
p_re_lu_166 (PReLU)          (None, 32)                32        
_________________________________________________________________
dropout_139 (Dropout)        (None, 32)                0         
_________________________________________________________________
dense_138 (Dense)            (None, 16)                528       
_________________________________________________________________
p_re_lu_167 (PReLU)          (None, 16)                16        
_________________________________________________________________
dropout_140 (Dropout)        (None, 16)                0         
_________________________________________________________________
dense_139 (Dense)            (None, 10)                170       
_________________________________________________________________
p_re_lu_168 (PReLU)          (None, 10)                10        
_________________________________________________________________
dense_140 (Dense)            (None, 1)                 11        
=================================================================
Total params: 2,081,055
Trainable params: 2,081,023
Non-trainable params: 32
_________________________________________________________________
None
Epoch 1/35
 - 8s - loss: 0.7006 - acc: 0.4894
Epoch 2/35
 - 6s - loss: 0.6932 - acc: 0.5105
Epoch 3/35
 - 6s - loss: 0.6927 - acc: 0.5204
Epoch 4/35
 - 6s - loss: 0.6925 - acc: 0.5199
…
ROC/AUC Score:  0.5677372899346496


CV Score: 0.51% (+/- 0.04%)
CV Time:  0:12:06.759058
Initialising CNN Model... 

Building CNN... 

Filters:  8
Kernel Size:  5
Number of blocks:  0
Pooling type: max
Pooling Strides/Length: 2
Conv Dropout:  0.0002427573381637363
FC Dropout:  0.23253236163516314
Dense Units:  32
Activation: prelu
Batch Normalisation: True


Compilation Time:  0.016004562377929688
_________________________________________________________________
Layer (type)                 Output Shape              Param #   
=================================================================
conv1d_58 (Conv1D)           (None, 3996, 8)           48        
_________________________________________________________________
batch_normalization_37 (Batc (None, 3996, 8)           32        
_________________________________________________________________
max_pooling1d_34 (MaxPooling (None, 1998, 8)           0         
_________________________________________________________________
dropout_145 (Dropout)        (None, 1998, 8)           0         
_________________________________________________________________
p_re_lu_174 (PReLU)          (None, 1998, 8)           15984     
_________________________________________________________________
flatten_30 (Flatten)         (None, 15984)             0         
_________________________________________________________________
dense_146 (Dense)            (None, 32)                511520    
_________________________________________________________________
dropout_146 (Dropout)        (None, 32)                0         
_________________________________________________________________
p_re_lu_175 (PReLU)          (None, 32)                32        
_________________________________________________________________
dense_147 (Dense)            (None, 16)                528       
_________________________________________________________________
p_re_lu_176 (PReLU)          (None, 16)                16        
_________________________________________________________________
dropout_147 (Dropout)        (None, 16)                0         
_________________________________________________________________
dense_148 (Dense)            (None, 8)                 136       
_________________________________________________________________
p_re_lu_177 (PReLU)          (None, 8)                 8         
_________________________________________________________________
dropout_148 (Dropout)        (None, 8)                 0         
_________________________________________________________________
dense_149 (Dense)            (None, 5)                 45        
_________________________________________________________________
p_re_lu_178 (PReLU)          (None, 5)                 5         
_________________________________________________________________
dense_150 (Dense)            (None, 1)                 6         
=================================================================
Total params: 528,360
Trainable params: 528,344
Non-trainable params: 16
_________________________________________________________________
None
Epoch 1/35
 - 7s - loss: 0.6939 - acc: 0.5145
Epoch 2/35
 - 4s - loss: 0.6924 - acc: 0.5182
Epoch 3/35
 - 4s - loss: 0.6927 - acc: 0.5216
Epoch 4/35
 - 4s - loss: 0.6930 - acc: 0.5195
…
ROC/AUC Score:  0.5868068704063892


CV Score: 0.57% (+/- 0.01%)
CV Time:  0:27:48.266522
Initialising CNN Model... 

Building CNN... 

Filters:  8
Kernel Size:  9
Number of blocks:  0
Pooling type: max
Pooling Strides/Length: 3
Conv Dropout:  0.0033164309462162143
FC Dropout:  0.0936292266590993
Dense Units:  32
Activation: prelu
Batch Normalisation: True


Compilation Time:  0.017016172409057617
_________________________________________________________________
Layer (type)                 Output Shape              Param #   
=================================================================
conv1d_60 (Conv1D)           (None, 3992, 8)           80        
_________________________________________________________________
batch_normalization_39 (Batc (None, 3992, 8)           32        
_________________________________________________________________
max_pooling1d_36 (MaxPooling (None, 1331, 8)           0         
_________________________________________________________________
dropout_153 (Dropout)        (None, 1331, 8)           0         
_________________________________________________________________
p_re_lu_184 (PReLU)          (None, 1331, 8)           10648     
_________________________________________________________________
flatten_32 (Flatten)         (None, 10648)             0         
_________________________________________________________________
dense_156 (Dense)            (None, 32)                340768    
_________________________________________________________________
dropout_154 (Dropout)        (None, 32)                0         
_________________________________________________________________
p_re_lu_185 (PReLU)          (None, 32)                32        
_________________________________________________________________
dense_157 (Dense)            (None, 16)                528       
_________________________________________________________________
p_re_lu_186 (PReLU)          (None, 16)                16        
_________________________________________________________________
dropout_155 (Dropout)        (None, 16)                0         
_________________________________________________________________
dense_158 (Dense)            (None, 8)                 136       
_________________________________________________________________
p_re_lu_187 (PReLU)          (None, 8)                 8         
_________________________________________________________________
dropout_156 (Dropout)        (None, 8)                 0         
_________________________________________________________________
dense_159 (Dense)            (None, 5)                 45        
_________________________________________________________________
p_re_lu_188 (PReLU)          (None, 5)                 5         
_________________________________________________________________
dense_160 (Dense)            (None, 1)                 6         
=================================================================
Total params: 352,304
Trainable params: 352,288
Non-trainable params: 16
_________________________________________________________________
None
Epoch 1/35
 - 8s - loss: 0.6942 - acc: 0.5205
Epoch 2/35
 - 4s - loss: 0.6930 - acc: 0.5194
Epoch 3/35
 - 4s - loss: 0.6926 - acc: 0.5228
Epoch 4/35
 - 4s - loss: 0.6924 - acc: 0.5234
…
ROC/AUC Score:  0.609334030443339


CV Score: 0.59% (+/- 0.01%)
CV Time:  0:14:16.433879
Initialising CNN Model... 

Building CNN... 

Filters:  8
Kernel Size:  9
Number of blocks:  2
Pooling type: max
Pooling Strides/Length: 3
Conv Dropout:  0.22954630095637849
FC Dropout:  0.08387491484764562
Dense Units:  32
Activation: prelu
Batch Normalisation: True


Compilation Time:  0.015527009963989258
_________________________________________________________________
Layer (type)                 Output Shape              Param #   
=================================================================
conv1d_62 (Conv1D)           (None, 3992, 8)           80        
_________________________________________________________________
batch_normalization_41 (Batc (None, 3992, 8)           32        
_________________________________________________________________
max_pooling1d_38 (MaxPooling (None, 1331, 8)           0         
_________________________________________________________________
dropout_161 (Dropout)        (None, 1331, 8)           0         
_________________________________________________________________
p_re_lu_194 (PReLU)          (None, 1331, 8)           10648     
_________________________________________________________________
conv1d_63 (Conv1D)           (None, 1323, 8)           584       
_________________________________________________________________
batch_normalization_42 (Batc (None, 1323, 8)           32        
_________________________________________________________________
max_pooling1d_39 (MaxPooling (None, 441, 8)            0         
_________________________________________________________________
dropout_162 (Dropout)        (None, 441, 8)            0         
_________________________________________________________________
p_re_lu_195 (PReLU)          (None, 441, 8)            3528      
_________________________________________________________________
conv1d_64 (Conv1D)           (None, 433, 8)            584       
_________________________________________________________________
batch_normalization_43 (Batc (None, 433, 8)            32        
_________________________________________________________________
max_pooling1d_40 (MaxPooling (None, 144, 8)            0         
_________________________________________________________________
dropout_163 (Dropout)        (None, 144, 8)            0         
_________________________________________________________________
p_re_lu_196 (PReLU)          (None, 144, 8)            1152      
_________________________________________________________________
flatten_34 (Flatten)         (None, 1152)              0         
_________________________________________________________________
dense_166 (Dense)            (None, 32)                36896     
_________________________________________________________________
dropout_164 (Dropout)        (None, 32)                0         
_________________________________________________________________
p_re_lu_197 (PReLU)          (None, 32)                32        
_________________________________________________________________
dense_167 (Dense)            (None, 16)                528       
_________________________________________________________________
p_re_lu_198 (PReLU)          (None, 16)                16        
_________________________________________________________________
dropout_165 (Dropout)        (None, 16)                0         
_________________________________________________________________
dense_168 (Dense)            (None, 8)                 136       
_________________________________________________________________
p_re_lu_199 (PReLU)          (None, 8)                 8         
_________________________________________________________________
dropout_166 (Dropout)        (None, 8)                 0         
_________________________________________________________________
dense_169 (Dense)            (None, 5)                 45        
_________________________________________________________________
p_re_lu_200 (PReLU)          (None, 5)                 5         
_________________________________________________________________
dense_170 (Dense)            (None, 1)                 6         
=================================================================
Total params: 54,344
Trainable params: 54,296
Non-trainable params: 48
_________________________________________________________________
None
Epoch 1/35
 - 9s - loss: 0.7106 - acc: 0.5087
Epoch 2/35
 - 6s - loss: 0.6974 - acc: 0.5145
Epoch 3/35
 - 6s - loss: 0.6966 - acc: 0.5083
Epoch 4/35
 - 6s - loss: 0.6945 - acc: 0.5213
…
ROC/AUC Score:  0.589316860882088


CV Score: 0.56% (+/- 0.03%)
CV Time:  0:12:54.934730
Initialising CNN Model... 

Building CNN... 

Filters:  8
Kernel Size:  9
Number of blocks:  3
Pooling type: max
Pooling Strides/Length: 3
Conv Dropout:  0.052899080170453014
FC Dropout:  0.03645717566253197
Dense Units:  32
Activation: prelu
Batch Normalisation: True


Compilation Time:  0.015014410018920898
_________________________________________________________________
Layer (type)                 Output Shape              Param #   
=================================================================
conv1d_67 (Conv1D)           (None, 3992, 8)           80        
_________________________________________________________________
batch_normalization_46 (Batc (None, 3992, 8)           32        
_________________________________________________________________
max_pooling1d_43 (MaxPooling (None, 1331, 8)           0         
_________________________________________________________________
dropout_175 (Dropout)        (None, 1331, 8)           0         
_________________________________________________________________
p_re_lu_211 (PReLU)          (None, 1331, 8)           10648     
_________________________________________________________________
conv1d_68 (Conv1D)           (None, 1323, 8)           584       
_________________________________________________________________
batch_normalization_47 (Batc (None, 1323, 8)           32        
_________________________________________________________________
max_pooling1d_44 (MaxPooling (None, 441, 8)            0         
_________________________________________________________________
dropout_176 (Dropout)        (None, 441, 8)            0         
_________________________________________________________________
p_re_lu_212 (PReLU)          (None, 441, 8)            3528      
_________________________________________________________________
conv1d_69 (Conv1D)           (None, 433, 8)            584       
_________________________________________________________________
batch_normalization_48 (Batc (None, 433, 8)            32        
_________________________________________________________________
max_pooling1d_45 (MaxPooling (None, 144, 8)            0         
_________________________________________________________________
dropout_177 (Dropout)        (None, 144, 8)            0         
_________________________________________________________________
p_re_lu_213 (PReLU)          (None, 144, 8)            1152      
_________________________________________________________________
conv1d_70 (Conv1D)           (None, 136, 8)            584       
_________________________________________________________________
batch_normalization_49 (Batc (None, 136, 8)            32        
_________________________________________________________________
max_pooling1d_46 (MaxPooling (None, 45, 8)             0         
_________________________________________________________________
dropout_178 (Dropout)        (None, 45, 8)             0         
_________________________________________________________________
p_re_lu_214 (PReLU)          (None, 45, 8)             360       
_________________________________________________________________
flatten_37 (Flatten)         (None, 360)               0         
_________________________________________________________________
dense_181 (Dense)            (None, 32)                11552     
_________________________________________________________________
dropout_179 (Dropout)        (None, 32)                0         
_________________________________________________________________
p_re_lu_215 (PReLU)          (None, 32)                32        
_________________________________________________________________
dense_182 (Dense)            (None, 16)                528       
_________________________________________________________________
p_re_lu_216 (PReLU)          (None, 16)                16        
_________________________________________________________________
dropout_180 (Dropout)        (None, 16)                0         
_________________________________________________________________
dense_183 (Dense)            (None, 8)                 136       
_________________________________________________________________
p_re_lu_217 (PReLU)          (None, 8)                 8         
_________________________________________________________________
dropout_181 (Dropout)        (None, 8)                 0         
_________________________________________________________________
dense_184 (Dense)            (None, 5)                 45        
_________________________________________________________________
p_re_lu_218 (PReLU)          (None, 5)                 5         
_________________________________________________________________
dense_185 (Dense)            (None, 1)                 6         
=================================================================
Total params: 29,976
Trainable params: 29,912
Non-trainable params: 64
_________________________________________________________________
None
Epoch 1/35
 - 10s - loss: 0.6936 - acc: 0.5076
Epoch 2/35
 - 6s - loss: 0.6930 - acc: 0.5164
Epoch 3/35
 - 6s - loss: 0.6926 - acc: 0.5212
Epoch 4/35
 - 6s - loss: 0.6924 - acc: 0.5204
…
ROC/AUC Score:  0.5010022749310061


CV Score: 0.49% (+/- 0.01%)
CV Time:  0:17:57.408959
Initialising CNN Model... 

Building CNN... 

Filters:  64
Kernel Size:  9
Number of blocks:  0
Pooling type: max
Pooling Strides/Length: 4
Conv Dropout:  0.02417868197701606
FC Dropout:  0.11489376630359709
Dense Units:  128
Activation: prelu
Batch Normalisation: False


Compilation Time:  0.015014410018920898
_________________________________________________________________
Layer (type)                 Output Shape              Param #   
=================================================================
conv1d_71 (Conv1D)           (None, 3992, 64)          640       
_________________________________________________________________
max_pooling1d_47 (MaxPooling (None, 998, 64)           0         
_________________________________________________________________
dropout_182 (Dropout)        (None, 998, 64)           0         
_________________________________________________________________
p_re_lu_219 (PReLU)          (None, 998, 64)           63872     
_________________________________________________________________
flatten_38 (Flatten)         (None, 63872)             0         
_________________________________________________________________
dense_186 (Dense)            (None, 128)               8175744   
_________________________________________________________________
dropout_183 (Dropout)        (None, 128)               0         
_________________________________________________________________
p_re_lu_220 (PReLU)          (None, 128)               128       
_________________________________________________________________
dense_187 (Dense)            (None, 64)                8256      
_________________________________________________________________
p_re_lu_221 (PReLU)          (None, 64)                64        
_________________________________________________________________
dropout_184 (Dropout)        (None, 64)                0         
_________________________________________________________________
dense_188 (Dense)            (None, 32)                2080      
_________________________________________________________________
p_re_lu_222 (PReLU)          (None, 32)                32        
_________________________________________________________________
dropout_185 (Dropout)        (None, 32)                0         
_________________________________________________________________
dense_189 (Dense)            (None, 21)                693       
_________________________________________________________________
p_re_lu_223 (PReLU)          (None, 21)                21        
_________________________________________________________________
dense_190 (Dense)            (None, 1)                 22        
=================================================================
Total params: 8,251,552
Trainable params: 8,251,552
Non-trainable params: 0
_________________________________________________________________
None
Epoch 1/35
 - 17s - loss: 0.6928 - acc: 0.5193
Epoch 2/35
 - 14s - loss: 0.6922 - acc: 0.5236
Epoch 3/35
 - 14s - loss: 0.6921 - acc: 0.5230
Epoch 4/35
 - 14s - loss: 0.6920 - acc: 0.5235
…
ROC/AUC Score:  0.526931790798148


CV Score: 0.53% (+/- 0.01%)
CV Time:  0:41:22.033486
Initialising CNN Model... 

Building CNN... 

Filters:  32
Kernel Size:  9
Number of blocks:  0
Pooling type: max
Pooling Strides/Length: 3
Conv Dropout:  0.3412964397187447
FC Dropout:  0.33644725056148217
Dense Units:  32
Activation: prelu
Batch Normalisation: True


Compilation Time:  0.01601576805114746
_________________________________________________________________
Layer (type)                 Output Shape              Param #   
=================================================================
conv1d_72 (Conv1D)           (None, 3992, 32)          320       
_________________________________________________________________
batch_normalization_50 (Batc (None, 3992, 32)          128       
_________________________________________________________________
max_pooling1d_48 (MaxPooling (None, 1331, 32)          0         
_________________________________________________________________
dropout_186 (Dropout)        (None, 1331, 32)          0         
_________________________________________________________________
p_re_lu_224 (PReLU)          (None, 1331, 32)          42592     
_________________________________________________________________
flatten_39 (Flatten)         (None, 42592)             0         
_________________________________________________________________
dense_191 (Dense)            (None, 32)                1362976   
_________________________________________________________________
dropout_187 (Dropout)        (None, 32)                0         
_________________________________________________________________
p_re_lu_225 (PReLU)          (None, 32)                32        
_________________________________________________________________
dense_192 (Dense)            (None, 16)                528       
_________________________________________________________________
p_re_lu_226 (PReLU)          (None, 16)                16        
_________________________________________________________________
dropout_188 (Dropout)        (None, 16)                0         
_________________________________________________________________
dense_193 (Dense)            (None, 8)                 136       
_________________________________________________________________
p_re_lu_227 (PReLU)          (None, 8)                 8         
_________________________________________________________________
dropout_189 (Dropout)        (None, 8)                 0         
_________________________________________________________________
dense_194 (Dense)            (None, 5)                 45        
_________________________________________________________________
p_re_lu_228 (PReLU)          (None, 5)                 5         
_________________________________________________________________
dense_195 (Dense)            (None, 1)                 6         
=================================================================
Total params: 1,406,792
Trainable params: 1,406,728
Non-trainable params: 64
_________________________________________________________________
None
Epoch 1/35
 - 12s - loss: 0.6953 - acc: 0.5108
Epoch 2/35
 - 7s - loss: 0.6941 - acc: 0.5189
Epoch 3/35
 - 8s - loss: 0.6933 - acc: 0.5166
Epoch 4/35
 - 8s - loss: 0.6930 - acc: 0.5206
…
ROC/AUC Score:  0.5422018707219535


CV Score: 0.53% (+/- 0.02%)
CV Time:  0:22:34.006963
Initialising CNN Model... 

Building CNN... 

Filters:  8
Kernel Size:  9
Number of blocks:  1
Pooling type: max
Pooling Strides/Length: 3
Conv Dropout:  0.1149903276845291
FC Dropout:  0.030230119608818884
Dense Units:  32
Activation: prelu
Batch Normalisation: True


Compilation Time:  0.01951909065246582
_________________________________________________________________
Layer (type)                 Output Shape              Param #   
=================================================================
conv1d_73 (Conv1D)           (None, 3992, 8)           80        
_________________________________________________________________
batch_normalization_51 (Batc (None, 3992, 8)           32        
_________________________________________________________________
max_pooling1d_49 (MaxPooling (None, 1331, 8)           0         
_________________________________________________________________
dropout_190 (Dropout)        (None, 1331, 8)           0         
_________________________________________________________________
p_re_lu_229 (PReLU)          (None, 1331, 8)           10648     
_________________________________________________________________
conv1d_74 (Conv1D)           (None, 1323, 8)           584       
_________________________________________________________________
batch_normalization_52 (Batc (None, 1323, 8)           32        
_________________________________________________________________
max_pooling1d_50 (MaxPooling (None, 441, 8)            0         
_________________________________________________________________
dropout_191 (Dropout)        (None, 441, 8)            0         
_________________________________________________________________
p_re_lu_230 (PReLU)          (None, 441, 8)            3528      
_________________________________________________________________
flatten_40 (Flatten)         (None, 3528)              0         
_________________________________________________________________
dense_196 (Dense)            (None, 32)                112928    
_________________________________________________________________
dropout_192 (Dropout)        (None, 32)                0         
_________________________________________________________________
p_re_lu_231 (PReLU)          (None, 32)                32        
_________________________________________________________________
dense_197 (Dense)            (None, 16)                528       
_________________________________________________________________
p_re_lu_232 (PReLU)          (None, 16)                16        
_________________________________________________________________
dropout_193 (Dropout)        (None, 16)                0         
_________________________________________________________________
dense_198 (Dense)            (None, 8)                 136       
_________________________________________________________________
p_re_lu_233 (PReLU)          (None, 8)                 8         
_________________________________________________________________
dropout_194 (Dropout)        (None, 8)                 0         
_________________________________________________________________
dense_199 (Dense)            (None, 5)                 45        
_________________________________________________________________
p_re_lu_234 (PReLU)          (None, 5)                 5         
_________________________________________________________________
dense_200 (Dense)            (None, 1)                 6         
=================================================================
Total params: 128,608
Trainable params: 128,576
Non-trainable params: 32
_________________________________________________________________
None
Epoch 1/35
 - 10s - loss: 0.6934 - acc: 0.5087
Epoch 2/35
 - 5s - loss: 0.6924 - acc: 0.5216
Epoch 3/35
 - 5s - loss: 0.6921 - acc: 0.5247
Epoch 4/35
 - 6s - loss: 0.6920 - acc: 0.5251
…
ROC/AUC Score:  0.584441573288351


CV Score: 0.56% (+/- 0.02%)
CV Time:  0:15:45.688544
Initialising CNN Model... 

Building CNN... 

Filters:  8
Kernel Size:  9
Number of blocks:  2
Pooling type: max
Pooling Strides/Length: 4
Conv Dropout:  0.16634433415416536
FC Dropout:  0.0005826880782379557
Dense Units:  32
Activation: prelu
Batch Normalisation: False


Compilation Time:  0.01701664924621582
_________________________________________________________________
Layer (type)                 Output Shape              Param #   
=================================================================
conv1d_75 (Conv1D)           (None, 3992, 8)           80        
_________________________________________________________________
max_pooling1d_51 (MaxPooling (None, 998, 8)            0         
_________________________________________________________________
dropout_195 (Dropout)        (None, 998, 8)            0         
_________________________________________________________________
p_re_lu_235 (PReLU)          (None, 998, 8)            7984      
_________________________________________________________________
conv1d_76 (Conv1D)           (None, 990, 8)            584       
_________________________________________________________________
max_pooling1d_52 (MaxPooling (None, 248, 8)            0         
_________________________________________________________________
dropout_196 (Dropout)        (None, 248, 8)            0         
_________________________________________________________________
p_re_lu_236 (PReLU)          (None, 248, 8)            1984      
_________________________________________________________________
conv1d_77 (Conv1D)           (None, 240, 8)            584       
_________________________________________________________________
max_pooling1d_53 (MaxPooling (None, 60, 8)             0         
_________________________________________________________________
dropout_197 (Dropout)        (None, 60, 8)             0         
_________________________________________________________________
p_re_lu_237 (PReLU)          (None, 60, 8)             480       
_________________________________________________________________
flatten_41 (Flatten)         (None, 480)               0         
_________________________________________________________________
dense_201 (Dense)            (None, 32)                15392     
_________________________________________________________________
dropout_198 (Dropout)        (None, 32)                0         
_________________________________________________________________
p_re_lu_238 (PReLU)          (None, 32)                32        
_________________________________________________________________
dense_202 (Dense)            (None, 16)                528       
_________________________________________________________________
p_re_lu_239 (PReLU)          (None, 16)                16        
_________________________________________________________________
dropout_199 (Dropout)        (None, 16)                0         
_________________________________________________________________
dense_203 (Dense)            (None, 8)                 136       
_________________________________________________________________
p_re_lu_240 (PReLU)          (None, 8)                 8         
_________________________________________________________________
dropout_200 (Dropout)        (None, 8)                 0         
_________________________________________________________________
dense_204 (Dense)            (None, 5)                 45        
_________________________________________________________________
p_re_lu_241 (PReLU)          (None, 5)                 5         
_________________________________________________________________
dense_205 (Dense)            (None, 1)                 6         
=================================================================
Total params: 27,864
Trainable params: 27,864
Non-trainable params: 0
_________________________________________________________________
None
Epoch 1/35
 - 8s - loss: 0.6932 - acc: 0.5007
Epoch 2/35
 - 4s - loss: 0.6927 - acc: 0.5256
Epoch 3/35
 - 4s - loss: 0.6925 - acc: 0.5234
Epoch 4/35
 - 5s - loss: 0.6923 - acc: 0.5242
…
ROC/AUC Score:  0.5335633007441578


CV Score: 0.53% (+/- 0.01%)
CV Time:  0:12:24.242287
Initialising CNN Model... 

Building CNN... 

Filters:  64
Kernel Size:  9
Number of blocks:  3
Pooling type: max
Pooling Strides/Length: 3
Conv Dropout:  0.2101741348071855
FC Dropout:  0.1678467135281016
Dense Units:  128
Activation: prelu
Batch Normalisation: True


Compilation Time:  0.014013528823852539
_________________________________________________________________
Layer (type)                 Output Shape              Param #   
=================================================================
conv1d_78 (Conv1D)           (None, 3992, 64)          640       
_________________________________________________________________
batch_normalization_53 (Batc (None, 3992, 64)          256       
_________________________________________________________________
max_pooling1d_54 (MaxPooling (None, 1331, 64)          0         
_________________________________________________________________
dropout_201 (Dropout)        (None, 1331, 64)          0         
_________________________________________________________________
p_re_lu_242 (PReLU)          (None, 1331, 64)          85184     
_________________________________________________________________
conv1d_79 (Conv1D)           (None, 1323, 64)          36928     
_________________________________________________________________
batch_normalization_54 (Batc (None, 1323, 64)          256       
_________________________________________________________________
max_pooling1d_55 (MaxPooling (None, 441, 64)           0         
_________________________________________________________________
dropout_202 (Dropout)        (None, 441, 64)           0         
_________________________________________________________________
p_re_lu_243 (PReLU)          (None, 441, 64)           28224     
_________________________________________________________________
conv1d_80 (Conv1D)           (None, 433, 64)           36928     
_________________________________________________________________
batch_normalization_55 (Batc (None, 433, 64)           256       
_________________________________________________________________
max_pooling1d_56 (MaxPooling (None, 144, 64)           0         
_________________________________________________________________
dropout_203 (Dropout)        (None, 144, 64)           0         
_________________________________________________________________
p_re_lu_244 (PReLU)          (None, 144, 64)           9216      
_________________________________________________________________
conv1d_81 (Conv1D)           (None, 136, 64)           36928     
_________________________________________________________________
batch_normalization_56 (Batc (None, 136, 64)           256       
_________________________________________________________________
max_pooling1d_57 (MaxPooling (None, 45, 64)            0         
_________________________________________________________________
dropout_204 (Dropout)        (None, 45, 64)            0         
_________________________________________________________________
p_re_lu_245 (PReLU)          (None, 45, 64)            2880      
_________________________________________________________________
flatten_42 (Flatten)         (None, 2880)              0         
_________________________________________________________________
dense_206 (Dense)            (None, 128)               368768    
_________________________________________________________________
dropout_205 (Dropout)        (None, 128)               0         
_________________________________________________________________
p_re_lu_246 (PReLU)          (None, 128)               128       
_________________________________________________________________
dense_207 (Dense)            (None, 64)                8256      
_________________________________________________________________
p_re_lu_247 (PReLU)          (None, 64)                64        
_________________________________________________________________
dropout_206 (Dropout)        (None, 64)                0         
_________________________________________________________________
dense_208 (Dense)            (None, 32)                2080      
_________________________________________________________________
p_re_lu_248 (PReLU)          (None, 32)                32        
_________________________________________________________________
dropout_207 (Dropout)        (None, 32)                0         
_________________________________________________________________
dense_209 (Dense)            (None, 21)                693       
_________________________________________________________________
p_re_lu_249 (PReLU)          (None, 21)                21        
_________________________________________________________________
dense_210 (Dense)            (None, 1)                 22        
=================================================================
Total params: 618,016
Trainable params: 617,504
Non-trainable params: 512
_________________________________________________________________
None
Epoch 1/35
2018-04-18 14:35:05.452510: W C:\tf_jenkins\workspace\rel-win\M\windows-gpu\PY\35\tensorflow\core\common_runtime\bfc_allocator.cc:217] Allocator (GPU_0_bfc) ran out of memory trying to allocate 2.52GiB. The caller indicates that this is not a failure, but may mean that there could be performance gains if more memory is available.
…
ROC/AUC Score:  0.5195995848896386


CV Score: 0.51% (+/- 0.02%)
CV Time:  1:09:55.831879
Initialising CNN Model... 

Building CNN... 

Filters:  32
Kernel Size:  9
Number of blocks:  0
Pooling type: average
Pooling Strides/Length: 4
Conv Dropout:  0.007028583362790723
FC Dropout:  0.10073110595657479
Dense Units:  32
Activation: prelu
Batch Normalisation: True


Compilation Time:  0.016895294189453125
_________________________________________________________________
Layer (type)                 Output Shape              Param #   
=================================================================
conv1d_82 (Conv1D)           (None, 3992, 32)          320       
_________________________________________________________________
batch_normalization_57 (Batc (None, 3992, 32)          128       
_________________________________________________________________
average_pooling1d_25 (Averag (None, 998, 32)           0         
_________________________________________________________________
dropout_208 (Dropout)        (None, 998, 32)           0         
_________________________________________________________________
p_re_lu_250 (PReLU)          (None, 998, 32)           31936     
_________________________________________________________________
flatten_43 (Flatten)         (None, 31936)             0         
_________________________________________________________________
dense_211 (Dense)            (None, 32)                1021984   
_________________________________________________________________
dropout_209 (Dropout)        (None, 32)                0         
_________________________________________________________________
p_re_lu_251 (PReLU)          (None, 32)                32        
_________________________________________________________________
dense_212 (Dense)            (None, 16)                528       
_________________________________________________________________
p_re_lu_252 (PReLU)          (None, 16)                16        
_________________________________________________________________
dropout_210 (Dropout)        (None, 16)                0         
_________________________________________________________________
dense_213 (Dense)            (None, 8)                 136       
_________________________________________________________________
p_re_lu_253 (PReLU)          (None, 8)                 8         
_________________________________________________________________
dropout_211 (Dropout)        (None, 8)                 0         
_________________________________________________________________
dense_214 (Dense)            (None, 5)                 45        
_________________________________________________________________
p_re_lu_254 (PReLU)          (None, 5)                 5         
_________________________________________________________________
dense_215 (Dense)            (None, 1)                 6         
=================================================================
Total params: 1,055,144
Trainable params: 1,055,080
Non-trainable params: 64
_________________________________________________________________
None
Epoch 1/35
 - 11s - loss: 0.6937 - acc: 0.5173
Epoch 2/35
 - 7s - loss: 0.6935 - acc: 0.5185
Epoch 3/35
 - 7s - loss: 0.6928 - acc: 0.5248
Epoch 4/35
 - 7s - loss: 0.6934 - acc: 0.5215
…
ROC/AUC Score:  0.5611452255136524


CV Score: 0.52% (+/- 0.03%)
CV Time:  0:21:09.630225
Initialising CNN Model... 

Building CNN... 

Filters:  8
Kernel Size:  3
Number of blocks:  0
Pooling type: max
Pooling Strides/Length: 4
Conv Dropout:  0.08019751093358798
FC Dropout:  0.15279845132961922
Dense Units:  32
Activation: prelu
Batch Normalisation: False


Compilation Time:  0.014514446258544922
_________________________________________________________________
Layer (type)                 Output Shape              Param #   
=================================================================
conv1d_83 (Conv1D)           (None, 3998, 8)           32        
_________________________________________________________________
max_pooling1d_58 (MaxPooling (None, 1000, 8)           0         
_________________________________________________________________
dropout_212 (Dropout)        (None, 1000, 8)           0         
_________________________________________________________________
p_re_lu_255 (PReLU)          (None, 1000, 8)           8000      
_________________________________________________________________
flatten_44 (Flatten)         (None, 8000)              0         
_________________________________________________________________
dense_216 (Dense)            (None, 32)                256032    
…
_________________________________________________________________
average_pooling1d_80 (Averag (None, 59, 32)            0         
_________________________________________________________________
dropout_435 (Dropout)        (None, 59, 32)            0         
_________________________________________________________________
p_re_lu_520 (PReLU)          (None, 59, 32)            1888      
_________________________________________________________________
flatten_86 (Flatten)         (None, 1888)              0         
_________________________________________________________________
dense_426 (Dense)            (None, 128)               241792    
_________________________________________________________________
dropout_436 (Dropout)        (None, 128)               0         
_________________________________________________________________
p_re_lu_521 (PReLU)          (None, 128)               128       
_________________________________________________________________
dense_427 (Dense)            (None, 64)                8256      
_________________________________________________________________
p_re_lu_522 (PReLU)          (None, 64)                64        
_________________________________________________________________
dropout_437 (Dropout)        (None, 64)                0         
_________________________________________________________________
dense_428 (Dense)            (None, 32)                2080      
_________________________________________________________________
p_re_lu_523 (PReLU)          (None, 32)                32        
_________________________________________________________________
dropout_438 (Dropout)        (None, 32)                0         
_________________________________________________________________
dense_429 (Dense)            (None, 21)                693       
_________________________________________________________________
p_re_lu_524 (PReLU)          (None, 21)                21        
_________________________________________________________________
dense_430 (Dense)            (None, 1)                 22        
=================================================================
Total params: 313,632
Trainable params: 313,632
Non-trainable params: 0
_________________________________________________________________
None
Epoch 1/35
 - 15s - loss: 0.6933 - acc: 0.5212
Epoch 2/35
 - 7s - loss: 0.6926 - acc: 0.5216
Epoch 3/35
 - 7s - loss: 0.6925 - acc: 0.5220
Epoch 4/35
 - 7s - loss: 0.6921 - acc: 0.5224
…
ROC/AUC Score:  0.5158332544422832


CV Score: 0.50% (+/- 0.01%)
CV Time:  0:20:34.100153
Initialising CNN Model... 

Building CNN... 

Filters:  8
Kernel Size:  9
Number of blocks:  1
Pooling type: max
Pooling Strides/Length: 2
Conv Dropout:  0.09680745923179206
FC Dropout:  0.20174950321527363
Dense Units:  32
Activation: prelu
Batch Normalisation: True


Compilation Time:  0.016015052795410156
_________________________________________________________________
Layer (type)                 Output Shape              Param #   
=================================================================
conv1d_181 (Conv1D)          (None, 3992, 8)           80        
_________________________________________________________________
batch_normalization_132 (Bat (None, 3992, 8)           32        
_________________________________________________________________
max_pooling1d_101 (MaxPoolin (None, 1996, 8)           0         
_________________________________________________________________
dropout_439 (Dropout)        (None, 1996, 8)           0         
_________________________________________________________________
p_re_lu_525 (PReLU)          (None, 1996, 8)           15968     
_________________________________________________________________
conv1d_182 (Conv1D)          (None, 1988, 8)           584       
_________________________________________________________________
batch_normalization_133 (Bat (None, 1988, 8)           32        
_________________________________________________________________
max_pooling1d_102 (MaxPoolin (None, 994, 8)            0         
_________________________________________________________________
dropout_440 (Dropout)        (None, 994, 8)            0         
_________________________________________________________________
p_re_lu_526 (PReLU)          (None, 994, 8)            7952      
_________________________________________________________________
flatten_87 (Flatten)         (None, 7952)              0         
_________________________________________________________________
dense_431 (Dense)            (None, 32)                254496    
_________________________________________________________________
dropout_441 (Dropout)        (None, 32)                0         
_________________________________________________________________
p_re_lu_527 (PReLU)          (None, 32)                32        
_________________________________________________________________
dense_432 (Dense)            (None, 16)                528       
_________________________________________________________________
p_re_lu_528 (PReLU)          (None, 16)                16        
_________________________________________________________________
dropout_442 (Dropout)        (None, 16)                0         
_________________________________________________________________
dense_433 (Dense)            (None, 8)                 136       
_________________________________________________________________
p_re_lu_529 (PReLU)          (None, 8)                 8         
_________________________________________________________________
dropout_443 (Dropout)        (None, 8)                 0         
_________________________________________________________________
dense_434 (Dense)            (None, 5)                 45        
_________________________________________________________________
p_re_lu_530 (PReLU)          (None, 5)                 5         
_________________________________________________________________
dense_435 (Dense)            (None, 1)                 6         
=================================================================
Total params: 279,920
Trainable params: 279,888
Non-trainable params: 32
_________________________________________________________________
None
Epoch 1/35
 - 14s - loss: 0.6940 - acc: 0.5157
Epoch 2/35
 - 6s - loss: 0.6931 - acc: 0.5218
Epoch 3/35
 - 7s - loss: 0.6933 - acc: 0.5214
Epoch 4/35
 - 7s - loss: 0.6926 - acc: 0.5216
…
ROC/AUC Score:  0.5281139014636441


CV Score: 0.51% (+/- 0.01%)
CV Time:  0:21:18.402736
Initialising CNN Model... 

Building CNN... 

Filters:  8
Kernel Size:  9
Number of blocks:  1
Pooling type: average
Pooling Strides/Length: 4
Conv Dropout:  0.03823757554072918
FC Dropout:  0.2519665386651154
Dense Units:  64
Activation: prelu
Batch Normalisation: True


Compilation Time:  0.01601576805114746
_________________________________________________________________
Layer (type)                 Output Shape              Param #   
=================================================================
conv1d_183 (Conv1D)          (None, 3992, 8)           80        
_________________________________________________________________
batch_normalization_134 (Bat (None, 3992, 8)           32        
_________________________________________________________________
average_pooling1d_81 (Averag (None, 998, 8)            0         
_________________________________________________________________
dropout_444 (Dropout)        (None, 998, 8)            0         
_________________________________________________________________
p_re_lu_531 (PReLU)          (None, 998, 8)            7984      
_________________________________________________________________
conv1d_184 (Conv1D)          (None, 990, 8)            584       
_________________________________________________________________
batch_normalization_135 (Bat (None, 990, 8)            32        
_________________________________________________________________
average_pooling1d_82 (Averag (None, 247, 8)            0         
_________________________________________________________________
dropout_445 (Dropout)        (None, 247, 8)            0         
_________________________________________________________________
p_re_lu_532 (PReLU)          (None, 247, 8)            1976      
_________________________________________________________________
flatten_88 (Flatten)         (None, 1976)              0         
_________________________________________________________________
dense_436 (Dense)            (None, 64)                126528    
_________________________________________________________________
dropout_446 (Dropout)        (None, 64)                0         
_________________________________________________________________
p_re_lu_533 (PReLU)          (None, 64)                64        
_________________________________________________________________
dense_437 (Dense)            (None, 32)                2080      
_________________________________________________________________
p_re_lu_534 (PReLU)          (None, 32)                32        
_________________________________________________________________
dropout_447 (Dropout)        (None, 32)                0         
_________________________________________________________________
dense_438 (Dense)            (None, 16)                528       
_________________________________________________________________
p_re_lu_535 (PReLU)          (None, 16)                16        
_________________________________________________________________
dropout_448 (Dropout)        (None, 16)                0         
_________________________________________________________________
dense_439 (Dense)            (None, 10)                170       
_________________________________________________________________
p_re_lu_536 (PReLU)          (None, 10)                10        
_________________________________________________________________
dense_440 (Dense)            (None, 1)                 11        
=================================================================
Total params: 140,127
Trainable params: 140,095
Non-trainable params: 32
_________________________________________________________________
None
Epoch 1/35
 - 19s - loss: 0.7049 - acc: 0.5112
Epoch 2/35
 - 5s - loss: 0.6956 - acc: 0.5096
Epoch 3/35
 - 5s - loss: 0.6955 - acc: 0.5110
Epoch 4/35
 - 5s - loss: 0.6944 - acc: 0.5170
…
ROC/AUC Score:  0.5154303721936302


CV Score: 0.53% (+/- 0.01%)
CV Time:  0:17:10.527792
Initialising CNN Model... 

Building CNN... 

Filters:  8
Kernel Size:  7
Number of blocks:  2
Pooling type: max
Pooling Strides/Length: 4
Conv Dropout:  0.02046152371804425
FC Dropout:  0.006125353037486327
Dense Units:  128
Activation: prelu
Batch Normalisation: True


Compilation Time:  0.020019054412841797
_________________________________________________________________
Layer (type)                 Output Shape              Param #   
=================================================================
conv1d_185 (Conv1D)          (None, 3994, 8)           64        
_________________________________________________________________
batch_normalization_136 (Bat (None, 3994, 8)           32        
_________________________________________________________________
max_pooling1d_103 (MaxPoolin (None, 999, 8)            0         
_________________________________________________________________
dropout_449 (Dropout)        (None, 999, 8)            0         
_________________________________________________________________
p_re_lu_537 (PReLU)          (None, 999, 8)            7992      
_________________________________________________________________
conv1d_186 (Conv1D)          (None, 993, 8)            456       
_________________________________________________________________
batch_normalization_137 (Bat (None, 993, 8)            32        
_________________________________________________________________
max_pooling1d_104 (MaxPoolin (None, 248, 8)            0         
_________________________________________________________________
dropout_450 (Dropout)        (None, 248, 8)            0         
_________________________________________________________________
p_re_lu_538 (PReLU)          (None, 248, 8)            1984      
_________________________________________________________________
conv1d_187 (Conv1D)          (None, 242, 8)            456       
_________________________________________________________________
batch_normalization_138 (Bat (None, 242, 8)            32        
_________________________________________________________________
max_pooling1d_105 (MaxPoolin (None, 61, 8)             0         
_________________________________________________________________
dropout_451 (Dropout)        (None, 61, 8)             0         
_________________________________________________________________
p_re_lu_539 (PReLU)          (None, 61, 8)             488       
_________________________________________________________________
flatten_89 (Flatten)         (None, 488)               0         
_________________________________________________________________
dense_441 (Dense)            (None, 128)               62592     
_________________________________________________________________
dropout_452 (Dropout)        (None, 128)               0         
_________________________________________________________________
p_re_lu_540 (PReLU)          (None, 128)               128       
_________________________________________________________________
dense_442 (Dense)            (None, 64)                8256      
_________________________________________________________________
p_re_lu_541 (PReLU)          (None, 64)                64        
_________________________________________________________________
dropout_453 (Dropout)        (None, 64)                0         
_________________________________________________________________
dense_443 (Dense)            (None, 32)                2080      
_________________________________________________________________
p_re_lu_542 (PReLU)          (None, 32)                32        
_________________________________________________________________
dropout_454 (Dropout)        (None, 32)                0         
_________________________________________________________________
dense_444 (Dense)            (None, 21)                693       
_________________________________________________________________
p_re_lu_543 (PReLU)          (None, 21)                21        
_________________________________________________________________
dense_445 (Dense)            (None, 1)                 22        
=================================================================
Total params: 85,424
Trainable params: 85,376
Non-trainable params: 48
_________________________________________________________________
None
Epoch 1/35
 - 21s - loss: 0.6935 - acc: 0.5179
Epoch 2/35
 - 11s - loss: 0.6925 - acc: 0.5249
Epoch 3/35
 - 11s - loss: 0.6926 - acc: 0.5225
Epoch 4/35
 - 11s - loss: 0.6919 - acc: 0.5275
…
ROC/AUC Score:  0.5890900491132646


CV Score: 0.57% (+/- 0.01%)
CV Time:  0:33:17.619884
Initialising CNN Model... 

Building CNN... 

Filters:  64
Kernel Size:  3
Number of blocks:  3
Pooling type: average
Pooling Strides/Length: 4
Conv Dropout:  0.27924147601073124
FC Dropout:  0.22469485183403864
Dense Units:  32
Activation: prelu
Batch Normalisation: False


Compilation Time:  0.016015291213989258
_________________________________________________________________
Layer (type)                 Output Shape              Param #   
=================================================================
conv1d_188 (Conv1D)          (None, 3998, 64)          256       
_________________________________________________________________
average_pooling1d_83 (Averag (None, 999, 64)           0         
_________________________________________________________________
dropout_455 (Dropout)        (None, 999, 64)           0         
_________________________________________________________________
p_re_lu_544 (PReLU)          (None, 999, 64)           63936     
_________________________________________________________________
conv1d_189 (Conv1D)          (None, 997, 64)           12352     
_________________________________________________________________
average_pooling1d_84 (Averag (None, 249, 64)           0         
_________________________________________________________________
dropout_456 (Dropout)        (None, 249, 64)           0         
_________________________________________________________________
p_re_lu_545 (PReLU)          (None, 249, 64)           15936     
_________________________________________________________________
conv1d_190 (Conv1D)          (None, 247, 64)           12352     
_________________________________________________________________
average_pooling1d_85 (Averag (None, 61, 64)            0         
_________________________________________________________________
dropout_457 (Dropout)        (None, 61, 64)            0         
_________________________________________________________________
p_re_lu_546 (PReLU)          (None, 61, 64)            3904      
_________________________________________________________________
conv1d_191 (Conv1D)          (None, 59, 64)            12352     
_________________________________________________________________
average_pooling1d_86 (Averag (None, 14, 64)            0         
_________________________________________________________________
dropout_458 (Dropout)        (None, 14, 64)            0         
_________________________________________________________________
p_re_lu_547 (PReLU)          (None, 14, 64)            896       
_________________________________________________________________
flatten_90 (Flatten)         (None, 896)               0         
_________________________________________________________________
dense_446 (Dense)            (None, 32)                28704     
_________________________________________________________________
dropout_459 (Dropout)        (None, 32)                0         
_________________________________________________________________
p_re_lu_548 (PReLU)          (None, 32)                32        
_________________________________________________________________
dense_447 (Dense)            (None, 16)                528       
_________________________________________________________________
p_re_lu_549 (PReLU)          (None, 16)                16        
_________________________________________________________________
dropout_460 (Dropout)        (None, 16)                0         
_________________________________________________________________
dense_448 (Dense)            (None, 8)                 136       
_________________________________________________________________
p_re_lu_550 (PReLU)          (None, 8)                 8         
_________________________________________________________________
dropout_461 (Dropout)        (None, 8)                 0         
_________________________________________________________________
dense_449 (Dense)            (None, 5)                 45        
_________________________________________________________________
p_re_lu_551 (PReLU)          (None, 5)                 5         
_________________________________________________________________
dense_450 (Dense)            (None, 1)                 6         
=================================================================
Total params: 151,464
Trainable params: 151,464
Non-trainable params: 0
_________________________________________________________________
None
Epoch 1/35
2018-04-19 13:09:13.438714: W C:\tf_jenkins\workspace\rel-win\M\windows-gpu\PY\35\tensorflow\core\common_runtime\bfc_allocator.cc:217] Allocator (GPU_0_bfc) ran out of memory trying to allocate 3.02GiB. The caller indicates that this is not a failure, but may mean that there could be performance gains if more memory is available.
…
ROC/AUC Score:  0.5438372463294145


CV Score: 0.51% (+/- 0.02%)
CV Time:  0:29:29.464513
Initialising CNN Model... 

Building CNN... 

Filters:  16
Kernel Size:  9
Number of blocks:  1
Pooling type: max
Pooling Strides/Length: 4
Conv Dropout:  0.34854346172446526
FC Dropout:  0.4521603801832161
Dense Units:  32
Activation: prelu
Batch Normalisation: True


Compilation Time:  0.01701664924621582
_________________________________________________________________
Layer (type)                 Output Shape              Param #   
=================================================================
conv1d_192 (Conv1D)          (None, 3992, 16)          160       
_________________________________________________________________
batch_normalization_139 (Bat (None, 3992, 16)          64        
_________________________________________________________________
max_pooling1d_106 (MaxPoolin (None, 998, 16)           0         
_________________________________________________________________
dropout_462 (Dropout)        (None, 998, 16)           0         
_________________________________________________________________
p_re_lu_552 (PReLU)          (None, 998, 16)           15968     
_________________________________________________________________
conv1d_193 (Conv1D)          (None, 990, 16)           2320      
_________________________________________________________________
batch_normalization_140 (Bat (None, 990, 16)           64        
_________________________________________________________________
max_pooling1d_107 (MaxPoolin (None, 248, 16)           0         
_________________________________________________________________
dropout_463 (Dropout)        (None, 248, 16)           0         
_________________________________________________________________
p_re_lu_553 (PReLU)          (None, 248, 16)           3968      
_________________________________________________________________
flatten_91 (Flatten)         (None, 3968)              0         
_________________________________________________________________
dense_451 (Dense)            (None, 32)                127008    
_________________________________________________________________
dropout_464 (Dropout)        (None, 32)                0         
_________________________________________________________________
p_re_lu_554 (PReLU)          (None, 32)                32        
_________________________________________________________________
dense_452 (Dense)            (None, 16)                528       
_________________________________________________________________
p_re_lu_555 (PReLU)          (None, 16)                16        
_________________________________________________________________
dropout_465 (Dropout)        (None, 16)                0         
_________________________________________________________________
dense_453 (Dense)            (None, 8)                 136       
_________________________________________________________________
p_re_lu_556 (PReLU)          (None, 8)                 8         
_________________________________________________________________
dropout_466 (Dropout)        (None, 8)                 0         
_________________________________________________________________
dense_454 (Dense)            (None, 5)                 45        
_________________________________________________________________
p_re_lu_557 (PReLU)          (None, 5)                 5         
_________________________________________________________________
dense_455 (Dense)            (None, 1)                 6         
=================================================================
Total params: 150,328
Trainable params: 150,264
Non-trainable params: 64
_________________________________________________________________
None
Epoch 1/35
 - 17s - loss: 0.7187 - acc: 0.5020
Epoch 2/35
 - 6s - loss: 0.7021 - acc: 0.5038
Epoch 3/35
 - 6s - loss: 0.6983 - acc: 0.5101
Epoch 4/35
 - 6s - loss: 0.6978 - acc: 0.5182
…
ROC/AUC Score:  0.5503898652253989


CV Score: 0.53% (+/- 0.02%)
CV Time:  0:20:42.033060
Initialising CNN Model... 

Building CNN... 

Filters:  32
Kernel Size:  9
Number of blocks:  1
Pooling type: max
Pooling Strides/Length: 2
Conv Dropout:  0.02874322750687519
FC Dropout:  0.11234299601938383
Dense Units:  64
Activation: prelu
Batch Normalisation: True


Compilation Time:  0.01801753044128418
_________________________________________________________________
Layer (type)                 Output Shape              Param #   
=================================================================
conv1d_197 (Conv1D)          (None, 3992, 32)          320       
_________________________________________________________________
batch_normalization_144 (Bat (None, 3992, 32)          128       
_________________________________________________________________
max_pooling1d_108 (MaxPoolin (None, 1996, 32)          0         
_________________________________________________________________
dropout_473 (Dropout)        (None, 1996, 32)          0         
_________________________________________________________________
p_re_lu_565 (PReLU)          (None, 1996, 32)          63872     
_________________________________________________________________
conv1d_198 (Conv1D)          (None, 1988, 32)          9248      
_________________________________________________________________
batch_normalization_145 (Bat (None, 1988, 32)          128       
_________________________________________________________________
max_pooling1d_109 (MaxPoolin (None, 994, 32)           0         
_________________________________________________________________
dropout_474 (Dropout)        (None, 994, 32)           0         
_________________________________________________________________
p_re_lu_566 (PReLU)          (None, 994, 32)           31808     
_________________________________________________________________
flatten_93 (Flatten)         (None, 31808)             0         
_________________________________________________________________
dense_461 (Dense)            (None, 64)                2035776   
_________________________________________________________________
dropout_475 (Dropout)        (None, 64)                0         
_________________________________________________________________
p_re_lu_567 (PReLU)          (None, 64)                64        
_________________________________________________________________
dense_462 (Dense)            (None, 32)                2080      
_________________________________________________________________
p_re_lu_568 (PReLU)          (None, 32)                32        
_________________________________________________________________
dropout_476 (Dropout)        (None, 32)                0         
_________________________________________________________________
dense_463 (Dense)            (None, 16)                528       
_________________________________________________________________
p_re_lu_569 (PReLU)          (None, 16)                16        
_________________________________________________________________
dropout_477 (Dropout)        (None, 16)                0         
_________________________________________________________________
dense_464 (Dense)            (None, 10)                170       
_________________________________________________________________
p_re_lu_570 (PReLU)          (None, 10)                10        
_________________________________________________________________
dense_465 (Dense)            (None, 1)                 11        
=================================================================
Total params: 2,144,191
Trainable params: 2,144,063
Non-trainable params: 128
_________________________________________________________________
None
Epoch 1/35
 - 32s - loss: 0.6978 - acc: 0.5138
Epoch 2/35
 - 18s - loss: 0.6944 - acc: 0.5163
Epoch 3/35
 - 18s - loss: 0.6939 - acc: 0.5150
Epoch 4/35
 - 17s - loss: 0.6934 - acc: 0.5122
…
ROC/AUC Score:  0.48075757640956795


CV Score: 0.49% (+/- 0.01%)
CV Time:  0:19:20.413568
Initialising CNN Model... 

Building CNN... 

Filters:  8
Kernel Size:  7
Number of blocks:  1
Pooling type: average
Pooling Strides/Length: 4
Conv Dropout:  0.151890964022025
FC Dropout:  0.08185694318532247
Dense Units:  128
Activation: prelu
Batch Normalisation: False


Compilation Time:  0.017016172409057617
_________________________________________________________________
Layer (type)                 Output Shape              Param #   
=================================================================
conv1d_202 (Conv1D)          (None, 3994, 8)           64        
_________________________________________________________________
average_pooling1d_90 (Averag (None, 998, 8)            0         
_________________________________________________________________
dropout_484 (Dropout)        (None, 998, 8)            0         
_________________________________________________________________
p_re_lu_578 (PReLU)          (None, 998, 8)            7984      
_________________________________________________________________
conv1d_203 (Conv1D)          (None, 992, 8)            456       
_________________________________________________________________
average_pooling1d_91 (Averag (None, 248, 8)            0         
_________________________________________________________________
dropout_485 (Dropout)        (None, 248, 8)            0         
_________________________________________________________________
p_re_lu_579 (PReLU)          (None, 248, 8)            1984      
_________________________________________________________________
flatten_95 (Flatten)         (None, 1984)              0         
_________________________________________________________________
dense_471 (Dense)            (None, 128)               254080    
_________________________________________________________________
dropout_486 (Dropout)        (None, 128)               0         
_________________________________________________________________
p_re_lu_580 (PReLU)          (None, 128)               128       
_________________________________________________________________
dense_472 (Dense)            (None, 64)                8256      
_________________________________________________________________
p_re_lu_581 (PReLU)          (None, 64)                64        
_________________________________________________________________
dropout_487 (Dropout)        (None, 64)                0         
_________________________________________________________________
dense_473 (Dense)            (None, 32)                2080      
_________________________________________________________________
p_re_lu_582 (PReLU)          (None, 32)                32        
_________________________________________________________________
dropout_488 (Dropout)        (None, 32)                0         
_________________________________________________________________
dense_474 (Dense)            (None, 21)                693       
_________________________________________________________________
p_re_lu_583 (PReLU)          (None, 21)                21        
_________________________________________________________________
dense_475 (Dense)            (None, 1)                 22        
=================================================================
Total params: 275,864
Trainable params: 275,864
Non-trainable params: 0
_________________________________________________________________
None
Epoch 1/35
 - 15s - loss: 0.6929 - acc: 0.5201
Epoch 2/35
 - 5s - loss: 0.6925 - acc: 0.5216
Epoch 3/35
 - 5s - loss: 0.6924 - acc: 0.5216
Epoch 4/35
 - 5s - loss: 0.6923 - acc: 0.5216
…
ROC/AUC Score:  0.5452875865649977


CV Score: 0.53% (+/- 0.02%)
CV Time:  0:13:51.318935
Initialising CNN Model... 

Building CNN... 

Filters:  64
Kernel Size:  9
Number of blocks:  3
Pooling type: max
Pooling Strides/Length: 2
Conv Dropout:  0.044430570374882614
FC Dropout:  0.029384126448949444
Dense Units:  32
Activation: prelu
Batch Normalisation: True


Compilation Time:  0.017003774642944336
_________________________________________________________________
Layer (type)                 Output Shape              Param #   
=================================================================
conv1d_204 (Conv1D)          (None, 3992, 64)          640       
_________________________________________________________________
batch_normalization_149 (Bat (None, 3992, 64)          256       
_________________________________________________________________
max_pooling1d_113 (MaxPoolin (None, 1996, 64)          0         
_________________________________________________________________
dropout_489 (Dropout)        (None, 1996, 64)          0         
_________________________________________________________________
p_re_lu_584 (PReLU)          (None, 1996, 64)          127744    
_________________________________________________________________
conv1d_205 (Conv1D)          (None, 1988, 64)          36928     
_________________________________________________________________
batch_normalization_150 (Bat (None, 1988, 64)          256       
_________________________________________________________________
max_pooling1d_114 (MaxPoolin (None, 994, 64)           0         
_________________________________________________________________
dropout_490 (Dropout)        (None, 994, 64)           0         
_________________________________________________________________
p_re_lu_585 (PReLU)          (None, 994, 64)           63616     
_________________________________________________________________
conv1d_206 (Conv1D)          (None, 986, 64)           36928     
_________________________________________________________________
batch_normalization_151 (Bat (None, 986, 64)           256       
_________________________________________________________________
max_pooling1d_115 (MaxPoolin (None, 493, 64)           0         
_________________________________________________________________
dropout_491 (Dropout)        (None, 493, 64)           0         
_________________________________________________________________
p_re_lu_586 (PReLU)          (None, 493, 64)           31552     
_________________________________________________________________
conv1d_207 (Conv1D)          (None, 485, 64)           36928     
_________________________________________________________________
batch_normalization_152 (Bat (None, 485, 64)           256       
_________________________________________________________________
max_pooling1d_116 (MaxPoolin (None, 242, 64)           0         
_________________________________________________________________
dropout_492 (Dropout)        (None, 242, 64)           0         
_________________________________________________________________
p_re_lu_587 (PReLU)          (None, 242, 64)           15488     
_________________________________________________________________
flatten_96 (Flatten)         (None, 15488)             0         
_________________________________________________________________
dense_476 (Dense)            (None, 32)                495648    
_________________________________________________________________
dropout_493 (Dropout)        (None, 32)                0         
_________________________________________________________________
p_re_lu_588 (PReLU)          (None, 32)                32        
_________________________________________________________________
dense_477 (Dense)            (None, 16)                528       
_________________________________________________________________
p_re_lu_589 (PReLU)          (None, 16)                16        
_________________________________________________________________
dropout_494 (Dropout)        (None, 16)                0         
_________________________________________________________________
dense_478 (Dense)            (None, 8)                 136       
_________________________________________________________________
p_re_lu_590 (PReLU)          (None, 8)                 8         
_________________________________________________________________
dropout_495 (Dropout)        (None, 8)                 0         
_________________________________________________________________
dense_479 (Dense)            (None, 5)                 45        
_________________________________________________________________
p_re_lu_591 (PReLU)          (None, 5)                 5         
_________________________________________________________________
dense_480 (Dense)            (None, 1)                 6         
=================================================================
Total params: 847,272
Trainable params: 846,760
Non-trainable params: 512
_________________________________________________________________
None
Epoch 1/35
 - 36s - loss: 0.6953 - acc: 0.5114
Epoch 2/35
 - 26s - loss: 0.6924 - acc: 0.5241
Epoch 3/35
 - 26s - loss: 0.6912 - acc: 0.5257
Epoch 4/35
 - 27s - loss: 0.6915 - acc: 0.5268
…
ROC/AUC Score:  0.522389459295087


CV Score: 0.53% (+/- 0.01%)
CV Time:  0:19:22.624251
Initialising CNN Model... 

Building CNN... 

Filters:  16
Kernel Size:  9
Number of blocks:  2
Pooling type: max
Pooling Strides/Length: 4
Conv Dropout:  0.009973813617503657
FC Dropout:  0.21038091743469325
Dense Units:  32
Activation: prelu
Batch Normalisation: True


Compilation Time:  0.017994165420532227
_________________________________________________________________
Layer (type)                 Output Shape              Param #   
=================================================================
conv1d_210 (Conv1D)          (None, 3992, 16)          160       
_________________________________________________________________
batch_normalization_155 (Bat (None, 3992, 16)          64        
_________________________________________________________________
max_pooling1d_117 (MaxPoolin (None, 998, 16)           0         
_________________________________________________________________
dropout_501 (Dropout)        (None, 998, 16)           0         
_________________________________________________________________
p_re_lu_598 (PReLU)          (None, 998, 16)           15968     
_________________________________________________________________
conv1d_211 (Conv1D)          (None, 990, 16)           2320      
_________________________________________________________________
batch_normalization_156 (Bat (None, 990, 16)           64        
_________________________________________________________________
max_pooling1d_118 (MaxPoolin (None, 248, 16)           0         
_________________________________________________________________
dropout_502 (Dropout)        (None, 248, 16)           0         
_________________________________________________________________
p_re_lu_599 (PReLU)          (None, 248, 16)           3968      
_________________________________________________________________
conv1d_212 (Conv1D)          (None, 240, 16)           2320      
_________________________________________________________________
batch_normalization_157 (Bat (None, 240, 16)           64        
_________________________________________________________________
max_pooling1d_119 (MaxPoolin (None, 60, 16)            0         
_________________________________________________________________
dropout_503 (Dropout)        (None, 60, 16)            0         
_________________________________________________________________
p_re_lu_600 (PReLU)          (None, 60, 16)            960       
_________________________________________________________________
flatten_98 (Flatten)         (None, 960)               0         
_________________________________________________________________
dense_486 (Dense)            (None, 32)                30752     
_________________________________________________________________
dropout_504 (Dropout)        (None, 32)                0         
_________________________________________________________________
p_re_lu_601 (PReLU)          (None, 32)                32        
_________________________________________________________________
dense_487 (Dense)            (None, 16)                528       
_________________________________________________________________
p_re_lu_602 (PReLU)          (None, 16)                16        
_________________________________________________________________
dropout_505 (Dropout)        (None, 16)                0         
_________________________________________________________________
dense_488 (Dense)            (None, 8)                 136       
_________________________________________________________________
p_re_lu_603 (PReLU)          (None, 8)                 8         
_________________________________________________________________
dropout_506 (Dropout)        (None, 8)                 0         
_________________________________________________________________
dense_489 (Dense)            (None, 5)                 45        
_________________________________________________________________
p_re_lu_604 (PReLU)          (None, 5)                 5         
_________________________________________________________________
dense_490 (Dense)            (None, 1)                 6         
=================================================================
Total params: 57,416
Trainable params: 57,320
Non-trainable params: 96
_________________________________________________________________
None
Epoch 1/35
 - 23s - loss: 0.6948 - acc: 0.5203
Epoch 2/35
 - 12s - loss: 0.6930 - acc: 0.5172
Epoch 3/35
 - 12s - loss: 0.6924 - acc: 0.5225
Epoch 4/35
 - 12s - loss: 0.6922 - acc: 0.5188
…
ROC/AUC Score:  0.5517026840169601


CV Score: 0.53% (+/- 0.02%)
CV Time:  0:36:58.147747
Initialising CNN Model... 

Building CNN... 

Filters:  32
Kernel Size:  5
Number of blocks:  3
Pooling type: average
Pooling Strides/Length: 4
Conv Dropout:  0.07464373993636526
FC Dropout:  0.12471038342744718
Dense Units:  64
Activation: prelu
Batch Normalisation: True


Compilation Time:  0.0200192928314209
_________________________________________________________________
Layer (type)                 Output Shape              Param #   
=================================================================
conv1d_213 (Conv1D)          (None, 3996, 32)          192       
_________________________________________________________________
batch_normalization_158 (Bat (None, 3996, 32)          128       
_________________________________________________________________
average_pooling1d_94 (Averag (None, 999, 32)           0         
_________________________________________________________________
dropout_507 (Dropout)        (None, 999, 32)           0         
_________________________________________________________________
p_re_lu_605 (PReLU)          (None, 999, 32)           31968     
_________________________________________________________________
conv1d_214 (Conv1D)          (None, 995, 32)           5152      
_________________________________________________________________
batch_normalization_159 (Bat (None, 995, 32)           128       
_________________________________________________________________
average_pooling1d_95 (Averag (None, 248, 32)           0         
_________________________________________________________________
dropout_508 (Dropout)        (None, 248, 32)           0         
_________________________________________________________________
p_re_lu_606 (PReLU)          (None, 248, 32)           7936      
_________________________________________________________________
conv1d_215 (Conv1D)          (None, 244, 32)           5152      
_________________________________________________________________
batch_normalization_160 (Bat (None, 244, 32)           128       
_________________________________________________________________
average_pooling1d_96 (Averag (None, 61, 32)            0         
_________________________________________________________________
dropout_509 (Dropout)        (None, 61, 32)            0         
_________________________________________________________________
p_re_lu_607 (PReLU)          (None, 61, 32)            1952      
_________________________________________________________________
conv1d_216 (Conv1D)          (None, 57, 32)            5152      
_________________________________________________________________
batch_normalization_161 (Bat (None, 57, 32)            128       
_________________________________________________________________
average_pooling1d_97 (Averag (None, 14, 32)            0         
_________________________________________________________________
dropout_510 (Dropout)        (None, 14, 32)            0         
_________________________________________________________________
p_re_lu_608 (PReLU)          (None, 14, 32)            448       
_________________________________________________________________
flatten_99 (Flatten)         (None, 448)               0         
_________________________________________________________________
dense_491 (Dense)            (None, 64)                28736     
_________________________________________________________________
dropout_511 (Dropout)        (None, 64)                0         
_________________________________________________________________
p_re_lu_609 (PReLU)          (None, 64)                64        
_________________________________________________________________
dense_492 (Dense)            (None, 32)                2080      
_________________________________________________________________
p_re_lu_610 (PReLU)          (None, 32)                32        
_________________________________________________________________
dropout_512 (Dropout)        (None, 32)                0         
_________________________________________________________________
dense_493 (Dense)            (None, 16)                528       
_________________________________________________________________
p_re_lu_611 (PReLU)          (None, 16)                16        
_________________________________________________________________
dropout_513 (Dropout)        (None, 16)                0         
_________________________________________________________________
dense_494 (Dense)            (None, 10)                170       
_________________________________________________________________
p_re_lu_612 (PReLU)          (None, 10)                10        
_________________________________________________________________
dense_495 (Dense)            (None, 1)                 11        
=================================================================
Total params: 90,111
Trainable params: 89,855
Non-trainable params: 256
_________________________________________________________________
None
Epoch 1/35
 - 25s - loss: 0.7070 - acc: 0.5085
Epoch 2/35
 - 10s - loss: 0.6987 - acc: 0.5145
Epoch 3/35
 - 11s - loss: 0.6948 - acc: 0.5274
Epoch 4/35
 - 11s - loss: 0.6959 - acc: 0.5247
…
ROC/AUC Score:  0.5078946632356232


CV Score: 0.50% (+/- 0.01%)
CV Time:  0:31:40.665730
Initialising CNN Model... 

Building CNN... 

Filters:  8
Kernel Size:  9
Number of blocks:  0
Pooling type: max
Pooling Strides/Length: 2
Conv Dropout:  0.06535108969684071
FC Dropout:  0.30214519868698386
Dense Units:  128
Activation: prelu
Batch Normalisation: False


Compilation Time:  0.01801776885986328
_________________________________________________________________
Layer (type)                 Output Shape              Param #   
=================================================================
conv1d_217 (Conv1D)          (None, 3992, 8)           80        
_________________________________________________________________
max_pooling1d_120 (MaxPoolin (None, 1996, 8)           0         
_________________________________________________________________
dropout_514 (Dropout)        (None, 1996, 8)           0         
_________________________________________________________________
p_re_lu_613 (PReLU)          (None, 1996, 8)           15968     
_________________________________________________________________
flatten_100 (Flatten)        (None, 15968)             0         
_________________________________________________________________
dense_496 (Dense)            (None, 128)               2044032   
_________________________________________________________________
dropout_515 (Dropout)        (None, 128)               0         
_________________________________________________________________
p_re_lu_614 (PReLU)          (None, 128)               128       
_________________________________________________________________
dense_497 (Dense)            (None, 64)                8256      
_________________________________________________________________
p_re_lu_615 (PReLU)          (None, 64)                64        
_________________________________________________________________
dropout_516 (Dropout)        (None, 64)                0         
_________________________________________________________________
dense_498 (Dense)            (None, 32)                2080      
_________________________________________________________________
p_re_lu_616 (PReLU)          (None, 32)                32        
_________________________________________________________________
dropout_517 (Dropout)        (None, 32)                0         
_________________________________________________________________
dense_499 (Dense)            (None, 21)                693       
_________________________________________________________________
p_re_lu_617 (PReLU)          (None, 21)                21        
_________________________________________________________________
dense_500 (Dense)            (None, 1)                 22        
=================================================================
Total params: 2,071,376
Trainable params: 2,071,376
Non-trainable params: 0
_________________________________________________________________
None
Epoch 1/35
 - 17s - loss: 0.6940 - acc: 0.5118
Epoch 2/35
 - 5s - loss: 0.6926 - acc: 0.5188
Epoch 3/35
 - 5s - loss: 0.6925 - acc: 0.5249
Epoch 4/35
 - 5s - loss: 0.6929 - acc: 0.5237
…
