{"config": [{"config": {"name": "conv1d_1", "kernel_constraint": null, "activity_regularizer": null, "kernel_regularizer": null, "padding": "valid", "kernel_initializer": {"config": {"mode": "fan_avg", "seed": null, "distribution": "uniform", "scale": 1.0}, "class_name": "VarianceScaling"}, "batch_input_shape": [null, 4000, 1], "bias_constraint": null, "bias_regularizer": null, "trainable": true, "dtype": "float32", "bias_initializer": {"config": {}, "class_name": "Zeros"}, "filters": 16, "dilation_rate": [1], "strides": [1], "use_bias": true, "kernel_size": [8], "activation": "linear"}, "class_name": "Conv1D"}, {"config": {"momentum": 0.99, "gamma_regularizer": null, "gamma_constraint": null, "moving_variance_initializer": {"config": {}, "class_name": "Ones"}, "beta_initializer": {"config": {}, "class_name": "Zeros"}, "moving_mean_initializer": {"config": {}, "class_name": "Zeros"}, "axis": -1, "trainable": true, "scale": true, "center": true, "beta_regularizer": null, "epsilon": 0.001, "name": "batch_normalization_1", "gamma_initializer": {"config": {}, "class_name": "Ones"}, "beta_constraint": null}, "class_name": "BatchNormalization"}, {"config": {"padding": "valid", "strides": [2], "name": "max_pooling1d_1", "trainable": true, "pool_size": [2]}, "class_name": "MaxPooling1D"}, {"config": {"shared_axes": null, "name": "p_re_lu_1", "trainable": true, "alpha_constraint": null, "alpha_regularizer": null, "alpha_initializer": {"config": {}, "class_name": "Zeros"}}, "class_name": "PReLU"}, {"config": {"rate": 0.8450298764739911, "seed": null, "name": "dropout_1", "noise_shape": null, "trainable": true}, "class_name": "Dropout"}, {"config": {"strides": [1], "kernel_constraint": null, "activity_regularizer": null, "kernel_regularizer": null, "padding": "valid", "kernel_initializer": {"config": {"mode": "fan_avg", "seed": null, "distribution": "uniform", "scale": 1.0}, "class_name": "VarianceScaling"}, "name": "conv1d_2", "trainable": true, "bias_regularizer": null, "bias_constraint": null, "bias_initializer": {"config": {}, "class_name": "Zeros"}, "filters": 16, "dilation_rate": [1], "use_bias": true, "kernel_size": [8], "activation": "linear"}, "class_name": "Conv1D"}, {"config": {"momentum": 0.99, "gamma_regularizer": null, "gamma_constraint": null, "moving_variance_initializer": {"config": {}, "class_name": "Ones"}, "beta_initializer": {"config": {}, "class_name": "Zeros"}, "moving_mean_initializer": {"config": {}, "class_name": "Zeros"}, "axis": -1, "trainable": true, "scale": true, "center": true, "beta_regularizer": null, "epsilon": 0.001, "name": "batch_normalization_2", "gamma_initializer": {"config": {}, "class_name": "Ones"}, "beta_constraint": null}, "class_name": "BatchNormalization"}, {"config": {"padding": "valid", "strides": [2], "name": "max_pooling1d_2", "trainable": true, "pool_size": [2]}, "class_name": "MaxPooling1D"}, {"config": {"shared_axes": null, "name": "p_re_lu_2", "trainable": true, "alpha_constraint": null, "alpha_regularizer": null, "alpha_initializer": {"config": {}, "class_name": "Zeros"}}, "class_name": "PReLU"}, {"config": {"rate": 0.8450298764739911, "seed": null, "name": "dropout_2", "noise_shape": null, "trainable": true}, "class_name": "Dropout"}, {"config": {"strides": [1], "kernel_constraint": null, "activity_regularizer": null, "kernel_regularizer": null, "padding": "valid", "kernel_initializer": {"config": {"mode": "fan_avg", "seed": null, "distribution": "uniform", "scale": 1.0}, "class_name": "VarianceScaling"}, "name": "conv1d_3", "trainable": true, "bias_regularizer": null, "bias_constraint": null, "bias_initializer": {"config": {}, "class_name": "Zeros"}, "filters": 16, "dilation_rate": [1], "use_bias": true, "kernel_size": [8], "activation": "linear"}, "class_name": "Conv1D"}, {"config": {"momentum": 0.99, "gamma_regularizer": null, "gamma_constraint": null, "moving_variance_initializer": {"config": {}, "class_name": "Ones"}, "beta_initializer": {"config": {}, "class_name": "Zeros"}, "moving_mean_initializer": {"config": {}, "class_name": "Zeros"}, "axis": -1, "trainable": true, "scale": true, "center": true, "beta_regularizer": null, "epsilon": 0.001, "name": "batch_normalization_3", "gamma_initializer": {"config": {}, "class_name": "Ones"}, "beta_constraint": null}, "class_name": "BatchNormalization"}, {"config": {"padding": "valid", "strides": [2], "name": "max_pooling1d_3", "trainable": true, "pool_size": [2]}, "class_name": "MaxPooling1D"}, {"config": {"shared_axes": null, "name": "p_re_lu_3", "trainable": true, "alpha_constraint": null, "alpha_regularizer": null, "alpha_initializer": {"config": {}, "class_name": "Zeros"}}, "class_name": "PReLU"}, {"config": {"rate": 0.8450298764739911, "seed": null, "name": "dropout_3", "noise_shape": null, "trainable": true}, "class_name": "Dropout"}, {"config": {"strides": [1], "kernel_constraint": null, "activity_regularizer": null, "kernel_regularizer": null, "padding": "valid", "kernel_initializer": {"config": {"mode": "fan_avg", "seed": null, "distribution": "uniform", "scale": 1.0}, "class_name": "VarianceScaling"}, "name": "conv1d_4", "trainable": true, "bias_regularizer": null, "bias_constraint": null, "bias_initializer": {"config": {}, "class_name": "Zeros"}, "filters": 16, "dilation_rate": [1], "use_bias": true, "kernel_size": [8], "activation": "linear"}, "class_name": "Conv1D"}, {"config": {"momentum": 0.99, "gamma_regularizer": null, "gamma_constraint": null, "moving_variance_initializer": {"config": {}, "class_name": "Ones"}, "beta_initializer": {"config": {}, "class_name": "Zeros"}, "moving_mean_initializer": {"config": {}, "class_name": "Zeros"}, "axis": -1, "trainable": true, "scale": true, "center": true, "beta_regularizer": null, "epsilon": 0.001, "name": "batch_normalization_4", "gamma_initializer": {"config": {}, "class_name": "Ones"}, "beta_constraint": null}, "class_name": "BatchNormalization"}, {"config": {"padding": "valid", "strides": [2], "name": "max_pooling1d_4", "trainable": true, "pool_size": [2]}, "class_name": "MaxPooling1D"}, {"config": {"shared_axes": null, "name": "p_re_lu_4", "trainable": true, "alpha_constraint": null, "alpha_regularizer": null, "alpha_initializer": {"config": {}, "class_name": "Zeros"}}, "class_name": "PReLU"}, {"config": {"rate": 0.8450298764739911, "seed": null, "name": "dropout_4", "noise_shape": null, "trainable": true}, "class_name": "Dropout"}, {"config": {"name": "flatten_1", "trainable": true}, "class_name": "Flatten"}, {"config": {"name": "dense_1", "kernel_constraint": null, "activity_regularizer": null, "kernel_regularizer": null, "trainable": true, "bias_regularizer": null, "bias_constraint": null, "bias_initializer": {"config": {}, "class_name": "Zeros"}, "kernel_initializer": {"config": {"mode": "fan_avg", "seed": null, "distribution": "uniform", "scale": 1.0}, "class_name": "VarianceScaling"}, "activation": "linear", "use_bias": true, "units": 64}, "class_name": "Dense"}, {"config": {"shared_axes": null, "name": "p_re_lu_5", "trainable": true, "alpha_constraint": null, "alpha_regularizer": null, "alpha_initializer": {"config": {}, "class_name": "Zeros"}}, "class_name": "PReLU"}, {"config": {"rate": 0.8450298764739911, "seed": null, "name": "dropout_5", "noise_shape": null, "trainable": true}, "class_name": "Dropout"}, {"config": {"name": "dense_2", "kernel_constraint": null, "activity_regularizer": null, "kernel_regularizer": null, "trainable": true, "bias_regularizer": null, "bias_constraint": null, "bias_initializer": {"config": {}, "class_name": "Zeros"}, "kernel_initializer": {"config": {"mode": "fan_avg", "seed": null, "distribution": "uniform", "scale": 1.0}, "class_name": "VarianceScaling"}, "activation": "linear", "use_bias": true, "units": 32}, "class_name": "Dense"}, {"config": {"shared_axes": null, "name": "p_re_lu_6", "trainable": true, "alpha_constraint": null, "alpha_regularizer": null, "alpha_initializer": {"config": {}, "class_name": "Zeros"}}, "class_name": "PReLU"}, {"config": {"name": "dense_3", "kernel_constraint": null, "activity_regularizer": null, "kernel_regularizer": null, "trainable": true, "bias_regularizer": null, "bias_constraint": null, "bias_initializer": {"config": {}, "class_name": "Zeros"}, "kernel_initializer": {"config": {"mode": "fan_avg", "seed": null, "distribution": "uniform", "scale": 1.0}, "class_name": "VarianceScaling"}, "activation": "linear", "use_bias": true, "units": 16}, "class_name": "Dense"}, {"config": {"shared_axes": null, "name": "p_re_lu_7", "trainable": true, "alpha_constraint": null, "alpha_regularizer": null, "alpha_initializer": {"config": {}, "class_name": "Zeros"}}, "class_name": "PReLU"}, {"config": {"name": "dense_4", "kernel_constraint": null, "activity_regularizer": null, "kernel_regularizer": null, "trainable": true, "bias_regularizer": null, "bias_constraint": null, "bias_initializer": {"config": {}, "class_name": "Zeros"}, "kernel_initializer": {"config": {"mode": "fan_avg", "seed": null, "distribution": "uniform", "scale": 1.0}, "class_name": "VarianceScaling"}, "activation": "linear", "use_bias": true, "units": 8}, "class_name": "Dense"}, {"config": {"shared_axes": null, "name": "p_re_lu_8", "trainable": true, "alpha_constraint": null, "alpha_regularizer": null, "alpha_initializer": {"config": {}, "class_name": "Zeros"}}, "class_name": "PReLU"}, {"config": {"name": "dense_5", "kernel_constraint": null, "activity_regularizer": null, "kernel_regularizer": null, "trainable": true, "bias_regularizer": null, "bias_constraint": null, "bias_initializer": {"config": {}, "class_name": "Zeros"}, "kernel_initializer": {"config": {"mode": "fan_avg", "seed": null, "distribution": "uniform", "scale": 1.0}, "class_name": "VarianceScaling"}, "activation": "sigmoid", "use_bias": true, "units": 1}, "class_name": "Dense"}], "class_name": "Sequential", "keras_version": "2.1.3", "backend": "tensorflow"}